artifacts/training_runs/run_20250613_123230/best_model.pth (torch, 585269 bytes, 39 tensors)

numerical_net.0.weight f4 [64, 36]
-0.09348487 -0.12336448 0.039766155 0.066339746 -0.103003725 -0.055504512 0.043187596 -0.07777026
-0.124806784 -0.023358854 0.20903784 0.13209896 0.061059844 0.09665205 -0.15577139 -0.11841844
0.1513199 -0.11274519 -0.081650764 -0.13450666 0.015369554 -0.07573891 0.14252687 -0.1074181
0.023381254 -0.033566598 0.0053723874 -0.06318179 0.08770714 0.15573704 0.058549408 0.11240266
0.036775276 0.11023378 0.016150802 -0.19272068 -0.07890261 -0.028052265 -0.113848336 0.0062871613
0.013866196 -0.014445358 0.008523809 0.024906863 0.0018179207 0.070517555 0.08856444 -0.02143228
-0.07970843 0.05205847 0.046767745 -0.102200195 0.01289379 0.08119537 -0.15934278 -0.038083717
-0.020064944 -0.14481951 0.116415784 0.026090339 -0.102733076 -0.051510967 0.07113364 0.0353664
0.05346559 0.10343399 0.027286282 -0.12527812 0.08187185 0.09900177 -0.019387133 -0.20022437
0.17676215 0.08374552 0.014242657 -0.0072902697 -0.093118876 0.10720134 -0.03233987 -0.026725618
-0.13873757 -0.108937606 0.08658467 -0.05062246 0.12018895 0.04476412 -0.046750654 0.09426107
-0.09037384 0.06419045 0.005593046 -0.2089105 0.08579931 0.11197682 0.21698004 -0.0012846488
0.035056848 -0.055084214 -0.0207788 -0.07699131 0.033880062 0.054378543 0.061169397 0.0006142112
-0.07909986 -0.06719463 0.0064477585 -0.20276216 -0.04338799 -0.020982064 -0.08499028 0.12698087
0.17900951 0.117362596 -0.07684714 0.013239028 0.028607523 0.12072085 0.002759958 -0.009517701
0.0032905077 0.1184782 0.13177668 0.14233778 0.1388955 -0.03794492 -0.028828468 -0.11121339
-0.085418664 0.023619214 -0.13924506 -0.040345736 -0.017250782 -0.05132709 0.008022113 0.00510798
-0.08434199 -0.0056404546 0.09810942 0.061060995 -0.058249004 0.13220033 -0.061371032 -0.18949972
-0.06645811 0.16142195 0.0601919 -0.14057004 -0.091859825 0.0096334815 0.07403569 0.037540745
0.15194502 -0.17088306 0.025416065 -0.030753134 0.058409814 -0.029953206 -0.048637293 -0.022377227
-0.083199695 0.07853561 0.026831351 0.15834378 -0.031967618 -0.0020442647 0.117457084 0.0069945157
-0.10872862 -0.026148165 -0.058143362 0.023107823 -0.06276293 -0.030341607 0.005210046 0.093127996
-0.118813425 -0.009213574 -0.017450498 0.0021173428 -0.071419924 0.018279912 -0.03726422 0.090342976
-0.028377298 -0.14226396 0.108964376 0.025328906 -0.07712672 -0.038810626 -0.17129293 0.044268277
0.12777582 0.041895308 -0.17620243 -0.07172501 -0.04010696 -0.037619103 0.14061575 -0.0010595861
0.12463469 -0.031511232 -0.17307286 0.097677365 -0.0791423 -0.118183255 0.091682635 0.070647426
0.12980017 -0.023895772 0.11593924 0.11989936 -0.018022304 -0.042145286 0.20195034 -0.08283225
0.0130911665 0.061990906 -0.031914297 0.079800956 0.14266372 0.07375193 0.17855202 0.03413248
0.013871025 -0.114501595 -0.10611264 -0.019889444 -0.003593548 -0.09888539 0.09188233 -0.10993177
-0.13535342 -0.0810753 0.026337521 0.031834878 0.029519346 -0.06781094 -0.0017506834 0.18034136
-0.08124847 0.11057214 0.027739285 0.11640204 -0.113464445 -0.0351059 0.1398186 0.04548422
0.08194841 0.1148623 0.029013732 0.14267355 0.005871741 -0.10446813 -0.123970695 0.06560826
00000000: ff74 bfbd 84a6 fcbd d6e1 223d 22dd 873d
00000010: 9ef3 d2bd b358 63bd 7ae5 303d 0446 9fbd
00000020: b39a ffbd 115b bfbc 040e 563e f344 073e
00000030: e319 7a3d 83f1 c53d 8982 1fbe 5e85 f2bd
00000040: 9bf3 1a3e f3e6 e6bd 8438 a7bd 1dbc 09be
00000050: 95d0 7b3c 001d 9bbd 90f2 113e 05fe dbbd
00000060: 0b8a bf3c 217d 09bd da0a b03b 7465 81bd
00000070: cd9f b33d 8879 1f3e 81d1 6f3d 5e33 e63d
00000080: aca1 163d 40c2 e13d b04e 843c 9258 45be
00000090: b197 a1bd ddcd e5bc 5129 e9bd 8804 ce3b
000000a0: 0b2f 633c 39ac 6cbc 72a7 0b3c 7a09 cc3c
000000b0: 4c47 ee3a 826b 903d 4661 b53d c092 afbc
000000c0: 2c3e a3bd 433b 553d 898f 3f3d 564e d1bd
000000d0: 7a40 533c c249 a63d c12a 23be acfd 1bbd
000000e0: 3d5f a4bc 914b 14be 666b ee3d 68bb d53c
000000f0: b865 d2bd 2afd 52bd 84ae 913d 5cdc 103d
00000100: bcfe 5a3d 33d5 d33d 7b87 df3c e848 00be
00000110: 6eac a73d 71c1 ca3d c4d1 9ebc 9e07 4dbe
00000120: 2301 353e c582 ab3d 095a 693c 37e3 eebb
00000130: 1cb5 bebd 608c db3d d076 04bd afef dabc
00000140: 3911 0ebe ae1a dfbd 4e53 b13d 7f59 4fbd
00000150: a025 f63d 955a 373d 9d7d 3fbd f30b c13d
00000160: eb15 b9bd 4876 833d df45 b73b a2ec 55be
00000170: 8cb7 af3d 1a54 e53d 0430 5e3e a961 a8ba
00000180: c597 0f3d fc9f 61bd 4d38 aabc 9fad 9dbd
00000190: d2c5 0a3d 09bc 5e3d c38c 7a3d 0403 213a
000001a0: 1bff a1bd 579d 89bd b847 d33b e2a0 4fbe
000001b0: 9bb7 31bd 94e2 abbc 620f aebd 4607 023e
000001c0: 454e 373e cd5b f03d 0962 9dbd 82e8 583c
000001d0: 535a ea3c 7e3c f73d 69e0 343b 22f0 1bbc
000001e0: 8fa5 573b b3a4 f23d 77f0 063e ffc0 113e
000001f0: 9f3a 0e3e 226c 1bbd ae29 ecbc d9c3 e3bd
00000200: fbef aebd 157d c13c 4296 0ebe 9241 25bd
00000210: 8351 8dbc 5b3c 52bd 2e6f 033c d860 a73b
00000220: 7ebb acbd 90d3 b8bb 97ed c83d 181b 7a3d
00000230: 8296 6ebd 865f 073e 3160 7bbd 370c 42be
00000240: 311b 88bd cc4b 253e c88b 763d 98f1 0fbe
00000250: 0121 bcbd c0d5 1d3c 06a0 973d 53c4 193d
00000260: 7a97 1b3e f8fb 2ebe 5a35 d03c ffed fbbc
00000270: 213f 6f3d 6d60 f5bc e637 47bd 7250 b7bc
00000280: 9a64 aabd 47d7 a03d 6ccd db3c df24 223e
00000290: 7af0 02bd 12f9 05bb 578d f03d 4032 e53b
000002a0: 1cad debd ad34 d6bc bc27 6ebd 9e4c bd3c
000002b0: da89 80bd f68e f8bc 09b9 aa3b e4b9 be3d
000002c0: 7454 f3bd 88f4 16bc 59f4 8ebc 1ec3 0a3b
000002d0: 9c44 92bd c1bf 953c 5ea2 18bd bd05 b93d
000002e0: 8277 e8bc a5ad 11be b728 df3d 917e cf3c
000002f0: 9df4 9dbd e4f7 1ebd 6a67 2fbe a752 353d
00000300: aad7 023e 6a9a 2b3d 696e 34be 90e4 92bd
00000310: 3247 24bd 7d16 1abd 93fd 0f3e cfe1 8aba
00000320: 7940 ff3d ec11 01bd 033a 31be 120b c83d
00000330: 5c15 a2bd 100a f2bd 1bc4 bb3d 99af 903d
00000340: 56ea 043e 11c1 c3bc 8d71 ed3d cc8d f53d
00000350: 83a3 93bc 89a0 2cbd 12cc 4e3e f4a3 a9bd
00000360: 557c 563c 2dea 7d3d 91b8 02bd af6e a33d
00000370: 7016 123e 400b 973d 57d6 363e 80ce 0b3d
00000380: 4c43 633c d07f eabd 9551 d9bd 30ef a2bc
00000390: bb81 6bbb 6c84 cabd ce2c bc3d e823 e1bd
000003a0: 169a 0abe cf0a a6bd c9c1 d73c 4a65 023d
000003b0: 8ed2 f13c 76e0 8abd 3077 e5ba 68ab 383e
000003c0: 9965 a6bd a573 e23d 7f3d e33c 3164 ee3d
000003d0: 0c60 e8bd 34cb 0fbd 9b2c 0f3e a94d 3a3d
000003e0: 91d4 a73d ed3c eb3d 35ae ed3c 0419 123e
000003f0: bc67 c03b 63f3 d5bd 59e4 fdbd a05d 863d

numerical_net.0.bias f4 [64]
-0.1271704 0.021458235 -0.15835853 -0.1332241 0.054423936 0.041181274 -0.07712961 0.045570977
0.19149151 0.14319462 -0.15449959 -0.023863332 0.009371882 0.06407847 -0.0023869292 0.07334243
0.029108029 -0.12508975 -0.01918878 -0.013161153 0.10607142 -0.10129928 -0.15612671 -0.04882035
-0.1134718 0.07674203 0.17049618 0.00038275542 0.041144695 -0.058688305 -0.099553816 0.20623787
0.020563165 -0.014867421 0.07907069 0.09467213 -0.112195596 -0.06963662 -0.018794267 0.19113632
-0.017063562 0.12392476 -0.026968595 0.00093591586 0.15117058 -0.056868594 -0.09127317 0.029160064
0.09400739 0.13319597 0.035981975 0.17729343 0.16202575 -0.07330811 0.08685934 -0.14177921
0.008725276 -0.03246756 0.11807229 -0.06688179 -0.0577862 0.16915008 0.041580535 0.2034451
00000000: f538 02be 2ec9 af3c bd28 22be e66b 08be
00000010: a2eb 5e3d b2ad 283d 21f6 9dbd a2a8 3a3d
00000020: 5a16 443e 9ca1 123e 2435 1ebe 097d c3bc
00000030: 868c 193c 933b 833d 076e 1cbb 8e34 963d
00000040: f673 ee3c 8717 00be ca31 9dbc e0a1 57bc
00000050: f93b d93d ff75 cfbd aedf 1fbe d9f7 47bd
00000060: e763 e8bd ed2a 9d3d 8d96 2e3e 90ac c839
00000070: 5787 283d 2663 70bd dfe2 cbbd 0530 533e
00000080: 1574 a83c 7c96 73bc d0ef a13d 76e3 c13d
00000090: cec6 e5bd a59d 8ebd 6ff6 99bc 3db9 433e
000000a0: e2c8 8bbc 44cc fd3d 3eed dcbc 4058 753a
000000b0: 76cc 1a3e 0bef 68bd 6eed babd 16e1 ee3c
000000c0: f286 c03d 8664 083e d661 133d 698c 353e
000000d0: 14ea 253e 9022 96bd 4fe3 b13d 922e 11be
000000e0: 76f4 0e3c b4fc 04bd e3cf f13d 52f9 88bd
000000f0: 39b1 6cbd ae35 2d3e 5a50 2a3d ea53 503e

numerical_net.2.weight f4 [64]
0.98054695 1.0008615 0.96914977 0.9770468 0.94203186 0.97422314 0.94167984 0.98811173
1.0163258 1.0042698 0.95461136 0.9382606 0.96188545 1.0217026 0.9330827 0.9428297
0.9777877 0.95160604 1.0005647 0.960886 0.97413 0.93291557 0.96804756 0.9884431
0.9604419 0.9587355 0.9570641 0.9374113 0.9719119 0.9774692 0.9820627 0.9952327
1.0150745 0.9697611 0.9611673 0.9451727 0.9828326 1.0004424 0.9647804 0.99718106
1.0001286 0.98592895 0.96041685 0.9238755 0.96099305 0.9777269 0.9789975 0.97086596
0.9478842 0.9861523 0.92775244 0.96463865 0.99015915 0.9667777 1.0052668 0.9711254
0.9295831 0.957487 0.94426155 0.9857612 0.9740781 0.94422865 0.9841544 0.9697165
00000000: 2005 7b3f 3b1c 803f 331a 783f bd1f 7a3f
00000010: 0029 713f b066 793f ee11 713f e4f4 7c3f
00000020: f716 823f ea8b 803f 6961 743f d931 703f
00000030: 203e 763f 27c7 823f 82de 6e3f 4a5d 713f
00000040: 4b50 7a3f 749c 733f 8112 803f a0fc 753f
00000050: 9560 793f 8ed3 6e3f f7d1 773f 9b0a 7d3f
00000060: 85df 753f b16f 753f 2702 753f 30fa 6f3f
00000070: 38cf 783f 6c3b 7a3f 7668 7b3f 92c7 7e3f
00000080: f6ed 813f 4342 783f 0f0f 763f d7f6 713f
00000090: eb9a 7b3f 7f0e 803f d9fb 763f 4247 7f3f
000000a0: 3704 803f d765 7c3f e1dd 753f 1b83 6c3f
000000b0: a403 763f 4f4c 7a3f 959f 7a3f ac8a 783f
000000c0: 8aa8 723f 7a74 7c3f 2f81 6d3f 8ff2 763f
000000d0: 127b 7d3f be7e 773f 95ac 803f ad9b 783f
000000e0: 28f9 6d3f de1d 753f 20bb 713f d95a 7c3f
000000f0: 2f5d 793f f8b8 713f 8bf1 7b3f 573f 783f

numerical_net.2.bias f4 [64]
0.036755044 0.028681803 0.042838506 0.039098945 -0.015790638 -0.04361102 -0.0333448 0.00097103295
0.028005619 -0.04210246 -0.0060848333 0.028898489 -0.01959298 -0.010678893 0.047398113 -0.036845822
-0.036129545 -0.014597532 -0.03143704 0.029781837 0.0076357103 -0.024863837 -0.037931535 0.020933315
0.04303463 0.015022851 -0.010419261 -0.03184112 0.013264747 -0.039187998 -0.010011642 0.057115395
0.039942794 -0.042646807 -0.05098063 0.014178637 -0.007900371 0.026072288 -0.016143044 -0.019498277
0.014483053 -0.03422236 0.011484266 -0.036913887 -0.04281925 0.003256714 -0.020128643 -0.019817153
-0.01768539 0.0042921407 -0.011079626 0.03376752 -0.006496256 0.0024382747 -0.01126657 0.015366737
-0.016650332 0.015011846 -0.04110474 0.001913161 -0.012857318 -0.0010582549 -0.019104706 -0.027303139
00000000: 758c 163d 1af6 ea3c 6e77 2f3d 3726 203d
00000010: 5e5b 81bc 78a1 32bd 8f94 08bd eb8c 7e3a
00000020: 0a6c e53c a173 2cbd 4863 c7bb 86bc ec3c
00000030: 7581 a0bc 86f6 2ebc 8624 423d a5eb 16bd
00000040: 93fc 13bd 7d2a 6fbc 20c4 00bd 0af9 f33c
00000050: fb34 fa3b 3faf cbbc 195e 1bbd 587c ab3c
00000060: 1545 303d 6722 763c 8cb5 2abc d66b 02bd
00000070: 6254 593c 9883 20bd df07 24bc d5f1 693d
00000080: 0e9b 233d 6bae 2ebd 11d1 50bd 844d 683c
00000090: 8f70 01bc 8d95 d53c 6b3e 84bc daba 9fbc
000000a0: 544a 6d3c bf2c 0cbd 8128 3c3c 0433 17bd
000000b0: 3d63 2fbd 986e 553b d3e4 a4bc 9557 a2bc
000000c0: f3e0 90bc 16a5 8c3b 5287 35bc d04f 0a3d
000000d0: 8cde d4bb 76cb 1f3b 6b97 38bc c4c4 7b3c
000000e0: 4766 88bc 3ff4 753c 725d 28bd 08c3 fa3a
000000f0: 80a7 52bc 24b5 8aba 7981 9cbc d5aa dfbc

numerical_net.2.running_mean f4 [64]
0.1720823 0.1838307 0.10371776 0.16741735 0.22366595 0.2924767 0.21487977 0.2715948
0.2722841 0.25769088 0.18364845 0.1990013 0.25462914 0.19451556 0.21748935 0.32086053
0.22820783 0.16747615 0.21349542 0.22249849 0.25631857 0.23148789 0.15489379 0.1443922
0.19964023 0.27618188 0.3449016 0.1903631 0.21207172 0.19411613 0.13967223 0.29781747
0.18993598 0.18669036 0.22533052 0.190272 0.18952577 0.19722609 0.2565261 0.28826827
0.16086715 0.31295457 0.26277485 0.22235289 0.2972064 0.20767759 0.18760957 0.22901103
0.29570755 0.2557987 0.20361218 0.34543347 0.31382504 0.23278254 0.25309384 0.09010827
0.23950957 0.18711959 0.27338755 0.14067553 0.21867906 0.28046313 0.2494587 0.33918557
00000000: 5836 303e 1d3e 3c3e fa69 d43d 746f 2b3e
00000010: b008 653e 82bf 953e 7109 5c3e 790e 8b3e
00000020: d268 8b3e 0ff0 833e 570e 3c3e ffc6 4b3e
00000030: c05e 823e 162f 473e 87b5 5e3e d547 a43e
00000040: 50af 693e de7e 2b3e 8b9e 5a3e a5d6 633e
00000050: 303c 833e 290b 6d3e 7a9c 1e3e 8ddb 133e
00000060: 7d6e 4c3e b667 8d3e f196 b03e 8bee 423e
00000070: 5429 593e 61c6 463e 3d06 0f3e 887b 983e
00000080: 947e 423e c22b 3f3e 0bbd 663e aad6 423e
00000090: 0b13 423e a3f5 493e 6457 833e e697 933e
000000a0: 5cba 243e 953b a03e 6d8a 863e 7ab0 633e
000000b0: 702b 983e 6fa9 543e b91c 403e de81 6a3e
000000c0: fb66 973e 0cf8 823e b67f 503e a8dc b03e
000000d0: adad a03e 8c5e 6e3e 8495 813e af8a b83d
000000e0: ff41 753e 479c 3f3e 74f9 8b3e 3f0d 103e
000000f0: 67ed 5f3e dd98 8f3e 1a72 7f3e bba9 ad3e

numerical_net.2.running_var f4 [64]
0.09703158 0.06436585 0.048704326 0.08984992 0.107424945 0.13406454 0.0985092 0.10897069
0.09116865 0.09020405 0.100571364 0.09027773 0.10667884 0.119822666 0.118467435 0.19633438
0.114430636 0.087668225 0.10364065 0.15121782 0.09924328 0.15009007 0.085906856 0.055874046
0.1186839 0.14379223 0.17396808 0.07391381 0.108053505 0.08096358 0.05347345 0.12585685
0.07949935 0.07345246 0.09567932 0.062366057 0.10410924 0.109394096 0.15265638 0.15074863
0.06428634 0.15987284 0.19968085 0.11558286 0.118394226 0.10976058 0.082563415 0.101463
0.14571396 0.09473831 0.0787269 0.1972975 0.12366632 0.1327642 0.10575494 0.029974706
0.1250698 0.07901277 0.109403074 0.0814555 0.103646174 0.1051318 0.08664448 0.11662866
00000000: 7eb8 c63d 3ed2 833d 307e 473d 3c03 b83d
00000010: 9c01 dc3d 3748 093e 31bf c93d 062c df3d
00000020: a1b6 ba3d e7bc b83d 5cf8 cd3d 88e3 b83d
00000030: 707a da3d 9665 f53d 0e9f f23d e10b 493e
00000040: 9c5a ea3d 668b b33d 8d41 d43d d8d8 1a3e
00000050: 1040 cb3d 36b1 193e efef af3d 2fdc 643d
00000060: 8b10 f33d 453e 133e b024 323e 2060 973d
00000070: 284b dd3d 3cd0 a53d fa06 5b3d 9ee0 003e
00000080: 8ed0 a23d 3e6e 963d 85f3 c33d 8d73 7f3d
00000090: 3a37 d53d 030a e03d f451 1c3e d95d 1a3e
000000a0: 8ea8 833d b5b5 233e 2379 4c3e b5b6 ec3d
000000b0: ac78 f23d 28ca e03d 0217 a93d d5cb cf3d
000000c0: 0a36 153e 2906 c23d 923b a13d 5b08 4a3e
000000d0: c544 fd3d 57f3 073e 0c96 d83d 848d f53c
000000e0: 4c12 003e 72d1 a13d b80e e03d 24d2 a63d
000000f0: 7244 d43d 574f d73d a972 b13d 02db ee3d

numerical_net.4.weight f4 [64, 64]
0.113380626 0.012761145 0.04755573 0.023826953 0.026935954 0.01033971 -0.090584055 -0.068342954
0.10916416 0.07934479 -0.07024648 0.09496131 -0.00984214 -0.0661209 0.0616163 -0.01027302
-0.0024147676 -0.019871024 -0.02689844 0.09984397 -0.09270404 0.082051694 0.11523886 0.1079227
0.11683981 -0.01137791 -0.06256417 0.06011538 -0.052069902 -0.087100916 -0.081378736 -0.104613855
-0.1243604 -0.13187608 -0.0933613 -0.083115295 0.10471532 0.0024891533 0.0049538263 -0.070360534
-0.09900953 0.028470878 -0.03766819 0.014944888 0.067061335 0.058737304 -0.10214177 0.058388665
-0.0918473 0.029250681 -0.014025548 0.108217865 -0.025084823 0.0043815873 0.010309521 -0.043350395
-0.09608946 0.04916025 0.111575715 0.13736361 -0.013966613 -0.08734622 -0.020559987 0.00862004
0.009407992 0.053544935 -0.06984588 0.01204865 -0.039239414 0.03094155 0.058683924 0.10280315
0.0826969 -0.10164428 -0.10535026 -0.0725913 -0.0022994594 0.13483918 0.12959634 -0.055820283
0.1503002 -0.058970407 -0.12470272 0.03958624 -0.02836148 0.05096531 -0.07449196 0.09196435
-0.037545852 0.10776121 -0.07804529 0.03293771 0.01202298 -0.0745013 -0.09252479 0.12167934
-0.0036716694 -0.08812954 -0.07286252 0.08593113 0.046377312 0.09943249 -0.025425574 -0.08087794
0.0034679389 -0.034281496 0.09960204 -0.10023354 0.048785143 -0.05973611 -0.0029695139 -0.021090452
-0.085847944 0.1469706 -0.03321158 0.050166965 0.11461264 0.094629735 -0.078402855 -0.07302911
-0.038538795 -0.07303449 -0.033824973 0.07713936 0.08170389 0.05684952 -0.093314864 0.071433
0.037274208 -0.04151896 -0.12926054 0.0076536117 0.0008075547 0.008502575 0.05799113 0.115600914
-0.13362855 -0.034718864 0.104184836 0.06278537 0.12363546 -0.1159049 0.07022919 0.060013954
0.1396972 0.04075669 0.15032287 -0.053320013 0.088729315 0.036800914 0.0010095952 0.040650785
0.03174903 0.13806602 -0.0006095445 -0.04244996 0.040748637 0.025221054 0.0373704 0.049447097
-0.075931795 0.12599051 -0.019201921 -0.12213372 0.012519558 0.061799105 0.04867936 -0.07758094
-0.011518839 0.12305506 -0.06407409 -0.0031169553 -0.048056 -0.051346466 0.064532205 0.07170245
-0.10319169 -0.06368751 0.053041413 -0.06076555 -0.009995419 -0.049822357 -0.071855366 -0.021862349
-0.113052405 -0.06939955 -0.00069588254 0.057926267 0.100922965 -0.0083425185 0.041538235 0.122258075
0.12251783 0.1489288 0.03456621 0.05801992 0.0021937983 0.047679793 -0.024327101 0.00826064
-0.02801442 -0.022683281 -0.073416814 -0.09293932 -0.0019598664 -0.05168758 -0.11272799 -0.08958213
-0.04621577 -0.059173696 -0.024175206 -0.026112197 0.009952 0.00047309775 -0.073012985 0.019895675
-0.021218644 0.032990538 0.03243887 0.06261324 -0.11562802 -0.040581476 0.10792644 0.11861517
0.15078864 0.02667978 0.016487047 0.079466574 0.041486226 -0.03183112 0.063185014 0.045923732
-0.053538598 -5.9651647e-05 -0.067230515 -0.0066730757 -0.11238823 -0.12393786 0.054126408 -0.10535671
-0.014539264 -0.07794371 0.082397476 0.025031809 0.05522148 -0.0863894 0.081788525 -0.06204256
-0.008197275 0.028238675 -0.14867653 -0.07311863 -0.036063254 0.016672516 -0.055305008 -0.068674065
00000000: 1a34 e83d 1f14 513c ccc9 423d be30 c33c
00000010: caa8 dc3c e367 293c 2284 b9bd 64f7 8bbd
00000020: 7691 df3d 857f a23d 63dd 8fbd 137b c23d
00000030: ed40 21bc 656a 87bd 6061 7c3d 2b50 28bc
00000040: 1441 1ebb 8fc8 a2bc 1e5a dcbc ff7a cc3d
00000050: 9edb bdbd b80a a83d 5a02 ec3d 9406 dd3d
00000060: b649 ef3d 6a6a 3abc a521 80bd 8b3b 763d
00000070: 4047 55bd f761 b2bd e5a9 a6bd ca3f d6bd
00000080: aab0 febd 860a 07be 3634 bfbd 5a38 aabd
00000090: fc74 d63d 1021 233b b553 a23b 2f19 90bd
000000a0: 82c5 cabd c23b e93c f649 1abd 67db 743c
000000b0: 7457 893d 8796 703d b42f d1bd f428 6f3d
000000c0: 701a bcbd 209f ef3c 69cb 65bc 54a1 dd3d
000000d0: b07e cdbc 6b93 8f3b 44e9 283c 2f90 31bd
000000e0: 8dca c4bd 425c 493d cf81 e43d 0ca9 0c3e
000000f0: 39d4 64bc 93e2 b2bd 6b6d a8bc 113b 0d3c
00000100: fa23 1a3c ef51 5b3d 5b0b 8fbd b367 453c
00000110: 82b9 20bd 2279 fd3c 8e5e 703d 758a d23d
00000120: fe5c a93d e02a d0bd e1c1 d7bd bfaa 94bd
00000130: 87b2 16bb 4813 0a3e e7b4 043e cfa3 64bd
00000140: 4ce8 193e f48a 71bd 2464 ffbd 2e25 223d
00000150: 5656 e8bc 00c1 503d 3e8f 98bd ce57 bc3d
00000160: aec9 19bd e9b1 dc3d 36d6 9fbd b1e9 063d
00000170: 08fc 443c 2394 98bd a37d bdbd 0533 f93d
00000180: 64a0 70bb 437d b4bd f238 95bd a9fc af3d
00000190: 23f6 3d3d 43a3 cb3d 4b49 d0bc 55a3 a5bd
000001a0: 5c46 633b c16a 0cbd 28fc cb3d 3e47 cdbd
000001b0: eed2 473d daad 74bd 2d9c 42bb e2c5 acbc
000001c0: 0cd1 afbd 767f 163e de08 08bd e07b 4d3d
000001d0: 08ba ea3d 3ccd c13d ad91 a0bd 4990 95bd
000001e0: dbda 1dbd 1b93 95bd 0e8c 0abd 3efb 9d3d
000001f0: 5e54 a73d 0bdb 683d dd1b bfbd 774b 923d
00000200: d7ac 183d c90f 2abd e05c 04be 26cb fa3b
00000210: 14b2 533a 624e 0b3c 1b88 6d3d 2cc0 ec3d
00000220: ecd5 08be 5e35 0ebd dc5e d53d 9e95 803d
00000230: 9734 fd3d 8c5f edbd 52d4 8f3d 31d1 753d
00000240: c80c 0f3e 7df0 263d 3dee 193e 1666 5abd
00000250: b7b7 b53d 8ebc 163d 6554 843a 7081 263d
00000260: 450b 023d 2e61 0d3e d7c9 1fba 02e0 2dbd
00000270: 0be8 263d 629c ce3c b411 193d 0a89 4a3d
00000280: 2182 9bbd a803 013e 594d 9dbc 3e21 fabd
00000290: d51e 4d3c 0f21 7d3d 0264 473d c2e2 9ebd
000002a0: 83b9 3cbc 4b04 fc3d 4739 83bd d545 4cbb
000002b0: 5ed6 44bd ac50 52bd 7629 843d bcd8 923d
000002c0: 2a56 d3bd 996e 82bd f441 593d 4ce5 78bd
000002d0: d3c3 23bc 8712 4cbd e828 93bd ab18 b3bc
000002e0: 0588 e7bd 5a21 8ebd e36b 36ba 1844 6d3d
000002f0: b3b0 ce3d 0faf 08bc ff23 2a3d 7162 fa3d
00000300: a1ea fa3d cb80 183e 4c95 0d3d 4ca6 6d3d
00000310: d4c5 0f3b e34b 433d a149 c7bc a357 073c
00000320: 7f7e e5bc 4ad2 b9bc 8e5b 96bd f856 bebd
00000330: 1a71 00bb 5bb6 53bd efdd e6bd d676 b7bd
00000340: bf4c 3dbd 1e60 72bd 150b c6bc 3fe9 d5bc
00000350: b70d 233c 1b0a f839 d587 95bd 41fc a23c
00000360: b9d2 adbc 1621 073d 9fde 043d 5f3b 803d
00000370: 62ce ecbd c338 26bd 8a08 dd3d 83ec f23d
00000380: 5668 1a3e 8e8f da3c d80f 873c 5fbf a23d
00000390: 76ed 293d 5961 02bd 2567 813d 861a 3c3d
000003a0: 4a4b 5bbd 7832 7ab8 27b0 89bd d1a9 dabb
000003b0: cd2b e6bd 22d3 fdbd a7b3 5d3d 42c5 d7bd
000003c0: 1836 6ebc f4a0 9fbd 02c0 a83d 820f cd3c
000003d0: eb2f 623d edec b0bd be80 a73d 5720 7ebd
000003e0: dd4d 06bc cb54 e73c a93e 18be 38bf 95bd
000003f0: 10b7 13bd cd94 883c 8187 62bd fda4 8cbd

numerical_net.4.bias f4 [64]
0.077168256 0.10939074 0.111229524 -0.045442186 -0.04134096 0.09893842 0.09290284 -0.0008656028
0.07041738 0.03130931 -0.08167729 0.1495107 -0.059579164 -0.030929754 0.057766486 -0.06606203
0.11030022 0.06793592 -0.031238878 -0.03194912 -0.016530108 0.06968763 -0.022104515 -0.03486152
0.089346424 0.110528074 -0.1488198 0.06753641 0.05640978 0.0018805086 0.014945886 -0.081453726
-0.049905743 0.12750441 -0.07141444 0.075254224 0.09687919 0.081089824 -0.08069858 0.010827069
0.017668404 -0.046467606 0.12680507 0.06845095 0.12817852 -0.027812941 0.027168691 0.014026668
0.10458308 0.07682498 0.08675551 -0.019298296 0.033816904 0.03475387 0.121201925 0.11107522
0.11556104 0.044618335 0.11195648 0.039739847 0.0338324 0.051268686 -0.037510656 0.086910516
00000000: 640a 9e3d 4108 e03d 4ecc e33d 9621 3abd
00000010: 2355 29bd 3aa0 ca3d d843 be3d 9fe9 62ba
00000020: fd36 903d 313e 003d 6c46 a7bd 5519 193e
00000030: 4809 74bd 6560 fdbc 8d9c 6c3d 884b 87bd
00000040: 15e5 e13d fd21 8b3d ade8 ffbc 15dd 02bd
00000050: 266a 87bc 63b8 8e3d 8714 b5bc f4ca 0ebd
00000060: 42fb b63d 8b5c e23d 3864 18be 8850 8a3d
00000070: f10d 673d 667b f63a 97df 743c 36d1 a6bd
00000080: f769 4cbd 8490 023e bc41 92bd e31e 9a3d
00000090: 9968 c63d 6c12 a63d 4c45 a5bd 0564 313c
000000a0: 54bd 903c d154 3ebd 30d9 013e 0330 8c3d
000000b0: 3b41 033e f7d7 e3bc e090 de3c 1cd0 653c
000000c0: a72f d63d 6a56 9d3d dfac b13d 7617 9ebc
000000d0: 9883 0a3d 135a 0e3d b738 f83d 687b e33d
000000e0: 44ab ec3d b7c1 363d 7049 e53d 40c6 223d
000000f0: d893 0a3d 1dff 513d c6a4 19bd 24fe b13d

numerical_net.6.weight f4 [64]
0.9501131 0.9707898 0.9761285 0.97432715 0.9722605 0.97209734 0.9760922 0.9519191
0.9721703 0.95327544 0.9957469 0.9775096 0.9852933 0.9559588 0.9848453 0.98604995
0.9613189 0.957337 0.99945575 0.944225 0.9906862 0.9508972 0.9521903 0.96389586
0.9577284 0.988433 0.95775354 0.972177 0.96180445 0.97066844 0.97217953 0.9521167
0.9619928 0.94403046 0.9595693 0.9556203 0.99827945 0.94998956 0.94731176 0.96111923
0.9517807 0.9532135 0.98200715 0.9646834 0.9679157 0.9724739 0.97865254 0.96694624
0.9431584 0.9690423 0.9805455 0.9607681 0.946199 0.96482366 0.9870408 0.96020246
0.9785655 0.9530701 0.9555532 0.9667458 0.98520905 0.9464676 0.9528488 0.95054686
00000000: 9d3a 733f ae85 783f 8fe3 793f 816d 793f
00000010: 10e6 783f 5fdb 783f 2ee1 793f f8b0 733f
00000020: 27e0 783f dc09 743f 45e9 7e3f 123e 7a3f
00000030: 2f3c 7c3f b7b9 743f d21e 7c3f c56d 7c3f
00000040: ff18 763f 0a14 753f 55dc 7f3f bbb8 713f
00000050: 9c9d 7d3f 006e 733f bec2 733f e1c1 763f
00000060: b02d 753f f209 7d3f 562f 753f 98e0 783f
00000070: d138 763f ba7d 783f c2e0 783f ecbd 733f
00000080: 2945 763f fbab 713f 55a6 753f 88a3 743f
00000090: 3e8f 7f3f 8432 733f 0683 723f e90b 763f
000000a0: e6a7 733f cd05 743f d264 7b3f 7ef5 763f
000000b0: 53c9 773f 0df4 783f f988 7a3f ca89 773f
000000c0: d472 713f 2813 783f 0805 7b3f e6f4 753f
000000d0: 193a 723f affe 763f b5ae 7c3f d4cf 753f
000000e0: 4583 7a3f 67fc 733f 229f 743f a77c 773f
000000f0: a936 7c3f b34b 723f e6ed 733f 0a57 733f

numerical_net.6.bias f4 [64]
-0.0060469406 -0.035882115 0.027551584 -0.031358406 0.016194608 -0.0007663052 -0.025936892 0.006196211
-0.023195619 -0.008977137 0.008435881 -0.041142814 0.012887864 -0.029675271 0.004149907 0.003032824
0.01618905 -0.010456929 -0.039190203 -0.008626834 0.017560821 0.02632863 -0.026110414 -0.030575879
0.013905501 0.0261431 -0.026676815 -0.01896971 -0.006890095 0.014239626 -0.0008927189 0.02592316
-0.036823094 -0.009976003 0.0028109218 0.013662699 -0.020220393 0.015588232 -0.0147822695 -0.0076271626
-0.015227771 0.004256496 -0.033644937 -0.0020547141 -0.03062024 -0.0093669295 -0.015070719 -0.030067595
0.0036664517 -0.0027282282 -0.034211356 4.284829e-05 -0.016653389 -0.03547002 -0.025103977 0.024631072
-0.033882156 -0.04410106 -0.03056213 0.03394732 -0.017742848 -0.027512796 0.021313863 -0.027215324
00000000: 6a25 c6bb 20f9 12bd dcb3 e13c ac71 00bd
00000010: 8eaa 843c dfe1 48ba 9b79 d4bc 9609 cb3b
00000020: bd04 bebc d714 13bc a636 0a3c 5e85 28bd
00000030: 9f27 533c 8e19 f3bc f1fb 873b 58c2 463b
00000040: e69e 843c 8a53 2bbc e885 20bd 9057 0dbc
00000050: b6db 8f3c 24af d73c 82e5 d5bc 447a fabc
00000060: e6d3 633c 0e2a d63c 5689 dabc 5e66 9bbc
00000070: 4ec6 e1bb 524d 693c 5a05 6aba cf5c d43c
00000080: d0d3 16bd 6472 23bc 7137 383b 83d9 5f3c
00000090: 3da5 a5bc c965 7f3c 5531 72bc 47ed f9bb
000000a0: e77d 79bc 147a 8b3b 46cf 09bd 62a8 06bb
000000b0: 4cd7 fabc c077 19bc 2deb 76bc 5150 f6bc
000000c0: da48 703b 13cc 32bb 3521 0cbd 00b8 3338
000000d0: b06c 88bc 0349 11bd dba6 cdbc 1ac7 c93c
000000e0: 04c8 0abd 50a3 34bd 6f5d fabc 580c 0b3d
000000f0: 7359 91bc 8462 e1bc 699a ae3c acf2 debc

numerical_net.6.running_mean f4 [64]
0.30885187 0.3753616 0.41153958 0.24314243 0.2757171 0.2891282 0.3368718 0.32526702
0.35055155 0.23466156 0.2457008 0.4233554 0.23370063 0.27674788 0.351891 0.2926578
0.29830873 0.30661058 0.26636508 0.24012032 0.2540236 0.2731293 0.2353953 0.27465034
0.32328156 0.38785732 0.19041611 0.32132247 0.28667766 0.25834006 0.2974932 0.17850418
0.27713072 0.3640545 0.25345805 0.2720518 0.41172475 0.35782072 0.2991281 0.25941408
0.2691358 0.29292548 0.44384164 0.3423171 0.44896436 0.3616761 0.3210721 0.2842078
0.37198693 0.33600637 0.3970109 0.31464276 0.28007892 0.26541683 0.34293327 0.3265099
0.36599472 0.33731365 0.33535644 0.3435658 0.35539463 0.27969787 0.25857484 0.29547977
00000000: d521 9e3e 652f c03e 51b5 d23e 54fa 783e
00000010: cb2a 8d3e 9d08 943e 767a ac3e 6689 a63e
00000020: 7e7b b33e 1f4b 703e fe98 7b3e 0ac2 d83e
00000030: 384f 6f3e e6b1 8d3e 0f2b b43e 3ed7 953e
00000040: ecbb 983e 10fc 9c3e 0161 883e 1ae2 753e
00000050: 620f 823e 9bd7 8b3e 770b 713e f89e 8c3e
00000060: 2985 a53e 3c95 c63e 71fc 423e 6184 a43e
00000070: 6ac7 923e 2645 843e 0751 983e cdc9 363e
00000080: 14e4 8d3e 5a65 ba3e 41c5 813e 604a 8b3e
00000090: 96cd d23e 4734 b73e 5127 993e ecd1 843e
000000a0: 2bcc 893e 54fa 953e 363f e33e 3044 af3e
000000b0: a8de e53e 9c2d b93e 9063 a43e af83 913e
000000c0: 1275 be3e 0709 ac3e 0345 cb3e db18 a13e
000000d0: 8166 8f3e b7e4 873e f394 af3e 4e2c a73e
000000e0: a963 bb3e 60b4 ac3e d7b3 ab3e dbe7 af3e
000000f0: 49f6 b53e 8f34 8f3e ec63 843e 2049 973e

numerical_net.6.running_var f4 [64]
0.23502749 0.36400566 0.38817173 0.15523437 0.17011037 0.12801908 0.23581126 0.3398057
0.27308148 0.105952606 0.17408273 0.3959935 0.17373092 0.22352402 0.32343456 0.24065438
0.16192997 0.19795802 0.24257745 0.17191172 0.14836209 0.13716897 0.11589835 0.22721371
0.25994548 0.21816337 0.11686901 0.26672465 0.19251919 0.23316735 0.17200227 0.0930356
0.1990032 0.23246725 0.16119406 0.12327102 0.38968447 0.24635668 0.20127185 0.19573367
0.1515985 0.16979703 0.34903955 0.19615838 0.31667036 0.35782155 0.26928264 0.25813046
0.20713948 0.1809985 0.30575764 0.43451002 0.14102532 0.19780695 0.27145892 0.16091949
0.2535086 0.19649251 0.1943341 0.323986 0.37810764 0.17904669 0.12461847 0.15372898
00000000: 0cab 703e f35e ba3e 72be c63e c2f5 1e3e
00000010: 6a31 2e3e 6f17 033e 8278 713e 03fb ad3e
00000020: 56d1 8b3e aefd d83d be42 323e a9bf ca3e
00000030: 85e6 313e 7be3 643e 3799 a53e 1a6e 763e
00000040: f8d0 253e 82b5 4a3e 3966 783e a009 303e
00000050: 3bec 173e 0676 0c3e 1d5c ed3d b6aa 683e
00000060: 9317 853e 3866 5f3e 0559 ef3d 2290 883e
00000070: c023 453e 6cc3 6e3e 5d21 303e 7389 be3d
00000080: 7fc7 4b3e e50b 6e3e 0e10 253e 8475 fc3d
00000090: b984 c73e ed44 7c3e 351a 4e3e 686e 483e
000000a0: a33c 1b3e 46df 2d3e 50b5 b23e bedd 483e
000000b0: 9e22 a23e 6334 b73e 6adf 893e ad29 843e
000000c0: 5f1c 543e ac57 393e 448c 9c3e 1978 de3e
000000d0: f168 103e e88d 4a3e aafc 8a3e 14c8 243e
000000e0: e1cb 813e 5535 493e 85ff 463e 7ee1 a53e
000000f0: 5397 c13e 0458 373e f837 ff3d 216b 1d3e

title_net.0.weight f4 [128, 200]
0.010257727 -0.0483845 -0.019489788 -0.038402297 -0.06877358 -0.028227665 -0.045058988 0.023255829
-0.0063159335 0.08704714 0.03317402 -0.012930106 0.026513139 -0.0035449974 -0.065063335 0.0382001
0.018047635 -0.043793704 -0.04643977 0.020213054 -0.005241309 0.044016674 0.07111496 0.053161267
-0.026251324 0.012496876 -0.037153676 0.028154131 -0.078838035 -0.027572425 0.024523383 0.007267647
-0.083949186 0.0034133873 0.03330283 -0.02557656 -0.07794149 -0.0652392 -0.00910389 -0.0014114461
-0.0048735165 0.0038158346 -0.0017103622 -0.048741564 0.021639112 -0.013812338 0.02771669 0.02517887
0.008099372 -0.014277865 0.008779739 -0.01154937 0.045194063 0.08473428 -0.029721128 -0.0050492994
-0.0020548315 0.02627282 0.073226884 -0.033390332 0.00562661 0.046031237 0.053553786 -0.02007593
0.016374165 0.05132758 0.0299886 0.08930719 -0.012804213 0.013106191 0.05611341 0.038437426
-0.018432653 0.013735013 0.060566973 0.030217266 -0.05595604 0.07198302 0.033829942 0.008305734
0.07657255 0.013726659 -0.075326495 0.013928501 -0.071068816 -0.0009353425 0.06681977 0.050417364
0.021589553 -0.058596503 -0.0322696 -0.0403881 0.040219013 -0.0010493897 -0.069087 -0.036709204
-0.01975748 0.04037247 -0.020830033 0.032392077 0.06395874 0.10830219 -0.0355737 -0.045811485
0.018657573 -0.016078841 9.0905654e-05 0.07103083 0.016154815 -0.070756376 -0.020331433 0.046213552
0.03298391 0.028024273 0.031310476 -0.01833668 -0.024951637 -0.016528219 0.063141145 0.0059825685
-0.013224511 0.021927208 0.0026408222 -0.039397657 0.067463435 -0.00405856 0.014407119 0.04457231
-0.024982784 -0.03090555 -0.05138094 0.04392459 0.0053162486 -0.022955738 -0.030100515 0.024533594
-0.022154827 -0.020847393 -0.036933675 0.0005593153 0.021392528 -0.035202123 -0.007672335 0.009489885
-0.012267 0.06330063 0.0009363398 0.013561525 0.006686987 0.026751554 0.008277372 -0.020732991
-0.042794444 0.0383215 0.060570177 0.07659958 -0.003932232 -0.036277086 -0.08546075 0.051726628
-0.028391166 0.10150798 0.018469036 0.017235499 0.0297234 -0.016956815 0.031703565 -0.0770563
0.01435474 -0.09608531 0.018158175 0.08603383 -0.020392375 -0.01877654 -0.03486479 -0.041851822
-0.016361583 -0.05383746 -0.044453382 -0.010218247 0.04262393 0.04041142 0.011176534 -0.035639822
-0.06576185 -0.03154263 0.0054599904 0.078550436 -0.030772604 -0.035051942 0.05443883 0.009286944
-0.049863145 0.046108156 -0.07353816 0.06421369 -0.032493234 0.06923673 0.050127838 0.08241752
-0.0003546815 0.002343262 0.0077072685 -0.032784313 -0.02271848 -0.0060355375 -0.025019681 0.02969462
-0.0129705 0.026621098 -0.007003002 -0.08224447 0.046236705 0.009231231 0.023988675 -0.045546163
-0.016227651 -0.009678629 0.01848005 0.024355913 0.004094356 -0.04296947 0.02485826 0.030112926
-0.018990997 0.0552915 0.013174991 -0.027823102 -0.02648132 0.013334696 -0.029133802 -0.024651386
-0.007884651 0.039178416 0.0064136647 -0.05686972 -0.05553102 0.0230087 0.028501183 -0.005013953
-0.03159717 0.000930328 0.020997861 0.0052202595 0.08761567 -0.04610395 -0.060670428 -0.015795978
0.07738571 -0.028621763 0.029733552 0.08492269 -0.00425178 -0.009604724 0.016637629 -0.05830756
00000000: 0610 283c d32e 46bd 0ca9 9fbc ba4b 1dbd
00000010: 2ad9 8cbd b43d e7bc c68f 38bd 0283 be3c
00000020: e4f5 cebb c545 b23d 7be1 073d ccd8 53bc
00000030: 1532 d93c 3053 68bb ed3f 85bd b577 1c3d
00000040: a2d8 933c 0761 33bd a137 3ebd d995 a53c
00000050: 49bf abbb d44a 343d b8a4 913d a1bf 593d
00000060: 040d d7bc b2bf 4c3c 742e 18bd 7ea3 e63c
00000070: d675 a1bd 91df e1bc 43e5 c83c 7125 ee3b
00000080: 8ded abbd 23b3 5f3b 8c68 083d ef85 d1bc
00000090: ca9f 9fbd 219c 85bd 7b28 15bc 4600 b9ba
000000a0: 05b2 9fbb 1513 7a3b 3b2e e0ba 3ca5 47bd
000000b0: 8244 b13c 254d 62bc 1d0e e33c eb43 ce3c
000000c0: 3ab3 043c b5ed 69bc e5d8 0f3c 9239 3dbc
000000d0: 691d 393d 2b89 ad3d b979 f3bc 9874 a5bb
000000e0: 5aaa 06bb 193a d73c faf7 953d 4dc4 08bd
000000f0: 6d5f b83b 408b 3c3d 375b 5b3d 4776 a4bc
00000100: 1d23 863c de3c 523d a7aa f53c b0e6 b63d
00000110: c3c8 51bc 59bb 563c 2dd7 653d 9070 1d3d
00000120: 1300 97bc d208 613c 1315 783d 338a f73c
00000130: 2932 65bd d56b 933d 4491 0a3d c614 083c
00000140: 12d2 9c3d c8e5 603c c744 9abd 5e34 643c
00000150: 878c 91bd c631 75ba ced8 883d 7082 4e3d
00000160: 93dc b03c e302 70bd 212d 04bd fe6d 25bd
00000170: b1bc 243d ad8b 89ba 7c7d 8dbd 645c 16bd
00000180: 70da a1bc 9a5d 253d bfa3 aabc 8ead 043d
00000190: cdfc 823d 8acd dd3d bab5 11bd d3a4 3bbd
000001a0: c4d7 983c c6b7 83bc 9aa4 be38 9d78 913d
000001b0: 1a57 843c b8e8 90bd 1b8e a6bc 6c4a 3d3d
000001c0: 231a 073d 2993 e53c 6a3f 003d ce36 96bc
000001d0: 6067 ccbc 3066 87bc 2550 813d 6c09 c43b
000001e0: 9fab 58bc b0a0 b33c a511 2d3b 705f 21bd
000001f0: 452a 8a3d abfd 84bb d60b 6c3c 7491 363d
00000200: b2a8 ccbc a32d fdbc d274 52bd 45ea 333d
00000210: ed33 ae3b ac0d bcbc 5b95 f6bc adfa c83c
00000220: 0a7e b5bc 27c8 aabc c447 17bd 049f 123a
00000230: 623f af3c 1a30 10bd 3668 fbbb 767b 1b3c
00000240: 87fb 48bc c3a3 813d b374 753a 2931 5e3c
00000250: 831e db3b 1326 db3c d19d 073c 3cd8 a9bc
00000260: 3a49 2fbd 01f7 1c3d 6f18 783d 3ee0 9c3d
00000270: f4d9 80bb 4897 14bd 0c06 afbd 4ddf 533d
00000280: 9794 e8bc 6ae3 cf3d 604c 973c 7631 8d3c
00000290: 7d7e f33c 05e9 8abc 99db 013d b2cf 9dbd
000002a0: 2530 6b3c 60c8 c4bd 74c0 943c 8132 b03d
000002b0: e90d a7bc 42d1 99bc 62ce 0ebd d16c 2bbd
000002c0: ba08 86bc ab84 5cbd c014 36bd 6f6a 27bc
000002d0: 6e96 2e3d 7286 253d c81d 373c 10fb 11bd
000002e0: 26ae 86bd d832 01bd b8e9 b23b 0ddf a03d
000002f0: d416 fcbc a092 0fbd 40fb 5e3d 4428 183c
00000300: 4c3d 4cbd e8db 3c3d 2d9b 96bd 7882 833d
00000310: a017 05bd fdcb 8d3d d952 4d3d 84ca a83d
00000320: 8cf4 b9b9 6a91 193b 418d fc3b d848 06bd
00000330: 1b1c babc c2c5 c5bb 13f6 ccbc 2242 f33c
00000340: 3882 54bc 7d14 da3c 7079 e5bb ca6f a8bd
00000350: b362 3d3d 973e 173c e683 c43c 9d8e 3abd
00000360: daef 84bc 1d93 1ebc 7963 973c 0d86 c73c
00000370: f329 863b c100 30bd 8da3 cb3c 62af f63c
00000380: 0293 9bbc 5779 623d ebdb 573c 46ed e3bc
00000390: 5aef d8bc c579 5a3c 03aa eebc b4f1 c9bc
000003a0: a02e 01bc 8c79 203d b829 d23b 39f0 68bd
000003b0: 7f74 63bd be7c bc3c 507b e93c 164c a4bb
000003c0: 096c 01bd 41e1 733a b503 ac3c b60e ab3b
000003d0: d86f b33d 7fd7 3cbd 8e81 78bd 9166 81bc
000003e0: 667c 9e3d 3078 eabc c793 f33c f3eb ad3d
000003f0: 8452 8bbb 225d 1dbc a34b 883c e8d3 6ebd

title_net.0.bias f4 [128]
-0.029932955 -0.015235484 -0.032676358 -0.027625173 -0.024375038 0.022055041 -0.041439757 0.00044436834
0.073905535 0.041987184 0.011858858 0.026273677 -0.00017201215 0.044757042 0.038051058 -0.04843821
0.073836684 0.029250078 0.0090909675 0.033376444 -0.005036321 0.01589193 0.0316474 -0.04615806
0.09429475 0.03647563 0.01158857 0.07337875 0.08352609 0.02288925 -0.03924389 0.028089311
0.017696394 0.036720786 -0.050309453 0.04730008 -0.02153467 0.008865992 -0.05108275 -0.057500623
-0.040172026 -0.020326095 0.005192675 0.02225622 0.05710424 0.029405037 0.034057543 -0.012144009
0.03991885 -0.037943926 -0.0310941 0.09090523 0.0030848205 0.046733305 -0.006715159 -0.050754845
0.07163746 0.0513964 0.050497655 0.05881838 -0.015587487 -0.025408912 -0.040181547 0.027129706
-0.023603741 -0.073066466 -0.056355726 0.049274735 -0.016516263 0.09161788 0.066699184 -0.013481152
-0.0034366522 -0.050697632 0.00039520997 0.046707913 -0.03367655 -0.00967043 0.058153592 -0.05374863
0.06260055 0.06726625 -0.03930503 -0.021144118 -0.03942123 0.07755949 0.051156137 0.0011724911
-0.021006709 0.0076077 0.03168153 0.02465917 0.030069439 0.062221497 0.09103983 -0.030516043
-0.057332616 0.025999341 -0.035886735 -0.022554377 -0.025234817 0.060027484 -0.10785863 0.032358464
-0.008886291 -0.03656502 0.011689467 0.033240356 -0.043849867 0.061368816 0.09600658 0.04799325
-0.010502121 -0.011790303 -0.0207657 -0.030912073 -0.061411005 0.061428845 0.028788166 0.053843204
0.05164543 0.006787828 0.0077963015 0.03824531 0.061742608 -0.05916085 0.04798449 0.0062079635
00000000: f535 f5bc 409e 79bc a5d7 05bd 304e e2bc
00000010: 29ae c7bc c6ac b43c bcbc 29bd 1cfa e839
00000020: c95b 973d c1fa 2b3d a84b 423c e53b d73c
00000030: 295e 34b9 2953 373d 6ddb 1b3d 2567 46bd
00000040: b037 973d dc9d ef3c 48f2 143c bdb5 083d
00000050: b907 a5bb cb2f 823c b4a0 013d 3c10 3dbd
00000060: 9b1d c13d 7867 153d fcdd 3d3c 9947 963d
00000070: ba0f ab3d 3d82 bb3c 34be 20bd 8e1b e63c
00000080: 07f8 903c 8968 163d 4911 4ebd bbbd 413d
00000090: 7a69 b0bc aa42 113c 253c 51bd c685 6bbd
000000a0: 6c8b 24bd e982 a6bc 5127 aa3b ad52 b63c
000000b0: 23e6 693d d5e2 f03c ec7f 0b3d aaf7 46bc
000000c0: f381 233d 176b 1bbd 0eb9 febc 852c ba3d
000000d0: b32a 4a3b 6c6b 3f3d d60a dcbb 50e4 4fbd
000000e0: a9b6 923d 0885 523d a1d6 4e3d 8beb 703d
000000f0: a962 7fbc 5a26 d0bc 6895 24bd 1e3f de3c
00000100: a25c c1bc dfa3 95bd 43d5 66bd 4ed4 493d
00000110: 1d4d 87bc 28a2 bb3d 9599 883d 0de0 5cbc
00000120: 7539 61bb 52a8 4fbd 2f34 cf39 cc50 3f3d
00000130: 6cf0 09bd b970 1ebc 7632 6e3d 8627 5cbd
00000140: b834 803d e3c2 893d 50fe 20bd 6e36 adbc
00000150: 2878 21bd 83d7 9e3d 1989 513d 46ae 993a
00000160: 4316 acbc 034a f93b 7ec4 013d 0702 ca3c
00000170: 2f54 f63c f8db 7e3d 1773 ba3d c8fc f9bc
00000180: 9bd5 6abd 92fc d43c f8fd 12bd f5c3 b8bc
00000190: 3fb9 cebc 61df 753d fce4 dcbd 4f8a 043d
000001a0: ce97 11bc 34c5 15bd 2e85 3f3c 0a27 083d
000001b0: eb9b 33bd de5d 7b3d 199f c43d 9294 443d
000001c0: 1711 2cbc 1d2c 41bc d41c aabc 513b fdbc
000001d0: 1b8a 7bbd d09c 7b3d 29d5 eb3c b18a 5c3d
000001e0: 298a 533d 6e6c de3b 1e78 ff3b 1da7 1c3d
000001f0: d1e5 7c3d a652 72bd 628b 443d 2c6c cb3b

title_net.2.weight f4 [128]
1.0129368 0.96015155 0.96283484 1.0050471 0.98445165 0.93857026 0.93663484 1.0143912
0.9540361 0.9245607 0.95682156 0.96152705 0.9493823 0.98692423 0.9483922 0.95234513
0.9365103 1.0054116 0.9660889 0.9522694 0.95977134 0.9548119 1.0080981 0.9494792
0.9534175 1.0062834 0.95247823 0.9773189 1.0145644 0.9942286 0.9454064 1.0149049
0.96264994 0.94239086 0.9567105 0.99470407 0.9531082 0.98981166 0.96263266 0.95478266
0.94272894 0.9468828 0.99601096 0.94521767 0.9424091 0.9522538 1.0110795 0.9681412
0.9402706 0.9658587 0.9609683 0.95434934 0.9556985 0.9635164 0.9908547 0.959104
0.98386794 0.997619 0.94650894 0.9626082 0.95607436 0.9550431 0.9840308 0.9678239
0.99154025 0.95112056 0.9476592 0.95707095 1.0093448 0.958023 0.95294344 0.9909268
0.9851787 0.9470554 0.957108 0.9583536 0.95243496 0.94167703 0.94874716 1.008052
0.97989583 0.9544119 0.97307634 0.974978 0.97692007 0.98161805 0.95756525 0.9790167
0.9821451 0.95123863 0.9640517 0.9460228 0.9526699 0.9551858 0.9553293 0.94903934
0.9643361 1.0183556 0.99706143 0.9540605 1.0065807 0.9566512 0.9865053 0.96426743
0.9445388 0.9705022 0.9689795 0.93563837 0.9776953 0.9695983 1.0040168 0.98519194
0.9529433 0.9824885 0.9533679 0.9519287 1.0060754 1.0078038 1.0161009 0.9831038
1.0180167 0.9687809 0.94613385 0.95833546 0.9456145 0.96107185 0.9468227 0.9619934
00000000: eaa7 813f 7ecc 753f 587c 763f 62a5 803f
00000010: 0605 7c3f 2446 703f 4dc7 6f3f 92d7 813f
00000020: b63b 743f 03b0 6c3f 42f2 743f a326 763f
00000030: b80a 733f 11a7 7c3f d5c9 723f e4cc 733f
00000040: 24bf 6f3f 54b1 803f 9a51 773f edc7 733f
00000050: 93b3 753f 8d6e 743f 5c09 813f 1211 733f
00000060: 2b13 743f e5cd 803f 9dd5 733f 9231 7a3f
00000070: 3fdd 813f c485 7e3f 2706 723f 67e8 813f
00000080: 3a70 763f 8740 713f fbea 743f eda4 7e3f
00000090: e6fe 733f 4c64 7d3f 186f 763f a36c 743f
000000a0: af56 713f e966 723f 93fa 7e3f c9f9 713f
000000b0: b941 713f e8c6 733f 0e6b 813f 1ad8 773f
000000c0: 93b5 703f 8442 773f 0502 763f 3d50 743f
000000d0: a8a8 743f 03a9 763f a7a8 7d3f d787 753f
000000e0: c5de 7b3f f563 7f3f 694e 723f 7e6d 763f
000000f0: 4ac1 743f b47d 743f 71e9 7b3f 4fc3 773f
00000100: 95d5 7d3f a37c 733f cb99 723f 9a02 753f
00000110: 3632 813f ff40 753f 1af4 733f 61ad 7d3f
00000120: ac34 7c3f 3972 723f 0805 753f a956 753f
00000130: c7d2 733f bf11 713f 18e1 723f d907 813f
00000140: 74da 7a3f 5754 743f 881b 793f 2998 793f
00000150: 6f17 7a3f 524b 7b3f ff22 753f d7a0 7a3f
00000160: dc6d 7b3f 6084 733f 18cc 763f 8d2e 723f
00000170: 2de2 733f 0e87 743f 7690 743f 3ef4 723f
00000180: bbde 763f 7a59 823f 6b3f 7f3f 4f3d 743f
00000190: a3d7 803f 18e7 743f 9d8b 7c3f 3bda 763f
000001a0: 4bcd 713f d572 783f 0a0f 783f ff85 6f3f
000001b0: 3d4a 7a3f 9837 783f 9f83 803f 8a35 7c3f
000001c0: 18f4 733f 5e84 7b3f eb0f 743f 99b1 733f
000001d0: 14c7 803f b7ff 803f 980f 823f b1ac 7b3f
000001e0: 5f4e 823f 0602 783f d435 723f 7955 753f
000001f0: cb13 723f ce08 763f f962 723f 3345 763f

title_net.2.bias f4 [128]
-0.00800572 0.018525753 -0.004278371 -0.021190777 0.042293847 0.0066045425 -0.03836045 0.017282492
0.04227866 -0.01772216 -0.012674456 0.028958641 -0.029510144 -0.020323751 -0.02139461 0.027186617
0.027775163 0.0037909867 0.029473156 -0.0360284 0.020397227 0.023602458 -0.018476538 -0.020960055
0.013167137 0.027038146 0.012327029 -0.003996799 -0.029393239 0.0028608216 -0.03236171 -0.03395323
0.007763301 0.021743994 0.010856097 -0.038358126 -0.0068994476 0.0028900846 -0.027437594 0.013521762
-0.036865667 -0.01106947 -0.03572918 -0.031572193 -0.0060499273 -0.018715318 0.025317902 -0.009247523
0.028639277 0.032238074 -0.0331147 0.02809318 -0.027094403 -0.0014499079 -0.0145400325 -0.024768444
-0.033267096 0.02540238 -0.020218976 -0.03203902 0.022359584 -0.02718779 -0.016356464 0.006091758
0.012250786 -0.00654696 0.018726561 -0.007635695 0.015564584 -0.029781606 0.01335596 -0.023753228
0.04010908 -0.030065423 0.037047565 -0.030954095 -0.031065674 -0.015631003 -0.021326274 -0.009563375
0.019900475 -0.018943792 0.034292802 -0.04262345 -0.04355421 0.024615569 -0.018209554 -0.036178865
-0.0378425 0.028060485 -0.0057455054 -0.019985462 -0.023110846 -0.010797874 0.014570801 0.0005838224
0.021257808 -0.02652524 0.0068814433 -0.006852025 -0.024113638 -0.026583761 0.013748834 -0.019259298
-0.009708262 0.004586529 -0.029490741 -0.026275704 -0.031328008 0.015739357 -0.035157505 0.020807244
-0.028506178 0.008428371 -0.024193758 -0.01080411 -0.014039515 -0.026159355 -0.028120162 -0.014573766
-0.0006947553 0.0026014526 0.0021168308 0.009970196 -0.028562004 -0.0070047355 0.019211244 0.0065690544
00000000: 6c2a 03bc 52c3 973c 9431 8cbb 4898 adbc
00000010: 503c 2d3d eb6a d83b d91f 1dbd 0394 8d3c
00000020: 632c 2d3d 102e 91bc 86a8 4fbc ac3a ed3c
00000030: 42bf f1bc ff7d a6bc c043 afbc 78b6 de3c
00000040: bd88 e33c 3472 783b b071 f13c 8492 13bd
00000050: 1618 a73c f159 c13c 1c5c 97bc 6cb4 abbc
00000060: faba 573c 1a7f dd3c 4ff7 493c 94f7 82bb
00000070: 17ca f0bc 9f7c 3b3b b68d 04bd 8b12 0bbd
00000080: 4a63 fe3b 7620 b23c c5dd 313c 691d 1dbd
00000090: c314 e2bb 9367 3d3b cec4 e0bc 618a 5d3c
000000a0: 7400 17bd b95c 35bc c358 12bd d851 01bd
000000b0: 783e c6bb de50 99bc 7d67 cf3c ec82 17bc
000000c0: eb9c ea3c 120c 043d 48a3 07bd ab23 e63c
000000d0: 15f5 ddbc d60a beba 5139 6ebc 31e7 cabc
000000e0: 1443 08bd a718 d03c 44a2 a5bc 593b 03bd
000000f0: 722b b73c eeb8 debc fefd 85bc 5f9d c73b
00000100: 85b7 483c e287 d6bb 7268 993c da34 fabb
00000110: 9902 7f3c 8ef8 f3bc f5d2 5a3c 2196 c2bc
00000120: 6b49 243d c34b f6bc 30bf 173d 7193 fdbc
00000130: 717d febc 970c 80bc 70b4 aebc b4af 1cbc
00000140: 5206 a33c 0330 9bbc 9c76 0c3d ed95 2ebd
00000150: e665 32bd 97a6 c93c 342c 95bc 4a30 14bd
00000160: bd00 1bbd 1adf e53c cb44 bcbb 8db8 a3bc
00000170: f552 bdbc 91e9 30bc 5eba 6e3c a80b 193a
00000180: db24 ae3c 764b d9bc bb7d e13b f486 e0bb
00000190: f789 c5bc 30c6 d9bc ca42 613c adc5 9dbc
000001a0: 670f 1fbc 984a 963b 9196 f1bc 2540 d7bc
000001b0: cc51 00bd d3ef 803c 5101 10bd f473 aa3c
000001c0: ca85 e9bc 2617 0a3c fd31 c6bc b903 31bc
000001d0: fe05 66bc 254c d6bc 415c e6bc cec6 6ebc
000001e0: 3d20 36ba 227d 2a3b 87ba 0a3b 085a 233c
000001f0: ddfa e9bc fb87 e5bb e660 9d3c 3941 d73b

title_net.2.running_mean f4 [128]
0.14642733 0.002765354 0.040097144 0.0742716 0.013431503 0.0679752 0.029856706 0.18046215
0.25857505 0.23695685 0.022339603 0.006518792 0.05840713 0.13943593 0.022163466 0.049173128
0.2763424 0.114153616 0.092469126 0.03691075 0.046945594 0.09362345 0.107539535 0.19262667
0.21203868 0.19507217 0.2652402 0.24548171 0.018437888 0.0441395 0.038335033 0.0685754
0.30115768 0.28324693 0.01759385 0.032409582 0.19216609 0.17890173 0.034526534 0.13352033
0.048982058 0.0043886695 0.035758294 0.10931758 0.14338343 0.36491182 0.21228461 0.30157292
0.29082265 0.25798365 0.08273977 0.10072472 0.1795082 0.2027844 0.06708928 0.1634573
0.07973324 0.19129212 0.025240606 0.022838628 0.18665984 0.18256249 0.08068381 0.17267643
0.32148585 0.0011433302 0.16235682 0.07900403 0.16815607 0.049327027 0.050788935 0.2050213
0.041900463 0.19066991 0.037030503 0.0028085753 0.060567956 0.16744031 0.08659902 0.1345963
0.08893538 0.010721154 0.21732524 0.16061868 0.0054883054 0.030099057 0.05044762 0.034738716
0.04825506 0.20231818 0.20405248 0.0071866084 0.0031164228 0.15843956 0.08710398 0.31917396
0.06360403 0.13047153 0.19139075 0.17650224 0.091448024 0.24750264 0.0009062093 0.19198482
0.07269488 0.010252372 0.020738134 0.13722265 0.06921526 0.050426364 0.07653675 0.10063443
0.050485834 0.08535063 0.00859626 0.0024003386 0.0067162514 0.06467075 0.046699338 0.08558659
0.17105284 0.22322872 0.05675528 0.04052441 0.4020553 0.1840846 0.003614276 0.10897205
00000000: 0cf1 153e f13a 353b e73c 243d b51b 983d
00000010: cf0f 5c3c 9536 8b3d 0d96 f43c 12cb 383e
00000020: f363 843e d1a4 723e 8b01 b73c 979b d53b
00000030: 513c 6f3d 4bc8 0e3e 2890 b53c c369 493d
00000040: c07c 8d3e 5fc9 e93d 7460 bd3d ba2f 173d
00000050: 064a 403d a7bd bf3d b03d dc3d ed3f 453e
00000060: ab20 593e 00c1 473e 90cd 873e 8f5f 7b3e
00000070: 0e0b 973c 9fcb 343d 3205 1d3d 4271 8c3d
00000080: 5731 9a3e be05 913e fa20 903c e9bf 043d
00000090: 30c7 443e 0432 373e b26b 0d3d 8eb9 083e
000000a0: 69a1 483d d4ce 8f3b 4a77 123d e5e1 df3d
000000b0: 1bd3 123e b9d5 ba3e 2361 593e c467 9a3e
000000c0: b5e6 943e 6f16 843e 7873 a93d c348 ce3d
000000d0: ffd0 373e b7a6 4f3e 1b66 893d 5a61 273e
000000e0: 2e4b a33d 15e2 433e 63c5 ce3c 1318 bb3c
000000f0: c223 3f3e a9f1 3a3e 8e3d a53d 17d2 303e
00000100: cb99 a43e ccdb 953a de40 263e ddcc a13d
00000110: 1b31 2c3e 230b 4a3d 0f08 503d 1bf1 513e
00000120: d29f 2b3d f93e 433e 4cad 173d 1310 383b
00000130: 1b16 783d 7975 2b3e d45a b13d 9dd3 093e
00000140: c123 b63d c7a7 2f3c 828a 5e3e 3979 243e
00000150: 3ed7 b33b 4c92 f63c 2aa2 4e3d 2f4a 0e3d
00000160: 19a7 453d 7f2c 4f3e 22f3 503e a47d eb3b
00000170: e63c 4c3b fb3d 223e 9263 b23d c56a a33e
00000180: d442 823d 549a 053e f0fb 433e 01bd 343e
00000190: 1a49 bb3d 5571 7d3e ad8e 6d3a ab97 443e
000001a0: 0ee1 943d 91f9 273c 05e3 a93c 1884 0c3e
000001b0: bbc0 8d3d e08b 4e3d 4dbf 9c3d 6d19 ce3d
000001c0: 3cca 4e3d 50cc ae3d 54d7 0c3c 004f 1d3b
000001d0: 0014 dc3b 1972 843d ce47 3f3d 0648 af3d
000001e0: 7a28 2f3e 1296 643e 3978 683d ecfc 253d
000001f0: 31da cd3e ac80 3c3e 7ddd 6c3b bd2c df3d

title_net.2.running_var f4 [128]
0.01779849 0.0005189071 0.007919513 0.012886695 0.00158721 0.006342556 0.005873048 0.023243837
0.014163843 0.02699111 0.0039253365 0.00090974016 0.009586733 0.019188503 0.003952065 0.0059240465
0.02611574 0.017689481 0.009746434 0.0088194255 0.0072481176 0.011917705 0.0135455765 0.021605713
0.014924042 0.02731264 0.030547246 0.023986788 0.003051937 0.0045522484 0.008495095 0.013169911
0.026810616 0.026613733 0.0022293548 0.0066346484 0.021431379 0.025127016 0.004975327 0.009264955
0.009091333 0.0009306396 0.008438214 0.010936932 0.018558178 0.021326307 0.026902642 0.025820037
0.029284889 0.033617448 0.0182223 0.009263044 0.023110515 0.013631484 0.008477764 0.023069264
0.015566569 0.021561438 0.0036349047 0.0034637721 0.01986152 0.024108918 0.006078014 0.02255343
0.048863426 0.00023652859 0.021266645 0.01542062 0.019424248 0.009972365 0.010871647 0.027958684
0.0047729947 0.024739658 0.004341854 0.000553545 0.011743368 0.023133641 0.012367281 0.019303977
0.010770893 0.0019671235 0.027204808 0.027567731 0.00089948985 0.0053268676 0.008629355 0.006054164
0.010851162 0.017589027 0.017204069 0.0012547089 0.0005944227 0.012933452 0.016008668 0.01808284
0.0053623863 0.017530045 0.024964323 0.020962428 0.014859981 0.028583875 0.0001632496 0.026334092
0.011893878 0.0016234616 0.0023870657 0.022119414 0.013693403 0.009560863 0.016088579 0.015523187
0.010975121 0.012858974 0.0013703186 0.00042984737 0.0012186798 0.012733843 0.005654079 0.017721044
0.023865834 0.025601357 0.011707407 0.004899298 0.032771476 0.020172741 0.0007029026 0.008440763
00000000: 24ce 913c 4407 083a d8c0 013c b722 533c
00000010: ee09 d03a 37d5 cf3b b372 c03b dc69 be3c
00000020: 770f 683c 761c dd3c 1ca0 803b a17b 6e3a
00000030: ac11 1d3c 3531 9d3c 5380 813b 811e c23b
00000040: adf0 d53c 88e9 903c 82af 1f3c 5a7f 103c
00000050: 9e81 ed3b 7a42 433c 44ee 5d3c 77fe b03c
00000060: f883 743c c2be df3c 383e fa3c f17f c43c
00000070: 0203 483b 072b 953b 032f 0b3c 9cc6 573c
00000080: f0a1 db3c 0b05 da3c 5e1a 123b 7767 d93b
00000090: dc90 af3c 2cd7 cd3c 1108 a33b 0acc 173c
000000a0: d0f3 143c 2bf6 733a 6f40 0a3c d130 333c
000000b0: 5207 983c 82b4 ae3c ee62 dc3c 8b84 d33c
000000c0: dde6 ef3c 73b2 093d ef46 953c 06c4 173c
000000d0: 4352 bd3c 9656 5f3c 52e6 0a3c c1fb bc3c
000000e0: ec0a 7f3c 9da1 b03c 9537 6e3b 7400 633b
000000f0: a0b4 a23c 1180 c53c 142a c73b f9c1 b83c
00000100: 0425 483d a904 7839 6337 ae3c c5a6 7c3c
00000110: 9a1f 9f3c 2163 233c fe1e 323c 9c09 e53c
00000120: c866 9c3b d3aa ca3c 1c46 8e3b c71b 113a
00000130: 4167 403c c382 bd3c 23a0 4a3c 6023 9e3c
00000140: 6678 303c dbea 003b 9edc de3c b9d5 e13c
00000150: becb 6b3a 018d ae3b 2362 0d3c 0262 c63b
00000160: 12c9 313c dd16 903c 8cef 8c3c 0b75 a43a
00000170: 08d3 1b3a d4e6 533c 9c24 833c 7722 943c
00000180: f5b6 af3b 2b9b 8f3c fb81 cc3c 66b9 ab3c
00000190: 4777 733c bb28 ea3c fb2d 2b39 98ba d73c
000001a0: 8ade 423c 55ca d43a 5170 1c3b c633 b53c
000001b0: 4c5a 603c 2aa5 1c3c 32cc 833c f754 7e3c
000001c0: fed0 333c 72ae 523c 439c b33a 235d e139
000001d0: 1cbc 9f3a 9ca1 503c da45 b93b b92b 913c
000001e0: 4882 c33c f0b9 d13c 6dd0 3f3c 4a8a a03b
000001f0: 623b 063d 4e41 a53c ff42 383a 204b 0a3c
