artifacts/training_runs/run_20250613_115005/best_model.pth (torch, 585269 bytes, 39 tensors)

numerical_net.0.weight f4 [64, 36]
000000 47 43 29 be 6d 7b 64 3b 37 f9 a4 3d 6f 37 0a be
       -0.1652957 0.0034863607 0.080553465 -0.13497709
000010 47 d5 1a 3e f8 93 90 3d 79 2d a7 3d 7b c3 fb bd
       0.15120421 0.07059473 0.0816297 -0.12293144
000020 f2 a5 11 be 36 2f 8e bd a0 d4 0f be 64 31 95 3c
       -0.1422346 -0.069425985 -0.14045954 0.018212028
000030 32 58 17 bd 84 5e ad 3c 83 e8 44 bd e3 0d d7 bd
       -0.036949344 0.021163233 -0.048073303 -0.105006956
000040 30 f1 a3 3c 14 83 d9 bd cd e9 01 3d 7c 06 f0 3d
       0.020012468 -0.10620704 0.03171711 0.11719987
000050 c8 6f 27 3e 9b 70 27 bd 89 28 07 be 65 5e e6 3d
       0.16351235 -0.040878873 -0.13199057 0.11248473
000060 98 84 f2 3c c9 19 2f be 29 4c 01 be 07 66 87 3d
       0.029604241 -0.1709968 -0.12626709 0.06611257
000070 8d e7 8b bb 31 c7 23 be 61 9e ec bd 40 7c ca bb
       -0.0042695464 -0.15993954 -0.11553646 -0.0061793625
000080 a4 4c d7 3d 75 a0 80 3d 18 0b 93 bd f2 1f dd 3d
       0.10512665 0.06280605 -0.0717985 0.10797109
000090 bf 7f 15 be b4 23 db bd 55 a3 0c be c4 e1 3a bd
       -0.14599513 -0.10700169 -0.13734181 -0.045625463
0000a0 3d b0 c5 3d 88 79 22 3e 69 49 0b bd b9 bd ed 3d
       0.096527554 0.15866673 -0.034005556 0.11608452
0000b0 f3 cb e4 3d e3 82 d5 3d 63 a8 1f 3e 65 fc 10 bd
       0.11171713 0.10425355 0.15591578 -0.035396952
0000c0 cf 74 4c 3d be 4f c2 3c fa d7 28 be 81 13 26 bd
       0.049916085 0.023719665 -0.16488639 -0.040545944
0000d0 6e be d3 bd f8 36 0b be 1d 63 2a 3e a9 0c 9a bd
       -0.10339056 -0.13595188 0.16639371 -0.07521946
0000e0 b8 b7 b0 bc 75 9b ee bd 65 86 96 bc 0c 8a e9 bc
       -0.021571979 -0.11650745 -0.018374631 -0.028508209
0000f0 39 a6 7d bd 70 84 00 3e 36 23 e1 3c 66 26 1c 3e
       -0.0619261 0.12550521 0.02748261 0.15249023
000100 ce 6e df 3d 8e 5b b1 bd 70 16 80 38 c4 8b f5 3d
       0.10909806 -0.08660041 6.107695e-05 0.11989549
000110 e9 58 6c 3d e0 23 4e bd 98 c5 23 be 56 e6 d3 bd
       0.05770198 -0.05032718 -0.15993345 -0.103466675
000120 09 70 97 bd 4d 8d 2b be 42 8a 09 3e ed a1 fc 3d
       -0.07394416 -0.1675312 0.13431647 0.123355724
000130 19 10 00 3e 74 4a bf 3d 97 2b f5 bd 4f c8 f7 3d
       0.12506141 0.09340373 -0.11971205 0.12098753
000140 39 4b 81 3d 91 e0 45 3d 02 c9 a9 bd 66 25 da bd
       0.06313176 0.048309866 -0.08290292 -0.106516644
000150 9c 25 ac 3d cd ce 5e bd 64 b9 97 3d 4a 50 50 bc
       0.08405611 -0.05439644 0.07408407 -0.012714455
000160 2f d8 83 3b 25 4e b6 bc 74 00 22 bd c4 e1 6c 3d
       0.004023574 -0.02225406 -0.039551213 0.057832494
000170 33 ec 2a 3e 60 9e f3 bd f1 af 29 3e b0 33 fd bd
       0.16691665 -0.11895442 0.16571023 -0.12363374
000180 09 6c f5 3d ce cb 0d 3d cc 88 f7 bd 63 67 f3 bc
       0.11983497 0.03461819 -0.12086639 -0.029712385
000190 ca 6e 16 3d 13 de 0d 3e 98 8b d8 3d 19 a2 83 bd
       0.03672675 0.13854246 0.105735004 -0.06427402
0001a0 9c 51 85 bd c6 ec 55 bd d4 04 33 3e 2a d3 1e 3d
       -0.065097064 -0.052227758 0.1748231 0.0387756
0001b0 e6 c2 dc bd e2 c3 4f bc e8 45 9d 3d 74 56 9c 3d
       -0.107793614 -0.012680979 0.07679349 0.07633677
0001c0 9e c1 05 bb 78 4a e3 bd 42 a3 e6 3d 71 22 de bd
       -0.0020409594 -0.11098188 0.11261608 -0.10846413
0001d0 26 c6 35 3d fc 80 b0 3d e3 0e 88 3d 72 c7 ec bd
       0.044378422 0.08618352 0.066434644 -0.11561479
0001e0 1e df e2 bc fa c8 c1 3b 3c ce 1c 3e 52 b0 96 bd
       -0.027694281 0.005913851 0.15313047 -0.07357849
0001f0 58 3b 36 3e 5f 5c 1a bd 4b 47 fb bd eb d3 bf 3d
       0.17796075 -0.03768575 -0.122694574 0.09366592
000200 b3 44 14 be 9e 5e 40 3c 79 e3 1c be a5 dd 18 be
       -0.14479332 0.0117413085 -0.15321149 -0.149283
000210 0c 94 01 be af 97 d7 3d e2 34 db 3d d1 9b b8 bd
       -0.12654132 0.10526978 0.10703446 -0.090140946
000220 b9 fb 04 3c c2 07 23 be 4c b4 9c 3c 3e 19 01 be
       0.008116656 -0.15920928 0.019128941 -0.12607285
000230 48 cc 04 3e af 51 26 3d fe 75 ba 3c 04 11 87 bd
       0.12968552 0.040605243 0.022761341 -0.06595042
000240 83 ef ef bd c7 83 a3 bd 96 49 f2 3d 0a 97 0d 3e
       -0.11715605 -0.07984119 0.11830442 0.13827148
000250 9f 96 98 bd fe 3c 15 3e cf f1 d8 3d 1a 44 b0 3d
       -0.07450604 0.14574048 0.10592996 0.08606739
000260 e9 7b cb bd 76 cb d3 bd 45 cc 8e bd e1 db c2 3d
       -0.09935743 -0.103415415 -0.06972555 0.09514595
000270 cb 92 a3 bd 5a b3 03 3e 39 da 06 3d 31 51 f5 bc
       -0.07986983 0.12861386 0.032922957 -0.029945942
000280 a2 b2 09 be eb e1 76 3c 7a dd f0 bd 1d 09 e7 3d
       -0.1344705 0.0150685115 -0.11760993 0.11281035
000290 f6 74 92 3d dd 86 18 be d7 5a 0f be 0c 90 1a 3e
       0.07151215 -0.14895196 -0.13999496 0.15094012
0002a0 ed 51 cf bd 2d 51 2f bd 3c ed eb bb 5d f8 00 3e
       -0.10123048 -0.042802025 -0.0071999114 0.12594743
0002b0 de d8 9d bd 33 49 e8 bb 22 b8 b0 3d d5 41 0e 3d
       -0.0770738 -0.007088804 0.086288705 0.03473075
0002c0 e9 52 45 bd 2d 70 a2 3d 37 b0 a6 3d 2e 2f dc bd
       -0.048174772 0.07931552 0.08139079 -0.10751186
0002d0 5e 60 d2 3d 79 68 0c 3e 6c e4 0d 3d fa 7a 5d bd
       0.10272287 0.13711728 0.03464167 -0.054072358
0002e0 85 e0 f7 3d e0 0a 5a bc bf d1 d2 3d 5b ff 08 be
       0.121033706 -0.013308257 0.10293912 -0.1337866
0002f0 d2 38 f0 bc ac 27 65 bd 56 4c c8 bc e5 9b da bd
       -0.029323969 -0.055946037 -0.024450462 -0.10674266
000300 8a 22 45 3d ba 0d b2 bd 8a df 97 3d 68 5b e8 bd
       0.048128642 -0.086940244 0.074156836 -0.11345559
000310 57 35 28 be 93 d8 26 3e 33 bc 7e 3c 41 14 1a 3e
       -0.16426598 0.16293554 0.0155478 0.15046789
000320 7e 31 fb bd 85 ef cf 3b ee ec ee 3d be de 78 3c
       -0.12265299 0.0063456916 0.116662845 0.015189825
000330 24 2c 17 bd c4 d9 40 bc af d5 f1 bd 97 12 8a 3d
       -0.03690733 -0.011770669 -0.11808335 0.06741827
000340 06 06 75 3d ce 3a 13 3e 16 e5 8a 3d 3d cf b6 3d
       0.059820198 0.14377901 0.06781976 0.08926246
000350 2d 6f 7b 3d 14 b2 0d ba bc 55 b1 bd 03 3c d5 bd
       0.061385322 -0.0005405259 -0.08658931 -0.10411837
000360 dc ad d5 3c d1 27 18 be 95 44 fd 3d 35 6b 36 3d
       0.02608388 -0.14858939 0.123665966 0.044535834
000370 3f 36 15 be 47 32 46 3d 1a 5e 9a bb da 3d 61 bd
       -0.14571474 0.048387792 -0.004710925 -0.054990627
000380 18 d4 98 bd 73 50 db bd 99 91 2e 3e f7 f7 b1 bd
       -0.07462329 -0.10708704 0.17047729 -0.08689874
000390 7a ef fc bd 86 68 7a 3d 5b b8 df bd af 2b 03 3e
       -0.12350364 0.061134838 -0.10923835 0.12809633
0003a0 55 0c 25 bd b9 ca 2a 3e d8 81 05 3e 4d 00 05 3d
       -0.040294964 0.16678895 0.13037813 0.03247099
0003b0 fd b1 5c bd 9f e7 56 3d a9 db f1 3d b6 c2 06 be
       -0.05388068 0.052466985 0.11809475 -0.13160214
0003c0 d7 5e 43 3c ea 29 15 be d3 c8 db 3d 5b 74 fe bd
       0.011924467 -0.1456677 0.107316636 -0.12424537
0003d0 86 a6 4d bd 1f 49 2c bd f8 91 3b bd ea 4f c3 bd
       -0.050207637 -0.04206192 -0.045793504 -0.09536727
0003e0 5e fe 24 3e 97 2b f2 3d 48 b8 24 3e 9a 16 7c 3b
       0.16112658 0.1182472 0.16085923 0.003846562
0003f0 07 39 21 3d 65 b0 f0 bb 82 96 0f 3e 52 55 05 3e
       0.039361026 -0.0073452466 0.14022258 0.13020828

numerical_net.0.bias f4 [64]
000000 f5 7f 8e bd 0a 26 e3 3c e9 8e 7d 3c 0f e1 52 3d
       -0.069579996 0.0277281 0.015475967 0.051484164
000010 98 a3 04 3b 4e 08 e0 3d 89 98 18 be a1 90 3c bc
       0.002023911 0.10939084 -0.14901938 -0.011509092
000020 c7 3c b2 bd 72 88 6e bd ac fb 80 3d c1 af b0 bd
       -0.087029986 -0.058235593 0.062980026 -0.086272724
000030 88 96 5e 3d 41 7a bc 3d 2c c0 ea 3b a3 e3 c6 3d
       0.054342777 0.092030056 0.007164022 0.09711387
000040 16 09 0b be 08 f3 f4 3d f9 a9 64 3d 0e 0b 3a 3d
       -0.13577685 0.11960417 0.05582616 0.0454207
000050 45 51 b2 bd 76 9a 6b bd 00 32 c9 3d 4a 00 9b bd
       -0.08706907 -0.057520352 0.0982399 -0.075684145
000060 3b f9 17 3e 40 43 b9 bc 9c 8f 0f 3d 48 3e cb 3b
       0.14841168 -0.022615075 0.035049066 0.006202493
000070 9d 63 01 3e 2b 6f 21 3e c1 69 f2 3d 66 fe 10 3e
       0.12635656 0.15765063 0.11836577 0.14159545
000080 48 f1 16 be 2a 30 a8 bd 0f 5e 13 be 85 64 fa 3d
       -0.14740479 -0.082123116 -0.1439135 0.12226204
000090 72 2d e7 bc 3f 2e e1 bd ae 4a 8e 3d f1 38 e3 3d
       -0.028219912 -0.10995149 0.06947838 0.11094845
0000a0 ab cb 66 3d f1 2c f6 bc 89 75 b5 3d fe 3c 79 bd
       0.056346577 -0.030050727 0.08860309 -0.060849182
0000b0 75 6d 85 3b be a2 02 be b6 d0 6c bd b0 ca 83 bd
       0.004071886 -0.12757394 -0.05781623 -0.06435144
0000c0 e3 ed 18 be ae f4 b4 bb 23 3b 6a 3c e8 fa d9 3d
       -0.14934497 -0.005522332 0.014296326 0.1064356
0000d0 f9 e9 75 bd 6a 64 d9 3d 86 70 e8 bd f7 47 1c 3e
       -0.060037587 0.106148556 -0.11349587 0.15261827
0000e0 44 2a b2 3d 55 25 b8 3d 56 7d d6 bc ee 8a d6 bc
       0.08699468 0.089914955 -0.026182812 -0.026189294
0000f0 6d 9a 39 3e 21 01 86 3d 12 ce f2 3d 9c 2a ef bd
       0.18125315 0.06543184 0.11855711 -0.11678049

numerical_net.2.weight f4 [64]
000000 51 8e 7b 3f 5e 6d 80 3f 1b 66 7f 3f 8e 39 7f 3f
       0.9826403 1.0033376 0.99765176 0.99697196
000010 6e 02 7c 3f 00 ad 7c 3f 42 8e 7c 3f 04 b4 7b 3f
       0.9844121 0.9870148 0.9865457 0.9832156
000020 fe 96 7d 3f d9 62 82 3f 85 1e 7c 3f 1c 2a 82 3f
       0.9905852 1.0186416 0.9848407 1.0169101
000030 38 99 7c 3f d4 56 82 3f ff ca 7e 3f bf 42 7b 3f
       0.98671293 1.0182748 0.995285 0.9814872
000040 cf 03 80 3f ea a4 7b 3f 2f af 80 3f 0c 7f 80 3f
       1.0001162 0.98298514 1.0053462 1.0038772
000050 e9 22 82 3f 02 99 7f 3f d8 87 81 3f 11 92 80 3f
       1.0166904 0.99842846 1.0119581 1.0044576
000060 7d 38 7c 3f a7 46 82 3f 85 7b 82 3f 7b 0d 80 3f
       0.98523694 1.0177811 1.0193945 1.0004114
000070 42 b8 7b 3f 95 20 7d 3f b2 64 82 3f a0 76 80 3f
       0.9832803 0.9887784 1.018698 1.0036201
000080 8b 21 80 3f 26 32 82 3f 47 a9 7e 3f a8 51 7e 3f
       1.0010237 1.0171554 0.99477047 0.9934335
000090 b1 fb 7b 3f 5e 95 80 3f c1 ea 80 3f b2 af 7d 3f
       0.98430926 1.0045583 1.0071641 0.99096215
0000a0 1c 2d 82 3f bf 14 7c 3f 8b 20 7b 3f cf c7 81 3f
       1.0170016 0.98469156 0.9809653 1.0139102
0000b0 a1 ac 7b 3f 35 71 82 3f 82 53 80 3f b8 17 82 3f
       0.98310286 1.0190798 1.0025485 1.0163488
0000c0 50 e8 7c 3f fd db 7c 3f 17 62 80 3f 1b 6a 7c 3f
       0.9879198 0.98773175 1.0029935 0.98599404
0000d0 0d 86 7f 3f 46 1a 82 3f d8 e9 80 3f d1 13 82 3f
       0.9981392 1.0164268 1.0071363 1.0162297
0000e0 65 d4 7c 3f 2e 89 81 3f 39 f2 7c 3f 70 12 7c 3f
       0.9876159 1.0119989 0.988071 0.98465633
0000f0 cf 31 80 3f c8 48 80 3f 0b e7 7a 3f fc 95 7b 3f
       1.00152 1.0022211 0.98008794 0.98275733

numerical_net.2.bias f4 [64]
000000 5e 0f 8d 3c 7f 03 91 bc 9b 4e 41 3c 1c 7a 81 3c
       0.017219242 -0.017701862 0.011798526 0.015805297
000010 8a 8a 69 3c 83 20 2b 3c c2 cc f2 bb 05 fe 30 bc
       0.014254222 0.010444763 -0.007409663 -0.0108027505
000020 b3 1e 8e 3c 76 a8 83 ba f9 79 96 3c 1d 1f ed 3b
       0.017348623 -0.0010044712 0.018368708 0.007236375
000030 08 b9 b7 bb c5 36 84 3c b6 d8 42 3c 74 54 89 bc
       -0.0056067742 0.016139397 0.011892488 -0.016763903
000040 f5 d4 85 3c 76 aa 93 3c 29 17 82 3c 67 89 92 3c
       0.016336897 0.018025618 0.015880184 0.017887784
000050 17 12 8b bc e2 3b 2a bc 9c de 59 3c ca da c3 bb
       -0.0169764 -0.010390254 0.013297703 -0.0059770094
000060 bc a1 48 3c 8c 04 52 39 ba a1 c5 3b 8d 50 22 3c
       0.012245592 0.00020028854 0.006031242 0.0099069
000070 64 95 7c 3c 2f 4f 86 bc 86 2b 40 3c 9d 76 92 bc
       0.015416477 -0.01639518 0.011729127 -0.017878825
000080 79 cd 95 3c 33 9c 79 bb 79 0a 93 3c da c5 30 3c
       0.018286454 -0.0038087487 0.01794933 0.010789359
000090 4a d3 8d bc 74 94 83 bc bc 19 5d bc f7 e8 51 bc
       -0.017312665 -0.016061999 -0.013494905 -0.012811891
0000a0 48 e9 75 3c 11 55 00 3c 70 71 6c 3c 7c bb 96 bc
       0.015009232 0.007832781 0.0144313425 -0.018399946
0000b0 1e 9b 86 bb 0a 7a 47 bc fe 57 d2 3b 1c d6 96 3c
       -0.004107847 -0.0121750925 0.006419181 0.018412642
0000c0 8e d6 86 3c 1a 7e 99 3c eb 9d 15 bc d8 a0 7f 3c
       0.01645973 0.018736888 -0.009131889 0.015602313
0000d0 ca 22 45 bc 47 e6 8d bc 99 d1 0b bc 0c 90 80 bc
       -0.01203222 -0.017321719 -0.008533859 -0.015693687
0000e0 db fa 0a 3c 57 1a 8b 3c a6 3a 0c 3c 18 fd 4e 39
       0.00848266 0.016980333 0.008558905 0.00019739976
0000f0 e3 82 73 bc ae 62 87 3c 46 4f 8c 3c 53 56 1d 3c
       -0.014862749 0.016526546 0.017127644 0.009603101

numerical_net.2.running_mean f4 [64]
000000 71 8c 19 3e 4b 9f 15 3e 5c 87 19 3e 10 26 0e 3e
       0.1499498 0.14611547 0.14993042 0.13881707
000010 30 db 2b 3e a0 ea 47 3e 8f 8d b5 3d 64 42 03 3e
       0.16782832 0.19523096 0.08864891 0.12818295
000020 6a cb ad 3d 93 a4 13 3e 8a 2f 1d 3e 65 9f 17 3e
       0.08486064 0.14418249 0.15350166 0.14806898
000030 e4 10 42 3e fc fe 3d 3e 7b fc 0f 3e cd 77 37 3e
       0.18951756 0.185543 0.14061157 0.17916794
000040 4c db e3 3d e8 77 33 3e 08 dc 1f 3e 31 c0 18 3e
       0.11125812 0.1752621 0.15611279 0.14917065
000050 9a 36 d6 3d 82 27 1f 3e 4e f8 13 3e 78 e9 08 3e
       0.10459633 0.15542415 0.1445019 0.13370311
000060 6d fa 40 3e 26 9a 06 3e 33 8b 1d 3e 74 b8 18 3e
       0.1884553 0.1314474 0.15385132 0.14914113
000070 e2 32 2e 3e 7c 62 42 3e 98 d8 5c 3e 9a a2 3e 3e
       0.17011598 0.18982881 0.21566999 0.18616715
000080 2f 3b b4 3d 3c 30 e9 3d a7 4c d6 3d ce 86 34 3e
       0.08800351 0.11386153 0.10463839 0.17629549
000090 8f 33 29 3e 42 c3 de 3d 8a c8 37 3e c8 8e 41 3e
       0.16523574 0.10877086 0.17947593 0.18902123
0000a0 95 dc 39 3e bb 2b 02 3e 3b 1d 37 3e bb 6e f5 3d
       0.18150552 0.12711994 0.17882244 0.11984011
0000b0 86 de 16 3e da f8 d7 3d 93 62 19 3e 96 d8 04 3e
       0.14733323 0.105455115 0.1497901 0.12973246
0000c0 9f b8 d9 3d fa 63 35 3e b7 50 fa 3d 12 0c 1b 3e
       0.10630917 0.1771392 0.122224264 0.15141323
0000d0 5a fb f5 3d 79 b9 54 3e 58 60 ba 3d b3 68 51 3e
       0.12010832 0.20773877 0.09100407 0.20450096
0000e0 87 02 0f 3e 74 b0 3d 3e 92 76 29 3e 48 b8 e7 3d
       0.13965808 0.18524343 0.16549137 0.11314446
0000f0 96 b7 5f 3e e0 d2 51 3e 61 5e 44 3e 6c 76 08 3e
       0.21847376 0.20490599 0.19176628 0.13326424

numerical_net.2.running_var f4 [64]
000000 5c 27 d8 3e 20 4d d4 3e f3 72 d6 3e cd d1 d2 3e
       0.4221753 0.41465092 0.41884574 0.4117569
000010 9a c0 de 3e da ce e7 3e 55 45 cc 3e ad e6 d5 3e
       0.43506318 0.45275003 0.39896646 0.41777554
000020 5d 6b c3 3e 77 b1 dc 3e d4 81 d4 3e 52 68 fa 3e
       0.3816785 0.43104145 0.415053 0.48907715
000030 10 8d df 3e c2 dd e5 3e b8 75 d0 3e ba 49 de 3e
       0.4366231 0.4489575 0.40714812 0.43415624
000040 1b 68 d1 3e 1c 63 d7 3e 01 a8 d3 3e 26 cb d3 3e
       0.4089974 0.42067802 0.41339114 0.41365927
000050 40 46 c9 3e 23 e3 ec 3e a3 4e cf 3e 22 a8 d6 3e
       0.3931141 0.46267042 0.40489683 0.4192515
000060 81 67 e8 3e f8 44 d2 3e 56 37 dd 3e 96 ed dd 3e
       0.45391467 0.41068244 0.4320628 0.43345326
000070 a3 f8 df 3e b9 ae df 3e f1 a9 f3 3e 58 b7 da 3e
       0.43744382 0.4368799 0.47590593 0.42718005
000080 4f 8a c6 3e 61 6d c9 3e f1 d7 d3 3e e4 9d e1 3e
       0.38777396 0.39341262 0.41375688 0.44065773
000090 83 b3 e1 3e 6d 5e d7 3e b9 6f e1 3e 6a 8c dd 3e
       0.4408227 0.4206423 0.4403055 0.4327119
0000a0 e3 cf eb 3e 00 9e cf 3e 3f e9 e0 3e c9 95 d9 3e
       0.46057042 0.40550232 0.43927953 0.4249709
0000b0 4d 91 d1 3e 66 00 cb 3e 2a 25 df 3e af ce d0 3e
       0.40931168 0.3964874 0.4358304 0.40782687
0000c0 e6 1e d0 3e 0e 04 e4 3e d8 9f cd 3e 09 b6 d1 3e
       0.40648574 0.44534343 0.40161014 0.40959194
0000d0 5f c4 d1 3e 5b d7 01 3f c3 c9 c3 3e 6e bf f5 3e
       0.40970132 0.5071923 0.3823987 0.47997612
0000e0 b8 f1 cb 3e 66 45 f4 3e 2a d0 e0 3e cf 40 c6 3e
       0.39832854 0.47709197 0.43908817 0.3872132
0000f0 f6 5e e9 3e 46 f8 02 3f 8d 2b ec 3e 90 9e d8 3e
       0.45580262 0.51160085 0.46126977 0.42308474

numerical_net.4.weight f4 [64, 64]
000000 2f a6 18 3d a2 ad cd bc d4 96 80 bc 3b fa c1 3b
       0.03726786 -0.025107209 -0.01569692 0.0059197224
000010 08 ab 7b 3d 95 38 f9 3d c8 dd 57 bd fd a7 4f bc
       0.061442405 0.12168995 -0.05270174 -0.012674329
000020 19 ff 9d 3d 72 f0 f6 3d b2 f5 88 bd 71 f2 fd 3c
       0.07714672 0.1205758 -0.06687488 0.030999394
000030 6d 71 86 bd 25 7f a2 3d 74 92 80 3b 66 a4 09 3e
       -0.06564603 0.07934407 0.0039237086 0.1344162
000040 af 05 99 3d 4d 16 a4 3d dc 2e 74 bd 2e 0f df bc
       0.07471787 0.08012066 -0.059615 -0.027228918
000050 f1 1f df 3d 3e 0c 03 bd 17 70 b2 bc 2d ce e1 3d
       0.10894764 -0.031994097 -0.021781964 0.11025653
000060 13 4b de 3c 21 1a 95 bd 0c a3 90 bd 0c ce 68 3d
       0.027135408 -0.07280374 -0.07062349 0.056837127
000070 82 16 a4 bd 9b 01 1b bd 5d 41 fe bb 45 da fc bd
       -0.080121055 -0.037843328 -0.0077592568 -0.12346319
000080 ee 57 97 bc 18 74 ab ba 0f b3 79 3d c2 e5 91 bc
       -0.018474545 -0.0013080863 0.06096178 -0.017809752
000090 35 cc f3 3c 87 79 29 3d 1a 4f 69 3d 98 d2 83 3d
       0.02976046 0.041375663 0.056960203 0.06436652
0000a0 c4 59 10 3d 23 62 06 3c 08 53 79 3d 44 85 da 3d
       0.035241857 0.008202109 0.0608702 0.1066995
0000b0 6f 49 3e 3d 62 e6 eb bc a0 08 9b bc 5b b2 d5 3d
       0.04645675 -0.028796379 -0.018925011 0.10434409
0000c0 86 5a 28 3d 1c de 91 3d 07 21 2f bd 80 26 bc 3d
       0.041101955 0.07122442 -0.042756107 0.09187031
0000d0 c2 91 c1 3d 67 66 a5 3d 52 6c de bc 4a 30 ca bd
       0.09451629 0.08076172 -0.02715126 -0.09872492
0000e0 77 03 d0 3c 2d 52 ce 3c 54 bf ec 3d 23 57 7d 3d
       0.025392277 0.025185669 0.115599304 0.06185068
0000f0 3e 6c 43 3d 2e 7c 9a bc a6 6d bc bd 03 2e 1c 3d
       0.04771065 -0.018858042 -0.09200601 0.038129818
000100 bb 10 80 3d 0e 92 d8 3b bf ad a5 bd 9a 15 95 bc
       0.06253191 0.006609208 -0.0808978 -0.018198777
000110 a1 5d 37 bd 4f 96 bc 3c 6c a4 ea bb 87 51 97 3b
       -0.044767026 0.023020891 -0.007160714 0.004617873
000120 80 d6 d7 3b ac 48 d1 3b 0d 71 c6 bd 8e da 9f bc
       0.0065868497 0.006386837 -0.096895315 -0.019513395
000130 87 23 3c bd 1a 5d a1 3d 84 cc dc 3d 32 2c 97 bb
       -0.04593232 0.07879086 0.10781196 -0.004613423
000140 88 11 e3 bd 61 e7 fe bd 8a 0a c3 3d 0a a4 88 bd
       -0.11087328 -0.12446476 0.095234945 -0.06671913
000150 ae fc 42 3d 0e c8 a1 bc c9 c2 b4 bc 8e ab 9c bd
       0.047604255 -0.019748714 -0.022065537 -0.07649909
000160 01 b5 e8 bc 40 49 81 bb 5a 8b b6 3d a1 28 9c 3d
       -0.028406622 -0.0039454997 0.08913298 0.07624937
000170 59 a1 25 bd eb 4c d6 bd ad ba 3c 3d a3 94 f1 bd
       -0.040437076 -0.1046389 0.046076465 -0.11795928
000180 a3 03 27 bd 5a f8 38 bd 8f dc 08 3e ff f6 8b 3d
       -0.040774953 -0.04515872 0.13365386 0.0683422
000190 03 bb c0 3b 24 d1 13 bc 99 0c a8 3a c1 ef ce bd
       0.0058816685 -0.009022031 0.0012821137 -0.10104323
0001a0 49 a3 b7 3d 2d 56 ff 3c 0f aa ca 3c 82 fa 9b 3c
       0.08966691 0.031169022 0.024739293 0.01904035
0001b0 50 93 9c 3c 1d 16 01 3e 3b 35 b7 3c 40 db 40 bd
       0.019113213 0.12606092 0.02236425 -0.047084093
0001c0 75 43 a5 3d 6c f4 48 bd 53 df 58 bd a0 52 89 bb
       0.08069507 -0.049061224 -0.052947354 -0.004190758
0001d0 e2 fd f1 bd 81 cf 98 3d f1 1a 3a 3c de 33 61 3c
       -0.118160024 0.07461453 0.011358962 0.013745276
0001e0 66 fb 81 3d 49 0c a0 3c 54 10 c7 bd c0 1e 33 3c
       0.063467786 0.019537108 -0.09719911 0.010932624
0001f0 a7 53 91 bd 48 2b ab 39 b0 37 2f 3b e7 87 0d be
       -0.070960335 0.0003264791 0.0026736073 -0.13821374
000200 f9 a5 51 bd 78 43 72 bd cf ce cd bd 67 1e a5 3d
       -0.051183674 -0.059146374 -0.10049211 0.080624394
000210 0a d0 a2 bd 81 29 8a bd f2 ae f0 bd cc eb ae bd
       -0.079498366 -0.067461975 -0.11752118 -0.085410684
000220 37 c7 55 3c dc bc da 3d 49 56 dc 3d 9c 55 a8 bc
       0.013047985 0.10680553 0.10758645 -0.020548634
000230 47 e5 00 bd 4a 52 38 bd aa ef be bd 67 65 c1 bd
       -0.031468656 -0.045000352 -0.09323056 -0.09443169
000240 9a c8 c2 3c 06 38 9f bd fb 8f a1 bd 1e 8f f5 3d
       0.023777295 -0.077743575 -0.0788879 0.11990188
000250 55 06 b3 bc f6 f6 3e 3d 2f 50 af 3d 7d a7 10 3d
       -0.021853605 0.04662224 0.08560216 0.03531598
000260 10 18 80 bd bc ab a8 bd 5b 5f 27 3d 0c 4b 4a 3d
       -0.062545896 -0.08235881 0.040862422 0.049387977
000270 58 27 f5 bd 78 fd dc 3d 9c 44 56 3d ae 80 03 bd
       -0.11970395 0.10790533 0.052311525 -0.03210514
000280 88 26 ae 3d 82 76 d0 bd 36 0d a3 3c e9 94 e2 bd
       0.08503443 -0.101788536 0.01990376 -0.110635586
000290 6b 40 d4 bd 49 96 c0 bd 15 a5 f2 3d 7a 05 95 bd
       -0.10363849 -0.094036646 0.11847893 -0.07276435
0002a0 da d4 03 3d 70 da 13 bc a2 cc d4 3d 5c 0c 51 bd
       0.032185413 -0.0090242475 0.10390593 -0.051037177
0002b0 6f 20 5e 3d 1c 7f 5f 3d d0 5b 4b 3d 1b eb d9 bd
       0.05423015 0.05456458 0.049648106 -0.10640546
0002c0 fa f9 5d bc 34 bf 39 3d 0a e8 cc 3d 71 e5 f3 bc
       -0.013548369 0.04534836 0.100051954 -0.029772492
0002d0 2a 93 46 3d ae 17 a6 bd 4a 57 01 bd 26 0c f7 3d
       0.04848019 -0.08109985 -0.031577386 0.12062864
0002e0 e7 d7 9a bd 18 0c ea bd 51 67 a1 3d 7f 1f b4 3d
       -0.07560711 -0.11428088 0.07881034 0.0879507
0002f0 3e 65 01 3e cc f6 02 bc 9f 12 b5 bd 09 fd a6 3d
       0.12636277 -0.007993411 -0.08841442 0.081537314
000300 47 13 ae 3d d3 74 69 3d 04 3f b9 3d 83 23 ed 3c
       0.084997706 0.056996178 0.090452224 0.028947597
000310 6e 71 a0 bc 3e 65 87 bd 82 c6 c3 3d 12 47 85 3c
       -0.019585337 -0.06611107 0.09559347 0.01626924
000320 2d 7c db 3c 1f 21 d0 3d 2a 83 74 3d 8f 46 9d 3d
       0.02679261 0.10162567 0.0596954 0.076794736
000330 2b c5 32 3b 94 4a e2 3b 4d e8 f6 bc d6 ec 35 3d
       0.0027278166 0.006905863 -0.030140067 0.044415317
000340 dd 83 ed 3c 52 ca 81 bc 8b 81 06 3e f7 c4 a8 3d
       0.028993541 -0.015843544 0.13135354 0.08240693
000350 62 1d c2 3d 1b 81 a2 bd 19 4b 0c 3d 3f 9a 41 bd
       0.094782606 -0.07934781 0.034251306 -0.04726624
000360 6f fb c6 bd bf e4 4c bd 9f 3a 56 bd f0 9c b2 bd
       -0.09715926 -0.050022837 -0.052302 -0.0872134
000370 78 bb 93 bd a8 eb 05 3d 4d ad a7 3d 87 36 24 3d
       -0.07213491 0.032695442 0.081873514 0.040091064
000380 dd 55 8f 3d 64 f9 03 3d 44 8a 4c bc 02 7f eb bb
       0.06998799 0.03222026 -0.012484137 -0.0071867714
000390 38 eb 65 3d 87 b6 f1 3d 25 38 d3 3c 1f 7b 88 bd
       0.056132525 0.118023925 0.025783608 -0.066641085
0003a0 d0 07 b4 bd ed fe 36 bd d6 a1 c2 3d 3f 2e 1e bd
       -0.087905526 -0.04467671 0.09503524 -0.038618322
0003b0 53 63 d5 bd 0b c6 84 bd 2d 0e f4 3d 1c 05 fb 3d
       -0.10419335 -0.06483086 0.11916766 0.12256834
0003c0 60 67 33 bc 58 b4 1a 3d c7 66 ff 3d 05 d5 75 3d
       -0.0109499395 0.037769645 0.12470775 0.060017604
0003d0 fb 95 3b bc 9c 75 ab 3d bf b4 d7 3d f2 6d b0 bc
       -0.011449332 0.083720416 0.105325215 -0.021536801
0003e0 28 bd 82 3d 7f 80 e8 3d 22 4d 83 3c 2c 20 8a 3d
       0.06383735 0.11352634 0.01602799 0.067444175
0003f0 e4 2c e2 3d 06 75 d2 bd 1a 86 f4 3d 27 cc 6f bd
       0.110437185 -0.10276227 0.1193964 -0.058544304

numerical_net.4.bias f4 [64]
000000 ed 93 bb 3d 20 68 3c bd a6 5b 95 bc 14 15 24 3d
       0.09159074 -0.04599774 -0.018232178 0.040059164
000010 25 17 89 bd 3c 30 f5 3c 5f 19 60 3c 21 01 c4 3d
       -0.066938676 0.029930227 0.013677924 0.09570528
000020 53 4c b8 bc 02 a3 c2 bd 4a 11 8b 3d 3f 09 46 bd
       -0.022497332 -0.095037475 0.06790407 -0.04834866
000030 30 49 33 bd ca 09 f9 bc 2d 9f b2 bd e6 bc b7 b9
       -0.04377097 -0.030400176 -0.087217666 -0.0003504522
000040 ac e3 01 3e 59 96 57 3d ce e1 12 bc e1 26 89 bd
       0.12684506 0.052633617 -0.008964969 -0.06696869
000050 e8 e4 8b 3d 7d 41 d4 3d e7 d1 df 3d 32 00 13 3d
       0.0683077 0.103640534 0.109287076 0.03588886
000060 6d 08 bb 3d 83 88 3b 3c 85 22 c5 bd 12 a4 e3 bd
       0.091324665 0.011446121 -0.09625725 -0.11115278
000070 aa 2e 82 bd 17 36 b8 3d bf 9e c8 3d 5e 3d b8 3d
       -0.06356557 0.08994692 0.097959034 0.0899608
000080 89 a4 56 bb 1e 1b c6 3d e1 24 2e 3d 59 96 94 3d
       -0.003275188 0.09673141 0.04251564 0.07255239
000090 84 3d f5 bc 3f 54 46 bd 98 a8 e4 3d 60 b6 1c bd
       -0.02993656 -0.048420187 0.11164969 -0.038259864
0000a0 cb 9a d9 bd e4 99 3b 3d c9 bc da 3d 41 b1 55 bd
       -0.106252275 0.04580106 0.10680539 -0.052170996
0000b0 e8 9d 52 3d 2a ff 59 bd 05 79 82 bd 27 7c a9 3d
       0.051420122 -0.05322186 -0.06370739 0.08275633
0000c0 f5 b5 c2 3d 39 67 80 bd ee 03 9f bd b7 2e d9 bc
       0.09507362 -0.06269688 -0.077644214 -0.026511533
0000d0 bd 35 b4 3c 0e 6b 8b bd a1 62 4f bd 73 3c a5 3d
       0.02199828 -0.068075284 -0.05063117 0.080681704
0000e0 87 22 65 bd 7a 90 d3 bb 28 24 e8 bb 02 13 32 bd
       -0.05594113 -0.006456432 -0.0070843883 -0.04347516
0000f0 5f fd 6a bd 08 e8 a4 bd d5 82 46 3c 31 9d d9 3d
       -0.05737054 -0.08052069 0.012116154 0.10625685

numerical_net.6.weight f4 [64]
000000 74 28 7c 3f 8f b0 80 3f 5f 87 7d 3f 37 42 7b 3f
       0.98499227 1.0053881 0.99034685 0.9814791
000010 a4 77 7b 3f 6c b6 7d 3f a0 92 7d 3f 1c 3d 7b 3f
       0.9822943 0.9910648 0.99051857 0.9814012
000020 f2 20 7b 3f 65 54 7e 3f 36 6d 7f 3f ca b3 81 3f
       0.98097146 0.99347526 0.9977602 1.0132992
000030 09 91 7c 3f 7f 32 81 3f 85 ba 7c 3f 11 1e 7e 3f
       0.98658806 1.0093535 0.98722106 0.9926463
000040 5e 1e 7b 3f dc 09 7b 3f 4d 54 7b 3f a1 8f 7b 3f
       0.9809321 0.9806192 0.9817551 0.98266035
000050 82 5f 7c 3f 8e 73 80 3f b3 b1 7b 3f 41 ff 7a 3f
       0.98583233 1.0035264 0.9831802 0.98045737
000060 c6 60 81 3f aa f5 7a 3f 09 5f 7b 3f 74 d1 7d 3f
       1.0107658 0.98031104 0.9819189 0.99147725
000070 2d 06 7b 3f 28 22 80 3f 75 4e 7b 3f f9 32 7b 3f
       0.980563 1.0010424 0.9816659 0.98124653
000080 8f 93 81 3f b2 c5 7c 3f c3 30 7b 3f dd 31 7c 3f
       1.0123156 0.9873916 0.9812128 0.98513585
000090 37 f0 7a 3f d0 f6 7a 3f a7 1f 82 3f 12 64 7e 3f
       0.9802279 0.98032856 1.016591 0.99371445
0000a0 d1 0d 7b 3f 27 1e 7c 3f 69 99 80 3f 9a 9a 7b 3f
       0.9806796 0.9848351 1.0046817 0.9828278
0000b0 5c d1 7c 3f fd 81 80 3f 67 ee 7a 3f de a5 80 3f
       0.9875696 1.0039669 0.98020023 1.0050619
0000c0 86 1d 7b 3f c6 c5 81 3f ba 57 7b 3f db ff 7e 3f
       0.98091924 1.0138481 0.98180735 0.99609154
0000d0 cf 1a 80 3f 4b f6 7a 3f 0d 33 7e 3f 58 f0 7a 3f
       1.0008181 0.98032063 0.9929665 0.98022985
0000e0 30 fb 80 3f 6d b6 7d 3f 40 4c 7b 3f 0c 21 81 3f
       1.0076656 0.99106485 0.98163223 1.008821
0000f0 d9 f2 81 3f 02 0f 7b 3f 3d 32 80 3f 5d 14 81 3f
       1.0152236 0.98069775 1.0015332 1.0084339

numerical_net.6.bias f4 [64]
000000 b9 eb ef bb 20 4a 98 bc 81 06 8e 3c ae ab 98 bc
       -0.0073218015 -0.018590033 0.017337086 -0.01863655
000010 3c 88 ae 3b 0e 84 a3 bc be 0a 9e bc 0a 05 a2 3a
       0.005326299 -0.01996043 -0.019292232 0.0012361121
000020 76 32 a5 bc 94 cd 1a 3b 0a 4b 4a bc e1 f3 65 3c
       -0.020165663 0.002362107 -0.012346992 0.014035196
000030 44 28 88 bc b8 4a 85 bc a6 42 53 3c a0 96 a4 bc
       -0.016620763 -0.01627098 0.012894308 -0.020091355
000040 dd f0 69 3c 24 8d 49 bc fe 2e 9b 3c 6f 7f 8b 3b
       0.014278618 -0.012301717 0.018943306 0.0042571346
000050 ed a7 92 3c f7 f8 3e bc 76 6f 4e bc f0 96 91 bc
       0.017902339 -0.0116560375 -0.012599817 -0.017772168
000060 0d 1b 0d bc e7 37 82 3c 25 82 99 3c f5 c3 96 3c
       -0.008612406 0.015895797 0.018738816 0.018403986
000070 c2 cd 94 bc bb 05 97 bc 11 35 9f bc 32 0f 9b bc
       -0.01816452 -0.01843535 -0.019434484 -0.018928144
000080 01 19 a1 bc 21 80 fd ba 38 0e 9b 3c bb ba 9f bc
       -0.019665243 -0.0019340554 0.018927678 -0.01949822
000090 56 8b 20 bc e0 95 71 3c 4c d4 a5 bc ba 32 a1 bc
       -0.009798845 0.014745206 -0.020242833 -0.019677509
0000a0 39 cd 7e 3c e6 a4 ae bb 50 fd 95 3c 26 f8 a4 bc
       0.015551859 -0.005329716 0.018309265 -0.020137858
0000b0 5e 02 89 ba 33 38 80 3c b8 12 9c bc fc c8 7a 3c
       -0.0010452976 0.015651798 -0.019051895 0.0153067075
0000c0 8d af 95 3a bb c9 3f bc c2 a2 a3 bc 46 b0 a2 bc
       0.0011420116 -0.011705811 -0.01997507 -0.019859444
0000d0 29 90 95 3c 8a 2c a4 3c 8e 2f c7 3b c7 bf 9f 3c
       0.018257217 0.02004077 0.006078667 0.019500626
0000e0 2d 63 8c 3c f9 d7 84 3b ea 8f 31 bc 91 bd 85 bc
       0.017137134 0.0040540663 -0.010837534 -0.016325744
0000f0 69 db 7e bb bc ad 87 3c ea 29 75 bb 30 8e 9a 3c
       -0.0038888103 0.016562335 -0.0037409016 0.018866628

numerical_net.6.running_mean f4 [64]
000000 b8 39 29 3e 2c 8f 26 3e c1 99 3e 3e 98 14 0e 3e
       0.16525924 0.16265553 0.1861334 0.13875043
000010 71 29 f1 3d 4d ce 12 3e 0e e5 23 3e 4e 35 44 3e
       0.117754824 0.1433651 0.16005346 0.19160959
000020 67 77 f5 3d 42 a4 d7 3d 3c c5 59 3e 11 4b 1a 3e
       0.11985665 0.105293766 0.21266645 0.15067698
000030 96 0a fb 3d b6 7a 2d 3e 93 54 14 3e a6 e2 f8 3d
       0.122578785 0.16941342 0.14485388 0.12152605
000040 19 64 6b 3e 81 a5 35 3e de e1 0f 3e 6b 06 16 3e
       0.22987403 0.17738916 0.14051005 0.14650886
000050 2c c5 20 3e 9b 73 40 3e b6 f7 76 3e d0 8f 18 3e
       0.15700215 0.187941 0.24117932 0.1489861
000060 ea 65 50 3e b2 80 11 3e a1 e4 1f 3e 38 ee e0 3d
       0.20351377 0.1420925 0.15614559 0.109829366
000070 3e ad e0 3d f8 0c 4f 3e ba ee 45 3e 98 a9 3a 3e
       0.10970543 0.20219791 0.19329348 0.18228757
000080 4b 73 19 3e 83 91 35 3e dc 08 1d 3e 16 63 14 3e
       0.14985387 0.1773129 0.15335411 0.14490923
000090 0f bb 1e 3e 4e 62 20 3e bb 97 63 3e 0d 34 0a 3e
       0.15501045 0.156625 0.2222585 0.13496418
0000a0 19 da fd 3d 74 ed 48 3e 14 9f 4e 3e ea 38 1a 3e
       0.123951145 0.19621831 0.20177871 0.15060773
0000b0 6d 8f 25 3e a5 e5 14 3e 98 cc f0 3d da e5 58 3e
       0.16167994 0.14540727 0.11757773 0.21181431
0000c0 e2 a0 53 3e 0e cd 15 3e 07 8f 15 3e df 24 39 3e
       0.2066684 0.14629003 0.14605342 0.18080471
0000d0 30 5a 2c 3e 73 78 0d 3e 62 3a 12 3e 15 77 2e 3e
       0.16831279 0.13815479 0.14280084 0.17037614
0000e0 37 36 0a 3e 1a d3 08 3e c6 f0 21 3e 56 70 2e 3e
       0.13497244 0.13361779 0.15814504 0.1703504
0000f0 4f 98 49 3e 6a 4e 1a 3e 12 f0 1c 3e 6c 10 68 3e
       0.19687007 0.15068975 0.15325955 0.22662514

numerical_net.6.running_var f4 [64]
000000 9c f9 df 3e 36 af de 3e 6f df f8 3e e9 f4 d8 3e
       0.43745124 0.4349305 0.48607966 0.42374352
000010 f0 28 d1 3e 2a 57 d6 3e e8 15 f1 3e fb 62 e6 3e
       0.40851545 0.41863376 0.47087026 0.4499739
000020 03 58 ce 3e ea ed cf 3e 9c a1 07 3f b2 46 d9 3e
       0.40301523 0.40611202 0.5298097 0.4243675
000030 e9 05 da 3e 77 f2 d8 3e e6 f0 d5 3e bf 89 d2 3e
       0.42582634 0.42372486 0.41785353 0.41120717
000040 70 41 f3 3e 00 9c e9 3e 03 27 da 3e de 83 ea 3e
       0.47510862 0.4562683 0.4260789 0.45803732
000050 f9 2e dc 3e cd 48 df 3e a6 9c 02 3f 7a f1 d6 3e
       0.43004587 0.4361023 0.51020277 0.41981107
000060 2d 4a fe 3e 1c 27 d5 3e 1b f2 e7 3e 9f e0 cf 3e
       0.49665967 0.416314 0.453019 0.4060106
000070 f6 cf cd 3e 92 08 ee 3e 20 3d e8 3e 20 44 ed 3e
       0.40197724 0.46490914 0.45359135 0.46341038
000080 11 6b de 3e 6a 25 df 3e 5b aa d3 3e b2 b2 d7 3e
       0.4344106 0.43583232 0.41340908 0.4212852
000090 ff 5f de 3e 3d ea df 3e a5 99 0f 3f 44 7e da 3e
       0.43432614 0.43733397 0.5609382 0.42674458
0000a0 34 79 cf 3e 7c a0 ec 3e a8 13 e1 3e aa 06 fb 3e
       0.40522158 0.4621619 0.4396031 0.49028522
0000b0 d9 8e de 3e 61 86 f3 3e 29 d5 d5 3e 41 58 ee 3e
       0.4346836 0.4756346 0.4176419 0.46551707
0000c0 4d ff e2 3e 81 dc d5 3e b8 c8 07 3f 63 f5 f3 3e
       0.44335404 0.41769794 0.5304065 0.47648153
0000d0 60 73 de 3e e1 d4 dd 3e de 3f dd 3e 2f 10 d9 3e
       0.434474 0.43326476 0.4321279 0.4239516
0000e0 22 ec e2 3e 3f 73 cd 3e 17 fd e6 3e be b8 e2 3e
       0.4432078 0.40126988 0.45114967 0.44281572
0000f0 bc f0 eb 3e eb 10 ea 3e eb bf dd 3e 1f 24 06 3f
       0.46082103 0.45716032 0.43310484 0.52398866

title_net.0.weight f4 [128, 200]
000000 0f 8f af 3c 5e c9 c3 bc 77 24 fc bc d5 4a 4d 3d
       0.02143052 -0.02389973 -0.030779107 0.050120194
000010 08 88 cd 3a aa 9b 85 3b ac a4 63 3d 8d 43 12 3d
       0.0015680799 0.0040773945 0.055576965 0.035708953
000020 cb c6 5c 3d c6 70 03 3d 00 04 75 3d 66 70 25 3d
       0.05390052 0.03208997 0.059818268 0.040390395
000030 8d 15 aa 3c 47 4f 76 bd 0d 73 b1 bc 74 b4 91 bc
       0.02076223 -0.0601342 -0.021661306 -0.017786242
000040 66 72 22 3d 75 99 af 3c 5a ec 97 bd 87 de 93 bc
       0.03965988 0.021435479 -0.07418127 -0.018050445
000050 58 b7 a1 3c 12 c9 92 3d fd 2e 3f 3d ba 57 36 3d
       0.019740745 0.07167257 0.04667567 0.044517256
000060 40 c8 80 bd 22 e4 8d bc 0e d9 d1 bc 99 52 74 3d
       -0.06288195 -0.017320696 -0.025616195 0.059649084
000070 fc b2 82 3d 47 54 e1 bb 10 93 3d bd 8f d6 62 bd
       0.06381795 -0.0068765017 -0.046282828 -0.0553804
000080 8f 49 0f 3d c7 1f f3 3c ac 1e 55 bd df 04 01 3d
       0.03498226 0.029678239 -0.052031204 0.031498786
000090 08 9a ad bc 4a 94 c3 3c 6a 53 42 bc 48 64 30 3c
       -0.021191612 0.02387442 -0.011860708 0.010766096
0000a0 3c 45 e6 3c 8c c1 a5 bd e6 95 f9 bc bd 50 0b 3d
       0.028109185 -0.08093557 -0.030466985 0.034012545
0000b0 b8 64 1e bd 2c ef 41 3d d9 b1 1c bd 6e f1 bb 3c
       -0.03867027 0.047347233 -0.038255546 0.022942271
0000c0 e8 6a 8e 3c 72 5d 54 3d 9a a3 ea 3c bb af e4 3b
       0.017384961 0.05184693 0.028642464 0.0069789565
0000d0 f5 36 6c 3d 5a 6e 4b bd de f1 55 bd 40 17 ef 3c
       0.0576696 -0.049665786 -0.052232616 0.029185891
0000e0 ee 1f eb 3c 00 49 9f bc c2 56 27 3d c1 86 36 bd
       0.028701749 -0.019443989 0.040854223 -0.044562105
0000f0 2f 18 55 bd 72 35 96 3d 7e 62 7a bd 9a b8 a0 3d
       -0.052025016 0.07334413 -0.061129086 0.0784771
000100 04 36 8a 3d fe c7 84 3d 33 b4 99 bc c3 ae cc bc
       0.06748584 0.06483458 -0.018762683 -0.024985677
000110 83 ef 89 bc 9a d5 79 3d 82 be 7b bd 13 b8 15 bd
       -0.01683784 0.060994722 -0.06146098 -0.0365525
000120 2c ed e9 3b d7 d4 6e bd 5a f0 12 bd b2 24 98 3d
       0.007138869 -0.05830845 -0.03587375 0.07428874
000130 b4 8a 95 3d b6 ad ef b9 a5 02 08 3d be 8b 54 3d
       0.07301846 -0.00045715057 0.033205647 0.05189108
000140 05 ae 63 bd 6e 3b b7 3c bc 16 9a bd 1c c1 4d bd
       -0.05558588 0.022367205 -0.075238675 -0.05023299
000150 da 6e f9 bc fd 87 82 3d c2 a7 9d bb cf d1 fd 3c
       -0.030448366 0.06373594 -0.004811258 0.030983834
000160 52 10 22 bd 8a 6d 21 3d bb 5e 86 3d ae e1 48 3c
       -0.039566346 0.039411105 0.06561037 0.0122608375
000170 54 ed a4 3c b4 13 d8 3c 5c 86 91 bd 38 aa f6 3c
       0.020132698 0.026376583 -0.07105705 0.030110464
000180 ce 2b 13 bd d5 2d 05 bc 57 52 8e bd 5c ad 3b bd
       -0.035930447 -0.008128603 -0.06949299 -0.045819625
000190 d5 bf 47 3d 07 3d f2 bc 04 56 53 3d c3 f3 67 bd
       0.04876693 -0.029570116 0.051595703 -0.056628954
0001a0 a4 87 90 bd 16 7b 00 bd f3 6c f8 bc 0b b0 3d bc
       -0.070571214 -0.031367384 -0.030325389 -0.011577616
0001b0 33 23 44 bd df 6a 54 bd 55 12 4f bd 9b 93 32 3d
       -0.04788513 -0.051859733 -0.050554592 0.0435978
0001c0 e9 2e 0e bd ac 8e 0c 3d af a5 38 3d 49 60 a4 3d
       -0.034712706 0.03431575 0.045079883 0.080261774
0001d0 9b 6a b1 3c 38 4a 53 bd dd 1c e8 3c ef 62 ec bc
       0.021657279 -0.051584452 0.028334076 -0.028855769
0001e0 ee 57 da bc 0d 5c 84 ba 1b 86 a4 bc 81 32 a7 bc
       -0.026653256 -0.0010098234 -0.020083478 -0.020409824
0001f0 6b 8b 54 3d 9c 8f 22 3d 77 4a a2 3c db 1d c8 3b
       0.05189077 0.039687738 0.019810898 0.0061070747
000200 4a ad 03 bd ba ad bd bc 27 ba 0e 3d c1 bc 74 3c
       -0.032147683 -0.023154128 0.034845497 0.014937581
000210 d6 ba d4 3c be 49 28 3d 04 21 81 3d 1d cf 99 3d
       0.025967997 0.04108595 0.06305125 0.07510207
000220 4e ee 86 bd fc c0 6c bd 8e 5c 6f bd fe 2d 0c 3d
       -0.06588422 -0.05780123 -0.058437876 0.03422355
000230 36 e0 e3 3c 70 62 e1 bc 24 86 29 bd d8 63 5c bd
       0.027816873 -0.027512759 -0.041387692 -0.053806156
000240 bc 87 fe 3c 55 b8 8c 3d fe 13 46 3c 35 c3 84 bd
       0.031070583 0.06871096 0.012089727 -0.06482545
000250 83 de 75 bd a1 e1 70 3d 70 5e 15 bc ec 80 2a 3d
       -0.060026657 0.058808926 -0.009116754 0.041626856
000260 b1 ab 10 3d b4 a5 29 3c b3 2f 16 bd a7 c6 47 3d
       0.035319988 0.010354448 -0.036666583 0.048773434
000270 8c 89 11 3d 3c 47 a0 bb 6b d9 70 bd 39 1a 0f 3d
       0.035531566 -0.0048913043 -0.058801096 0.034937117
000280 82 40 0f bd 54 4f 34 3d 3d 07 11 3d cb 6b a1 3d
       -0.03497363 0.044020966 0.035407294 0.07881888
000290 b1 49 62 3d 64 30 27 3d 54 31 84 3b 93 80 f1 3b
       0.05524606 0.040817633 0.0040342007 0.0073700636
0002a0 b0 34 52 3d 99 85 82 3d be ab 47 bc 48 18 4d bd
       0.051319778 0.06373138 -0.012186943 -0.050071985
0002b0 ab b9 e2 bc ad f5 83 bb 3b f9 13 bd 9e d5 07 bd
       -0.027676424 -0.0040270896 -0.036126357 -0.033162706
0002c0 f0 43 0a 3c 3e d5 a7 bc a8 96 da bc 38 62 ad bd
       0.008439049 -0.020487424 -0.026683167 -0.08465999
0002d0 60 b2 d0 ba 0a 18 1b bd a3 06 36 bd d9 ce 90 bc
       -0.00159223 -0.037864722 -0.044439923 -0.017676758
0002e0 2f 39 50 3d b8 46 64 3d 3e cb ac 3b 12 96 3a bd
       0.050835785 0.055731505 0.005273252 -0.045553274
0002f0 0c d0 97 bd 1a cb 6a 3d 1f 88 7c 3b e1 23 ff 3b
       -0.07412729 0.0573226 0.0038533283 0.0077862595
000300 55 e6 44 3d 64 2a fa 3c 79 88 51 bd f7 b8 2e bd
       0.048071224 0.030537792 -0.05115554 -0.042656865
000310 5d 3f c3 3b 23 01 33 bd 56 4f 0a 3d 81 86 32 3d
       0.005958481 -0.043702256 0.033767067 0.043585304
000320 65 f5 b5 3c 13 85 36 bd b4 87 21 3b 1c 9f aa bc
       0.02221174 -0.044560503 0.0024647536 -0.020827822
000330 0a 55 6c bd bf 82 1d 3c 1d 55 98 bc 61 5f 9f 3c
       -0.057698287 0.009613692 -0.018595273 0.01945466
000340 f1 5d 55 bc bf 79 b2 3b 25 0b 98 3d 40 91 7d 3d
       -0.013022886 0.005446642 0.07424001 0.0619061
000350 4f fa 7a bd 5e 74 a5 bd 02 9e 56 bc 85 c5 11 3c
       -0.06127387 -0.08078836 -0.013099195 0.00889719
000360 17 1a d8 3b a3 fe 19 bb ac 47 10 bd 30 0b c0 3c
       0.006594907 -0.0023497723 -0.0352246 0.023442835
000370 0c 03 be 3c cd 79 54 3d c1 5b 68 3d da 8e 96 bc
       0.023194812 0.05187397 0.05672813 -0.018378664
000380 00 3c 96 bd 49 79 1e 3c c1 15 d6 bc 51 cc 25 3c
       -0.07335663 0.009672471 -0.02613342 0.010119514
000390 d5 8b 67 bd e2 61 36 bd 60 86 c0 bc 52 91 a9 3c
       -0.05652984 -0.044526942 -0.023501575 0.020699177
0003a0 0a d1 8c 3d 9c a3 9c 3d b3 46 3c 3d 3d dc 18 3c
       0.068758085 0.076483935 0.04596586 0.009329853
0003b0 23 b7 74 bc ac 7f 82 3d 6a e6 1c bd a7 11 20 bc
       -0.014936241 0.06372008 -0.038305677 -0.009769834
0003c0 b6 95 56 3d f6 71 79 bd 2d 54 e0 3c 09 aa d4 3c
       0.05238887 -0.060899697 0.027383888 0.025959985
0003d0 55 96 8d bd c2 5c 20 bc c8 e3 2e bb e3 38 aa 3d
       -0.06913439 -0.00978774 -0.0026686061 0.083116315
0003e0 d4 98 2a 3d 97 13 5b bd 99 ef ed 3b b4 f9 81 3d
       0.041649655 -0.05348548 0.0072612283 0.06346455
0003f0 a5 23 37 bd 0a e2 e5 bc 80 88 2f bd a2 a7 4e 3d
       -0.044711728 -0.028061885 -0.042854786 0.050452836

title_net.0.bias f4 [128]
000000 34 dc 65 3d 58 ff 4a 3d 46 23 bf bc 67 0a db bc
       0.056118205 0.04955992 -0.02333225 -0.026738359
000010 46 a4 1d bd 09 9e b3 bb 80 96 e2 38 2e 1e 4e bc
       -0.03848674 -0.0054814857 0.000108045526 -0.012580438
000020 f6 ef 29 bd b1 1a 98 3c 18 ef 0d 3c 12 40 0e 3d
       -0.04148861 0.018567415 0.008662961 0.03472907
000030 2d 0b 0c 3d d4 1a 89 3d 74 93 a6 3d 21 fe 89 3c
       0.034190346 0.0669457 0.08133593 0.01684481
000040 cd ca 9d 3d 22 79 9e bc ee c4 7a bc e3 eb 19 3c
       0.07704697 -0.01934487 -0.015305741 0.009394619
000050 dc 2d f8 3c 18 5d f2 3b 4a af c7 bb 1f 79 6d bd
       0.030295305 0.0073963515 -0.006093894 -0.05797684
000060 df 25 24 3d cc b7 50 bd f4 c1 99 3d f5 f2 0e bd
       0.04007518 -0.050956532 0.07507697 -0.03489967
000070 f8 55 6d 3c ca da 22 bb fe f0 87 3a 18 68 82 bd
       0.014485829 -0.0024849647 0.0010371504 -0.063675106
000080 b2 10 c2 bc bd e3 85 3c 26 cf 65 bd 4e 39 c6 bc
       -0.023689602 0.016343946 -0.056105755 -0.024197247
000090 eb 2d 51 3a 57 4c ea bc 5d ca 7d 3b d9 14 19 bd
       0.00079795596 -0.028600855 0.0038725354 -0.037373397
0000a0 78 b9 1e bd f0 cb 95 bd 1d 1d d4 bc 96 b0 1e bd
       -0.038751096 -0.073142886 -0.025892789 -0.038742624
0000b0 6b 9f 0d bd 80 05 5d bd 31 bc 15 bd 32 a6 aa bc
       -0.03457586 -0.053960323 -0.036556426 -0.020831201
0000c0 dd b5 1d 3d be 1a 89 3d af 13 30 3d 09 14 6e bd
       0.038503516 0.06694554 0.04298752 -0.058124576
0000d0 3d 43 28 3d 32 18 19 3d 99 c1 cb 3b 1c 2a 11 bd
       0.04107975 0.03737659 0.006218147 -0.03544055
0000e0 c7 ca 05 3d fa f4 85 3d ff 22 50 bd 47 bc d7 bc
       0.032664087 0.06540866 -0.050814625 -0.026334895
0000f0 68 55 07 3d 58 f5 e4 3b b3 1e 63 3d 7b ce e9 3c
       0.033040434 0.006987255 0.0554492 0.02854084
000100 44 b5 47 bb b4 7a 7c bd fe c9 5e 3d ab 4d d2 3c
       -0.0030473033 -0.061640456 0.054391854 0.0256718
000110 9b 3c fc bc b0 ab a9 bc 4b 0c e5 bc 01 9c a3 3c
       -0.030790618 -0.02071175 -0.027959963 0.01997185
000120 f3 2d 4a 3c 44 30 c7 3b fc fa 1d 3b 42 34 5a bc
       0.012340057 0.0060787518 0.0024105897 -0.013318123
000130 c0 24 a6 bc f4 68 44 3d b8 b3 47 3d 83 96 fd 3c
       -0.020281196 0.047951654 0.048755378 0.030955559
000140 8a fd 74 bd d3 15 35 bc 64 ca de 3c 19 ff 98 bc
       -0.059812106 -0.011052567 0.027196117 -0.018676328
000150 04 85 53 3c a8 be c9 bc ca 16 a4 bb 47 74 5b 3b
       0.012910131 -0.024627045 -0.0050075995 0.0033486055
000160 f9 fd 6c 3d d5 1a 9e bb 53 6d 88 bd f6 f9 45 bd
       0.057859395 -0.004824976 -0.06661477 -0.048334084
000170 b4 6f 69 bd 3b 47 c2 bb bf 75 2e 3d 54 10 9e 3d
       -0.056991294 -0.0059289015 0.04259276 0.07717958
000180 63 de c0 3c 1e f5 00 bc e3 f9 26 bd ce 31 df bc
       0.023543542 -0.0078709405 -0.040765654 -0.027245428
000190 e3 93 59 3d cf ae 3c bd 3a 36 2d bd b8 21 a1 3c
       0.05311955 -0.046065148 -0.042288043 0.019669399
0001a0 14 91 52 bc 6c 14 43 3d 19 35 af 3b bf e9 cd bc
       -0.012851972 0.047626898 0.005346906 -0.025135873
0001b0 3d a3 92 3d 3f e0 b0 bc 38 d8 8e 3c 20 c2 6b ba
       0.071600415 -0.021591304 0.017437086 -0.00089934655
0001c0 f3 78 e1 bc 94 8c e5 3c a4 a6 64 bd 72 5d cc bc
       -0.027523493 0.028021134 -0.055822983 -0.024946902
0001d0 04 8d f2 3c d5 a9 4f bd a7 0d 22 bc 60 fb 95 bd
       0.029608257 -0.050699074 -0.00989095 -0.073233366
0001e0 9c bd 63 3d 87 e9 53 bd bf e8 fb bb 60 c0 a0 3d
       0.055600747 -0.05173638 -0.0076876576 0.078491926
0001f0 09 6c 41 3d dd 95 82 bd e7 3b 8c 3d eb 08 d7 3c
       0.04722217 -0.063762404 0.06847363 0.02624937

title_net.2.weight f4 [128]
000000 12 80 82 3f 12 de 80 3f 6b ae 7e 3f 57 24 82 3f
       1.0195334 1.006777 0.9948489 1.016734
000010 47 f6 7d 3f 9f e6 7c 3f a0 8f 80 3f a0 96 80 3f
       0.99203914 0.987894 1.0043831 1.0045967
000020 e7 d2 7c 3f 02 7d 82 3f 6d 5f 7e 3f 52 82 7b 3f
       0.9875931 1.0194399 0.9936436 0.9824573
000030 b3 2f 81 3f a2 63 82 3f a8 32 81 3f a9 c1 7f 3f
       1.0092682 1.0186656 1.0093584 0.99904877
000040 e3 d8 81 3f ba 30 7b 3f a5 55 7b 3f be 3a 81 3f
       1.0144314 0.98121226 0.9817756 1.0096052
000050 02 70 82 3f 22 0d 7b 3f 6c 68 7b 3f 68 8f 82 3f
       1.0190432 0.98066914 0.9820621 1.0200014
000060 7c a9 7b 3f e5 39 7f 3f f4 ff 7a 3f f4 8b 82 3f
       0.9830549 0.99697715 0.98046803 1.019896
000070 90 36 82 3f 79 6a 7b 3f 29 5d 7b 3f eb 6f 7b 3f
       1.0172901 0.9820934 0.98189026 0.9821765
000080 ce 2d 7d 3f 1d ac 7b 3f 1d c9 7b 3f c8 cd 7b 3f
       0.9889802 0.983095 0.9835375 0.9836087
000090 3e b8 7e 3f 43 d2 81 3f dc af 7c 3f b2 c5 7f 3f
       0.9949988 1.0142292 0.9870584 0.99911034
0000a0 eb 77 7e 3f 77 f1 7a 3f fb 79 82 3f e7 78 82 3f
       0.9940173 0.98024696 1.0193475 1.0193146
0000b0 7b 48 7d 3f e1 ad 7b 3f f3 82 7b 3f fe 6b 81 3f
       0.9893872 0.98312193 0.9824669 1.0111082
0000c0 ac 2e 7c 3f 6a 20 82 3f dc 3a 81 3f 39 55 7b 3f
       0.98508716 1.0166142 1.0096087 0.98176914
0000d0 b7 48 80 3f c9 96 81 3f 46 03 7f 3f fc 92 7b 3f
       1.0022191 1.0124141 0.9961437 0.98271155
0000e0 dd ec 7c 3f e1 34 7c 3f dd 53 80 3f bf 3c 7e 3f
       0.98798925 0.98518187 1.0025593 0.9931144
0000f0 b8 75 7c 3f cb 69 7b 3f 61 30 7c 3f bf c2 80 3f
       0.98617125 0.982083 0.9851132 1.0059432
000100 b5 99 81 3f 82 4d 82 3f e3 e8 7a 3f 94 c0 7d 3f
       1.0125033 1.0179904 0.98011607 0.99121976
000110 8e dd 7b 3f 45 c2 80 3f 49 36 7b 3f 34 46 7b 3f
       0.9838494 1.0059286 0.9812971 0.98153996
000120 4b e0 81 3f 36 55 7b 3f b9 ce 7d 3f 4e 38 7d 3f
       1.0146574 0.98176897 0.9914356 0.9891404
000130 29 94 7e 3f 98 86 7b 3f 15 a3 80 3f 84 b7 81 3f
       0.99444824 0.9825225 1.0049769 1.013413
000140 23 3d 7b 3f 6b 63 82 3f 52 f9 81 3f 8a 93 81 3f
       0.9814016 1.018659 1.0154212 1.012315
000150 76 3e 7f 3f 80 89 7e 3f f2 6e 7b 3f 19 12 7b 3f
       0.9970468 0.9942856 0.98216164 0.9807449
000160 1f fe 7b 3f 34 07 7b 3f 1c 2a 7b 3f f6 4c 7d 3f
       0.98434633 0.98057866 0.9811113 0.9894556
000170 39 dd 7a 3f 18 86 81 3f 37 f4 7e 3f 52 c4 81 3f
       0.9799381 1.0119047 0.9959139 1.0138037
000180 11 29 7b 3f 06 2b 81 3f f7 b0 80 3f 90 ae 80 3f
       0.9810954 1.0091255 1.0054005 1.0053272
000190 12 78 7f 3f 71 aa 7b 3f ee 21 7e 3f 1f fe 7a 3f
       0.9979259 0.9830695 0.9927052 0.9804401
0001a0 e1 93 7e 3f d2 06 81 3f fb 8e 7b 3f 93 97 7c 3f
       0.99444395 1.0080206 0.98265046 0.98668784
0001b0 40 e6 7f 3f 8b f1 7c 3f 90 2c 7e 3f 02 6d 82 3f
       0.9996071 0.98806065 0.99286747 1.0189517
0001c0 d6 14 82 3f 74 31 80 3f 80 60 81 3f 73 0a 7e 3f
       1.0162609 1.0015092 1.0107574 0.99234694
0001d0 46 16 7c 3f a9 e6 80 3f 32 e3 7a 3f 50 04 7b 3f
       0.98471487 1.0070392 0.9800292 0.98053455
0001e0 b4 ff 7a 3f d4 54 7c 3f c2 3c 7c 3f 74 99 7d 3f
       0.9804642 0.9856694 0.9853021 0.99062276
0001f0 b2 ae 7d 3f 4e 36 7b 3f 66 15 82 3f f1 6d 82 3f
       0.9909469 0.9812974 1.016278 1.0189801

title_net.2.bias f4 [128]
000000 01 25 6d 3b a4 c3 13 3c 6e 7e 57 3c d6 74 98 3c
       0.0036185386 0.009018812 0.013152702 0.0186104
000010 fe 1e 9c bc ee fe a0 bc c4 6d 9a 3c 0e 25 a4 bc
       -0.019057747 -0.01965281 0.018851168 -0.0200372
000020 0e c1 a2 ba ac 57 a1 bc 77 8c 5f 3c 41 e4 9c 3c
       -0.0012417154 -0.019695126 0.013644329 0.019151809
000030 d0 93 52 3a c8 4d 0e bc d8 c4 3c 3c 29 ca ed 3b
       0.000803289 -0.008685537 0.011521541 0.0072567654
000040 af f1 3a bc 6a 37 5c 3c 63 86 a4 bc 50 d6 94 bc
       -0.011410161 0.013440946 -0.020083612 -0.018168598
000050 88 8b 7b 3c ed 42 34 3c 33 1b c8 3b 75 1f 94 3c
       0.015353091 0.0110022845 0.006106758 0.018081406
000060 72 e4 a0 3c 57 25 9c 3c 85 a1 a1 3c 50 f2 75 3c
       0.019640181 0.019060774 0.019730339 0.015011385
000070 56 95 48 3c 54 f6 0b ba e0 57 a4 3c e1 9c 9c 3c
       0.012242636 -0.0005339135 0.020061433 0.019117774
000080 74 38 46 bc 56 a4 65 bc e3 25 9f bc 41 6c 5c bb
       -0.01209842 -0.0140162315 -0.019427245 -0.003363386
000090 44 aa f5 3a 55 42 be ba 1d 39 ae bb 97 c9 69 3c
       0.001874276 -0.0014515618 -0.005316867 0.014269254
0000a0 24 0a 9c 3c 6c 83 68 bc 08 4d 25 bc 87 e3 13 3c
       0.019047804 -0.01419149 -0.010089166 0.009026415
0000b0 f8 e5 18 bc d9 d9 08 3c 97 23 f3 3b 3c 5f 73 3c
       -0.009332173 0.00835272 0.007420014 0.014854249
0000c0 83 de d0 3a 15 48 a2 bc c9 b6 4a 3c 46 e5 93 bc
       0.0015935454 -0.019809762 0.012372681 -0.018053662
0000d0 c7 53 fe 3b 7c 85 fe bb 3a 64 3d 3c 36 d0 94 3c
       0.007761452 -0.0077673774 0.01155954 0.018165689
0000e0 9e fb 69 bc b6 f8 8e bc 3c 33 a4 3c 1e 43 28 3c
       -0.014281182 -0.017452579 0.020043962 0.010269908
0000f0 8a bf 69 3c f4 c6 2d 3c cb 4c 17 bc 9a 80 97 bc
       0.014266858 0.010606516 -0.009234617 -0.01849394
000100 b4 a5 a1 bc 66 75 97 bc bb 6e 92 3c 37 6b 9d bc
       -0.019732334 -0.018488597 0.017875066 -0.019216163
000110 a0 31 ac 39 56 d4 9b bc e1 43 8b 3c 6e 41 93 3b
       0.0003284337 -0.019022148 0.01700014 0.004493884
000120 d8 fd a1 bc f2 56 9a bc 3a d7 9a bc 2a c6 9a bc
       -0.019774362 -0.018840287 -0.018901456 -0.01889332
000130 5e 2d bd 3b 58 a1 a3 bc 32 0e 63 bb f5 63 92 bb
       0.0057732305 -0.019974396 -0.0034645912 -0.004467482
000140 8c 5c 3e bb b6 00 97 3c 72 2e 8b bb cf a1 6d bb
       -0.0029046861 0.018432956 -0.00424748 -0.0036259776
000150 23 fc 9b bc 5e 3c 6b 3b 10 28 a2 3c f2 51 8e 3c
       -0.019041127 0.0035894136 0.019794494 0.017373059
000160 e6 f9 a0 3c df 51 97 3c 5d b2 f4 bb aa 6d 3f 3b
       0.01965041 0.018471656 -0.0074675516 0.0029209652
000170 11 eb 95 3c 96 3a 11 3c 60 7a 4c bc 49 b2 6d bc
       0.018300565 0.008864066 -0.012480348 -0.0145078385
000180 dc 92 9b 3c 20 64 23 38 fb 43 ac 3b 08 89 ab 3b
       0.018990926 3.8955477e-05 0.0052571273 0.0052348413
000190 d6 5c 12 bc bf e2 12 bc 00 ef 07 38 b5 b8 9b 3c
       -0.008933267 -0.008965193 3.2409094e-05 0.019008974
0001a0 4c 4a 9f bc 05 13 06 bc 8d c4 a0 bc e5 e3 a2 bc
       -0.019444607 -0.008183246 -0.019624973 -0.01988406
0001b0 85 00 41 bc 67 aa 50 3c e6 de e5 bb 6d 74 bb bb
       -0.011779909 0.01273594 -0.007015097 -0.005720666
0001c0 56 d1 90 bc be 2e a5 bc 03 1f a4 bc bf ce a2 bc
       -0.017677944 -0.02016389 -0.020034319 -0.019873975
0001d0 e0 ca 6b bc 33 d0 f8 bb 80 62 95 bc 7a fc 9e bc
       -0.014391631 -0.0075931787 -0.018235445 -0.0194075
0001e0 42 81 6b bc c2 35 a2 bc bc 03 88 3c 87 c8 67 bc
       -0.014374079 -0.019801024 0.016603343 -0.014146931
0001f0 f2 bb 9f bc f8 fb 75 3c 66 98 83 3c f5 96 9f bc
       -0.019498799 0.015013687 0.01606388 -0.019481162
