artifacts/training_runs/run_20250613_103621/best_model.pth (torch, 258357 bytes, 21 tensors)

numerical_net.0.weight f4 [64, 36]
0	0x3dac661b	0.084179126
1	0x3ca07c7e	0.019590613
2	0x3ccb8a9c	0.024846368
3	0xbde74385	-0.11292175
4	0x3df97c49	0.12181909
5	0xbc1eae45	-0.009685104
6	0xbc1c1a5a	-0.009527767
7	0x3de6bed1	0.11266864
8	0x3d6dab4c	0.05802469
9	0xbdc76b24	-0.09737232
10	0xbd126d17	-0.035748567
11	0xbcbed2ef	-0.02329394
12	0x3e0de364	0.13856274
13	0x3bfadb09	0.0076555056
14	0x3e02ee70	0.12786269
15	0xbd64c79f	-0.055854436
16	0xbd96d094	-0.07364002
17	0x3e14af42	0.1451998
18	0x3cab4d83	0.020910984
19	0x3d09b68d	0.03362136
20	0xbda00af2	-0.07814588
21	0xbe07c57e	-0.13258931
22	0x3de4d626	0.11173658
23	0x3d442924	0.047890797
24	0xbd5cb92d	-0.053887535
25	0xbcc044f0	-0.023470372
26	0xbd7ff3fe	-0.06248855
27	0x3d8104a9	0.06299717
28	0xbd3c9de2	-0.046049006
29	0x3cb0aa91	0.021565707
30	0x3c83583b	0.016033283
31	0xbb71c022	-0.0036888202
32	0xbe37858a	-0.17922035
33	0x3d0e9716	0.034812056
34	0xbe80842c	-0.2510084
35	0xbdeed084	-0.11660865
36	0x3d3ec4a9	0.04657427
37	0xbe1d9d8e	-0.15392134
38	0xbdc40c65	-0.095726766
39	0x3da6e5b1	0.08149279
40	0x3d3acc45	0.045604963
41	0x3da69c99	0.081353374
42	0xbdb6021f	-0.08887123
43	0x3d6b3c60	0.057430625
44	0x3ea007a6	0.31255835
45	0x3d22cb39	0.03974459
46	0xbdaaf5fe	-0.083477005
47	0x3c883afc	0.016629688
48	0x3babb170	0.005239658
49	0xbe6c73d6	-0.23091063
50	0xbd0531cd	-0.032518197
51	0x3d3137eb	0.04326622
52	0x3ca37b22	0.019956175
53	0xbd96be57	-0.07360523
54	0xbe1bcb1d	-0.152142
55	0xbc238242	-0.009979786
56	0xbcbbc61f	-0.02292162
57	0x3de7617f	0.11297893
58	0xbe193c4b	-0.14964406
59	0xbe431e53	-0.19054537
60	0xbc6e302b	-0.014537851
61	0xbd0bf125	-0.03416552
62	0x3bbbf1a0	0.005735591
63	0xbc8de9df	-0.017323432
64	0xbdc44ecc	-0.09585342
65	0xbdd2b46e	-0.102883205
66	0x3dc01038	0.093780935
67	0xbdd371ff	-0.103244774
68	0x3db2b4a8	0.08725864
69	0xbc6f776f	-0.0146158775
70	0x3e3aacd8	0.18229997
71	0x3e125504	0.14290243
72	0xbe1dbacc	-0.15403289
73	0x3dec8922	0.115495935
74	0xbd50916c	-0.050919935
75	0xbce63d95	-0.028105536
76	0x3e7027e5	0.23452719
77	0x3dca92b3	0.09891262
78	0xbd1bd86e	-0.0380482
79	0xbcbeb3cc	-0.023279093
80	0xbb958bc8	-0.0045637824
81	0xbd627dc5	-0.055295724
82	0xbdb6b802	-0.089218155
83	0xbd042044	-0.032257333
84	0x3d049d6d	0.032376695
85	0xbe148b84	-0.14506346
86	0xbdf900fe	-0.12158392
87	0xbcfb27e9	-0.03065868
88	0xbd501366	-0.05079975
89	0x3d6443a8	0.055728585
90	0xbd81e4a7	-0.0634244
91	0xbe30aa66	-0.17252502
92	0x3ce2d3c5	0.02768887
93	0xbbb8a904	-0.0056353826
94	0x3d76b1bd	0.0602281
95	0x3d13f807	0.03612521
96	0xbc3a9d23	-0.011390003
97	0x3cfcd69d	0.030864054
98	0xbc54ae8d	-0.012981069
99	0x3d649e5b	0.055815082
100	0x3dfe42a4	0.124150544
101	0x3ddacf4d	0.10684071
102	0x3d9a2774	0.07527056
103	0x3e20b6f3	0.1569479
104	0x3d407908	0.046990424
105	0xbcb7fe4a	-0.022460122
106	0xbe809665	-0.25114742
107	0xbd0f532f	-0.03499144
108	0x3d81db8c	0.06340703
109	0xbd499f36	-0.0492241
110	0xbcd433a4	-0.02590353
111	0xbc91eeb2	-0.017814014
112	0x3d999de6	0.0750082
113	0xbca48ef6	-0.0200877
114	0x3c970289	0.018433826
115	0x3dc7dc50	0.09758818
116	0xbd1bb3ae	-0.038013153
117	0xbde53aa3	-0.11192825
118	0x3cff69b2	0.03117833
119	0xbd0fc939	-0.03510401
120	0xbd37d9de	-0.04488551
121	0x3dbc14a5	0.09183625
122	0xbd89c978	-0.0672788
123	0xbd3bd647	-0.045858648
124	0x3b8d9893	0.004321167
125	0x3e2fa3c0	0.1715231
126	0xbd5a3260	-0.053270698
127	0x3d606209	0.054780994
128	0x3da8a504	0.08234599
129	0xbd2f0835	-0.042732436
130	0xbcdd6e93	-0.027030265
131	0x3e001d9b	0.12511294
132	0x3deb35b0	0.114848495
133	0xbbf135ed	-0.007361165
134	0xbdb2e3cc	-0.08734855
135	0xbce3d361	-0.027810754
136	0x3de28658	0.1106078
137	0x3e087a9b	0.1332802
138	0xbec972e1	-0.39345458
139	0x3deba99d	0.115069605
140	0x3e2085b1	0.15675999
141	0xbd1923a5	-0.03738751
142	0xbe60e7be	-0.21963403
143	0xbd94ebd1	-0.07271541
144	0x3dfcec77	0.123497896
145	0xbe41d34f	-0.18928264
146	0x3dba7814	0.09104934
147	0xbc35c297	-0.011093757
148	0x3dc6e024	0.0971072
149	0x3e759b89	0.23985113
150	0x3d5c9708	0.053854972
151	0xbcc4c14d	-0.024017954
152	0x3cce9e74	0.02522204
153	0xbe8cc258	-0.27492023
154	0x3c0dabe9	0.008646944
155	0x3d20e3cb	0.03927974
156	0x3dac6e9a	0.08419533
157	0xbd5a2b41	-0.053263906
158	0x3ad861c0	0.0016508624
159	0x3d008151	0.031373326
160	0xbd0f7de6	-0.035032175
161	0x3e2e7463	0.17036586
162	0x3daf77a6	0.08567743
163	0xbb183c2d	-0.0023229227
164	0x3d1da312	0.038485594
165	0x3e28fbef	0.16502355
166	0xbb9289ab	-0.0044719777
167	0x3c8593e6	0.016305875
168	0x3d5da022	0.054107793
169	0xbd5e3ad0	-0.054255307
170	0xbcc9533a	-0.024575818
171	0xbd8d92bd	-0.06912754
172	0x3d7b76f0	0.061392725
173	0x3cba3c44	0.022733815
174	0xbb457463	-0.0030129186
175	0xbd071cdb	-0.032986503
176	0x3dd88c4d	0.10573635
177	0x3dabc6d8	0.08387536
178	0x3d76add4	0.06022437
179	0xbe796be0	-0.24357557
180	0x3e4ca227	0.19983731
181	0x3d1ee127	0.03878894
182	0xbe5d5f24	-0.21618325
183	0xb9b6e622	-0.00034885207
184	0x3d0660e5	0.03280725
185	0x3e160ca9	0.14653267
186	0x3d477726	0.048697613
187	0x3d04dc37	0.032436576
188	0x3be1b10c	0.0068875607
189	0x3e3e662c	0.18593663
190	0x3d69762f	0.056997474
191	0xbd658b1b	-0.056040864
192	0xbdc09620	-0.09403634
193	0xbd618efa	-0.055067994
194	0x3d9dca9b	0.077046596
195	0x3db362ef	0.087591045
196	0xbdc36b57	-0.09541958
197	0x3d2c6b1c	0.042094335
198	0x3b8e71f5	0.004347081
199	0x3ceb5e83	0.02873159
200	0x3d7bc39d	0.06146585
201	0x3dd61ea6	0.104550645
202	0xbdcd4664	-0.100231916
203	0xbe104b15	-0.14091142
204	0x3c17ebc8	0.009272523
205	0x3ce592b0	0.028024048
206	0x3d59ac4c	0.05314283
207	0xbd6d34d5	-0.057911713
208	0x3aca68e0	0.0015442632
209	0xbe3ff385	-0.18745239
210	0xbcd78a53	-0.026311075
211	0xbdbce3b7	-0.09223121
212	0xbdff7969	-0.12474329
213	0x3e122c0b	0.14274614
214	0xbbed45db	-0.0072409934
215	0x3da46c82	0.08028509
216	0x3c1144ce	0.008866502
217	0xbe4d55ff	-0.20052336
218	0x3c599d38	0.013282113
219	0x3dad77c4	0.08470109
220	0x3da66e52	0.08126511
221	0xbdca3ddd	-0.09875081
222	0xbded7651	-0.11594833
223	0x3d6d098d	0.057870436
224	0x3d1c9149	0.038224492
225	0x3d8531ce	0.0650364
226	0xbc0824ec	-0.008309584
227	0x3da37a36	0.07982294
228	0x3d18ada6	0.03727498
229	0xbd5c3cf1	-0.053769056
230	0x3dbf826a	0.093510464
231	0xbd0c6085	-0.034271736
232	0x3df8a8b5	0.12141553
233	0x3cac17e7	0.021007491
234	0x3dfa4253	0.122196816
235	0x3ce5846a	0.028017242
236	0xbc195ae0	-0.009360045
237	0xbdb507c7	-0.08839374
238	0xbdea842e	-0.114509925
239	0xbd77add8	-0.060468525
240	0x3d89b55e	0.06724046
241	0x3d62f5b1	0.05541009
242	0xbcf6754e	-0.030085232
243	0x3d6b555d	0.057454456
244	0xbcf18ffa	-0.029487599
245	0xbe542b07	-0.20719539
246	0xbddccf6d	-0.10781751
247	0x3dedec6c	0.116173595
248	0x3e0ceb08	0.13761532
249	0x3dbf8228	0.09350997
250	0xbe871c71	-0.26388887
251	0x3c8fc726	0.017551016
252	0xbd3c36a9	-0.045950565
253	0xbd9dd966	-0.07707481
254	0xbcb91e89	-0.022597568
255	0x3db5eae6	0.08882694

numerical_net.0.bias f4 [64]
0	0x3d922992	0.07136835
1	0xbe4fca6e	-0.20292065
2	0x3d57977b	0.052634697
3	0xbe4b6aa6	-0.19864902
4	0xbd532d69	-0.05155698
5	0xbdc73dcf	-0.09728586
6	0xbe820eea	-0.25402004
7	0xbe440233	-0.19141464
8	0xbea5471d	-0.32280818
9	0xbe153b3b	-0.14573376
10	0xbe5e6de7	-0.21721612
11	0xbe44aba9	-0.19206108
12	0xbd81d352	-0.06339134
13	0xbd74d8dc	-0.059777126
14	0xbc0efb27	-0.008726872
15	0xbc2f4f2f	-0.010700031
16	0xbe10a31f	-0.14124726
17	0xbeaa1583	-0.33219537
18	0xbd232508	-0.039830238
19	0xbe22c78e	-0.15896437
20	0xbe64a26c	-0.22327584
21	0xbe21ad1a	-0.1578869
22	0x3ab7770c	0.0013997271
23	0xbecee050	-0.40405512
24	0xbec20c37	-0.37899944
25	0xbd57feaa	-0.0527331
26	0xbcb7c546	-0.022432934
27	0xbd38d15a	-0.04512153
28	0x3c8e0ba1	0.01733953
29	0xbd7cf7bf	-0.061759707
30	0xbed3deb8	-0.41380858
31	0xbe053dff	-0.13011931
32	0x3d8d820a	0.069095686
33	0xbe0755c4	-0.1321631
34	0xbe9c64c3	-0.30545625
35	0xbe1de9b1	-0.15421177
36	0xbedb5bcd	-0.42843476
37	0xbe648025	-0.22314508
38	0xbe2336a9	-0.1593882
39	0xbebbd65f	-0.3668699
40	0xbd47f8b8	-0.04882118
41	0xbd949ef9	-0.07256884
42	0xbcf2a9fc	-0.02962207
43	0x3d26552e	0.040608577
44	0x3d378a86	0.04480984
45	0xbdb10401	-0.08643342
46	0xbdb68edc	-0.08913967
47	0xbd7436b0	-0.059622467
48	0xbe256085	-0.161501
49	0xbde8b61e	-0.11362861
50	0xbeaec2c4	-0.3413297
51	0xbd3275be	-0.04356932
52	0xbded204e	-0.11578427
53	0xbddc14e1	-0.1074617
54	0xbe86edc4	-0.26353276
55	0xbda7b37e	-0.08188532
56	0xbe09753c	-0.13423628
57	0xbe4ad984	-0.19809538
58	0x3d09e705	0.033667583
59	0xbe392b4d	-0.18082924
60	0xbbf29f63	-0.0074042543
61	0xbd01e658	-0.031713814
62	0xbc9139d0	-0.017727762
63	0xbd9c9b06	-0.07646756

numerical_net.2.weight f4 [64]
0	0x3f52ccec	0.82343936
1	0x3f483319	0.7820297
2	0x3f56f234	0.8396332
3	0x3f569fd4	0.8383763
4	0x3f4f8958	0.81068945
5	0x3f699b12	0.91252244
6	0x3f57ec9d	0.8434542
7	0x3f634729	0.88780457
8	0x3f5ddeec	0.86668277
9	0x3f563cde	0.83686626
10	0x3f5d5138	0.86452055
11	0x3f5a69fa	0.8531796
12	0x3f570dbe	0.84005344
13	0x3f4af6ed	0.7928303
14	0x3f567502	0.8377229
15	0x3f45007c	0.76953864
16	0x3f56ab5e	0.83855236
17	0x3f4a7169	0.790793
18	0x3f550b9d	0.83220845
19	0x3f4fab60	0.8112087
20	0x3f538305	0.82621795
21	0x3f5ffaaf	0.8749189
22	0x3f5a781a	0.8533951
23	0x3f4b4100	0.7939606
24	0x3f5b257f	0.8560409
25	0x3f4d5117	0.8020186
26	0x3f4c42f9	0.7978969
27	0x3f5b6bdd	0.8571146
28	0x3f4f0a3e	0.80875003
29	0x3f4e38eb	0.805556
30	0x3f63ae95	0.88938266
31	0x3f496222	0.78665364
32	0x3f523ef0	0.82127285
33	0x3f53b312	0.82695115
34	0x3f44202e	0.766116
35	0x3f4e57d3	0.8060276
36	0x3f4c14aa	0.7971903
37	0x3f5a5e13	0.85299796
38	0x3f5394a5	0.8264869
39	0x3f4cd4ad	0.8001202
40	0x3f6105ce	0.8789948
41	0x3f5c3ae9	0.8602739
42	0x3f62d60d	0.88607866
43	0x3f4d8016	0.8027357
44	0x3f52e39c	0.82378554
45	0x3f4397f9	0.76403767
46	0x3f530bf7	0.8244013
47	0x3f589e98	0.84616995
48	0x3f591d02	0.8480989
49	0x3f550a74	0.83219075
50	0x3f60dd0d	0.87837297
51	0x3f54475f	0.82921404
52	0x3f463879	0.7742992
53	0x3f57b737	0.8426394
54	0x3f5a0ccd	0.8517578
55	0x3f55d1d3	0.8352329
56	0x3f4baafa	0.79557765
57	0x3f57591c	0.84120345
58	0x3f47f29b	0.7810456
59	0x3f5bf10a	0.8591467
60	0x3f54de32	0.83151543
61	0x3f57d5f9	0.8431087
62	0x3f45e91b	0.77308816
63	0x3f49017d	0.78517896

numerical_net.2.bias f4 [64]
0	0x3d5f61fe	0.054536812
1	0x3e898fc3	0.26867494
2	0x3db889bf	0.09010648
3	0x3e02cd86	0.12773713
4	0x3e162f3d	0.14666457
5	0xbd2e6fef	-0.042587217
6	0x3d90f1fd	0.070774056
7	0x3e4c9165	0.19977339
8	0x3dc71af3	0.09721937
9	0x3dc93c41	0.09825946
10	0x3e3b23ad	0.18275328
11	0x3d66276a	0.056189932
12	0x3e5bb43c	0.21455473
13	0x3db7d213	0.08975615
14	0x3dc72b81	0.097250946
15	0x3e2ff642	0.17183784
16	0x3e04a1be	0.12952325
17	0x3e4d406e	0.20044109
18	0x3dc9a893	0.09846606
19	0x3dd89c86	0.105767295
20	0x3ea3e20a	0.32008392
21	0x3e9b3f68	0.30321813
22	0xbc7bafea	-0.015361765
23	0xbdaa8326	-0.08325796
24	0x3e34de2a	0.17662874
25	0x3e435773	0.19076328
26	0x3d80b909	0.06285293
27	0x3de907d3	0.113784455
28	0x3d8d175b	0.0688922
29	0x3d955dff	0.07293319
30	0x3df50dfe	0.119655594
31	0xbc6a9d24	-0.014319692
32	0x3e71e5b5	0.23622783
33	0x3da5bb0b	0.08092316
34	0x3db5cc0b	0.08876809
35	0x3d57c177	0.052674737
36	0x3e0e0d89	0.13872351
37	0xbceca9a2	-0.028889481
38	0x3e207f64	0.15673596
39	0x3e0a4493	0.13502721
40	0x3d84e1ce	0.06488381
41	0x3dc442f5	0.095830835
42	0x3e16fe8e	0.14745542
43	0x3eafc62a	0.34330875
44	0x3d7a9759	0.061179493
45	0x3d63f3b1	0.055652324
46	0x3db8cb03	0.090230964
47	0x3e55526c	0.20832223
48	0x3db36ff6	0.08761589
49	0x3db383b6	0.08765356
50	0x3e5d9434	0.21638566
51	0x3c0d2adc	0.0086161755
52	0x3da17ceb	0.07885154
53	0x3bbb748f	0.005720682
54	0x3e694cd6	0.22783217
55	0x3e40ef45	0.18841274
56	0x3e14f123	0.14545111
57	0x3e57d35d	0.21076722
58	0x3e39a751	0.18130232
59	0x3d61f8b9	0.05516884
60	0x3e59f607	0.21285258
61	0x3e87e90d	0.2654499
62	0x3c2ad02a	0.010425607
63	0x3d811826	0.06303434

numerical_net.2.running_mean f4 [64]
0	0x3e5c29e3	0.21500354
1	0x3e0b2631	0.13588788
2	0x3e4de28f	0.20105956
3	0x3e0bce63	0.13652949
4	0x3e105f54	0.14098865
5	0x3e36678e	0.1781294
6	0x3ddaa078	0.10675138
7	0x3dc65b2c	0.096853584
8	0x3df9164b	0.12162455
9	0x3e2c5ca3	0.16832213
10	0x3d9b905c	0.07595894
11	0x3df1bde8	0.118038
12	0x3e2a38c3	0.16623215
13	0x3e46c427	0.19410764
14	0x3e73bc3e	0.23802277
15	0x3e728d8c	0.23686808
16	0x3e333db5	0.17504008
17	0x3d84bab6	0.06480925
18	0x3e402825	0.18765314
19	0x3e31d721	0.17367221
20	0x3dc3ba69	0.09557039
21	0x3e1e73bd	0.15473838
22	0x3e2b5af0	0.16733909
23	0x3d9aa826	0.07551603
24	0x3df31623	0.118694566
25	0x3e5e78d9	0.21725787
26	0x3e3fbfb3	0.18725471
27	0x3e42aace	0.1901047
28	0x3e876cdb	0.26450238
29	0x3e3f9dd1	0.18712546
30	0x3da1295f	0.07869219
31	0x3e055e6d	0.13024302
32	0x3e6dbe8d	0.2321722
33	0x3e8292be	0.2550258
34	0x3db511f8	0.08841318
35	0x3e3f8d90	0.18706346
36	0x3dbd3133	0.092379
37	0x3de59f0c	0.112119764
38	0x3e0e9ab4	0.13926202
39	0x3dba336b	0.090918384
40	0x3e41cbdd	0.18925424
41	0x3e671621	0.22567035
42	0x3e0b542f	0.13606332
43	0x3e1a4c6c	0.15068215
44	0x3e56cb1b	0.20975916
45	0x3e1a0d23	0.15044074
46	0x3e0e77cc	0.13912886
47	0x3e61855b	0.22023527
48	0x3e15d239	0.14630975
49	0x3e148cf8	0.145069
50	0x3d895c0f	0.06707012
51	0x3e574b8a	0.2102491
52	0x3e4f77bc	0.20260519
53	0x3e0f7c64	0.14012295
54	0x3d9fa605	0.077953376
55	0x3e01e2c3	0.12684159
56	0x3e899208	0.26869226
57	0x3e0059f6	0.12534317
58	0x3e94e657	0.29081985
59	0x3e1d942e	0.15388557
60	0x3e367d56	0.1782125
61	0x3e0aeecc	0.13567656
62	0x3e88325e	0.26600927
63	0x3e23f623	0.16011862

numerical_net.2.running_var f4 [64]
0	0x3d97827f	0.07397937
1	0x3d732eee	0.059370928
2	0x3d832b64	0.064047605
3	0x3d7d2203	0.061800014
4	0x3d614fef	0.05500787
5	0x3e2a9a1a	0.16660348
6	0x3d6cd2c2	0.05781818
7	0x3d3aca3b	0.04560302
8	0x3d777135	0.060410697
9	0x3dc6793c	0.09691092
10	0x3d17a61b	0.037023645
11	0x3d4650d7	0.04841694
12	0x3d96aa69	0.07356722
13	0x3dad911d	0.08474944
14	0x3df44c49	0.11928613
15	0x3e074cd6	0.13212904
16	0x3dd1c0eb	0.10241874
17	0x3ce7fec5	0.028319726
18	0x3db0211f	0.08600067
19	0x3da923fe	0.08258818
20	0x3d38d5e0	0.045125842
21	0x3d915bf6	0.07097618
22	0x3d620775	0.055182893
23	0x3d1b77a0	0.03795588
24	0x3d8fdee3	0.07024934
25	0x3da6daf7	0.08147233
26	0x3d8e78ef	0.0695666
27	0x3db3d362	0.087805524
28	0x3e246ba1	0.16056682
29	0x3d9c4ea6	0.076321885
30	0x3d07ae3b	0.033125143
31	0x3d48ba21	0.04900563
32	0x3db45e0a	0.08806999
33	0x3e19bf42	0.15014365
34	0x3d3f4924	0.04670061
35	0x3db82ff7	0.089935236
36	0x3d3b266e	0.045690946
37	0x3d5e8081	0.05432177
38	0x3d833633	0.06406822
39	0x3d48498e	0.048898272
40	0x3dcb1728	0.09916526
41	0x3dc719b6	0.09721701
42	0x3d5b4114	0.05352886
43	0x3d40ae1a	0.047041036
44	0x3daa2647	0.08308082
45	0x3d5afbc1	0.053462747
46	0x3d4fc228	0.05072227
47	0x3dcf4608	0.10120779
48	0x3d8f2b0d	0.06990633
49	0x3d844939	0.064592786
50	0x3cf9d929	0.030499058
51	0x3dabc511	0.08387197
52	0x3db963e7	0.09052258
53	0x3d552fdd	0.0520476
54	0x3d3086f3	0.043097448
55	0x3d31141f	0.04323208
56	0x3e272bdc	0.16325325
57	0x3d6f5221	0.058427934
58	0x3e2ca3b1	0.16859318
59	0x3d9991d7	0.0749852
60	0x3d919f30	0.07110441
61	0x3d482946	0.048867486
62	0x3e020ec8	0.12700951
63	0x3d840663	0.06446531

title_net.0.weight f4 [128, 200]
0	0x3d4b16cc	0.049582288
1	0xbcc50e3d	-0.02405464
2	0xbdefdaf6	-0.11711685
3	0xbd04c615	-0.03241547
4	0xbe1a9225	-0.15094812
5	0xbd7acd11	-0.061230723
6	0xbdc53939	-0.09630055
7	0x3daad200	0.083408356
8	0x3d063b1c	0.032771215
9	0x3d2ba6f3	0.041907262
10	0x3dc1d2ee	0.0946406
11	0xbc4f9370	-0.012669429
12	0x3d206f40	0.039168596
13	0x3d1a9377	0.03773829
14	0xbd61cc44	-0.055126444
15	0xbd875083	-0.06607153
16	0xbb875745	-0.0041302764
17	0x3c7f43af	0.015580102
18	0x3da29f56	0.07940547
19	0x3d9b8188	0.075930655
20	0xbe0cb968	-0.13742602
21	0xbd63a212	-0.055574484
22	0xbd344a50	-0.044016182
23	0xbc8f7e5f	-0.017516313
24	0xbcd71b5e	-0.026258167
25	0x3bd9a957	0.0066425013
26	0x3cc8d03b	0.024513355
27	0xbcfd4e0f	-0.03092101
28	0xbd56a7bd	-0.05240606
29	0x3c429847	0.011877126
30	0xbd414af1	-0.04719061
31	0x3d094cf4	0.033520654
32	0xbde05390	-0.10953438
33	0x3d4f499f	0.05060732
34	0x3d64981d	0.05580913
35	0x3ceef27b	0.029168358
36	0xbd5f1d6a	-0.05447141
37	0xbcf71fca	-0.030166525
38	0x3cfcff1b	0.030883363
39	0x3d1d83d9	0.038455818
40	0xbd1a3c6d	-0.037655283
41	0xbdd7a4ff	-0.105295174
42	0xbdded46a	-0.108803585
43	0x3db5b965	0.08873252
44	0x3d3c7ffc	0.046020493
45	0xbd9df998	-0.07713622
46	0xbd651e98	-0.05593738
47	0xbd82c278	-0.06384748
48	0x3c8e8068	0.017395213
49	0xbda2a004	-0.07940677
50	0x3e08df7e	0.13366506
51	0xbd518b13	-0.051158022
52	0xbb831b3e	-0.0040010503
53	0x3dcd9697	0.10038488
54	0xbdb6cc17	-0.08925646
55	0xbc75e28c	-0.015007626
56	0x3d9228f7	0.0713672
57	0xbd7ac1ee	-0.061220102
58	0x3c9dfce5	0.019285629
59	0x3c2d1119	0.010563158
60	0xbcbb0ec3	-0.022834187
61	0x3d759921	0.05996049
62	0x3d7aba17	0.061212625
63	0x3c929209	0.0178919
64	0xbd01bb0b	-0.03167252
65	0x3ac30ec1	0.0014881716
66	0x3d63b1c2	0.055589445
67	0x3dbcd9b8	0.09221214
68	0x3d5f1855	0.054466564
69	0x3da7ac91	0.08187211
70	0x3d40c9c8	0.047067434
71	0x3c4250ee	0.011860115
72	0x3ca5b84f	0.020229487
73	0xbd30db43	-0.043177854
74	0x3c9fc68d	0.019503856
75	0x3d97b5db	0.07407733
76	0x3d822c71	0.06356133
77	0xbcdf760c	-0.027277969
78	0xbe23a41c	-0.15980572
79	0x3d0f127b	0.034929734
80	0x3cee6660	0.02910155
81	0x3d6582cc	0.05603294
82	0x3c8a7801	0.016902925
83	0xbe198368	-0.14991534
84	0x3d12437a	0.035708882
85	0xbb3e2d75	-0.0029018794
86	0xbcf1ac25	-0.02950103
87	0xbd850ebb	-0.0649695
88	0xbd66cfa6	-0.056350373
89	0x3da45618	0.080242336
90	0xbd8c2fc1	-0.06845046
91	0xbd904c3c	-0.070457906
92	0xbcf6e72c	-0.030139528
93	0xbd10748b	-0.035267394
94	0xbd1e00ad	-0.038574863
95	0xbdcfe8aa	-0.10151799
96	0xbdb61759	-0.08891172
97	0xbd4ff058	-0.05076632
98	0x3c270e57	0.01019629
99	0xbdc20e6b	-0.09475406
100	0x3dc1d023	0.09463527
101	0x3de5703d	0.112030484
102	0x3db193ac	0.08670744
103	0x3c4b6331	0.012413786
104	0x3d8476cb	0.064679705
105	0x3b304c81	0.0026901069
106	0x3daa14ab	0.08304723
107	0x3d86d889	0.065842696
108	0xbd56c052	-0.052429505
109	0x3d8c0c04	0.06838229
110	0xbca1dc64	-0.01975841
111	0x3de89940	0.11357355
112	0xbddc96dd	-0.107709624
113	0xbda189c1	-0.078876026
114	0xbc2886c2	-0.010286035
115	0xbd0e9c09	-0.034816775
116	0x3d6b9d86	0.057523273
117	0xbce40c4d	-0.027837897
118	0x3cab9999	0.020947265
119	0xba7d54eb	-0.0009663838
120	0xbdb9edee	-0.090785846
121	0x3dabdc71	0.08391655
122	0x3b8da911	0.004323133
123	0xbc868bbe	-0.016424056
124	0x3dece04a	0.11566217
125	0xbd5911c1	-0.052995447
126	0x3c21d2c7	0.009876913
127	0xbe33e7c6	-0.17568883
128	0x3e00b18e	0.12567732
129	0x3c09a3f9	0.0084009105
130	0x3da86bf4	0.082237154
131	0x3c531f21	0.01288584
132	0xbcb0053f	-0.021486877
133	0x3c461201	0.012089253
134	0x3d718411	0.05896384
135	0xbdeb9d85	-0.11504654
136	0xbd5f3c49	-0.05450085
137	0xbde99bd0	-0.11406672
138	0xbcc46e1e	-0.02397829
139	0x3cd30f71	0.025764199
140	0x3dacae49	0.0843168
141	0xbdaab3fd	-0.08335111
142	0xbcbe2ee4	-0.023215719
143	0x3d04c5dd	0.03241526
144	0x3d24e484	0.040256992
145	0x3a8f0a66	0.0010913133
146	0xbe0c8220	-0.13721514
147	0x3d84883e	0.06471299
148	0xbdda0b8e	-0.10646735
149	0x3d0337bc	0.032035574
150	0x3dc9c091	0.09851182
151	0x3d424c9f	0.047436353
152	0xbc8710be	-0.016487475
153	0xbdf83b85	-0.121207274
154	0xbcb13ada	-0.021634508
155	0x3d9cf733	0.07664337
156	0xbdebf0d7	-0.11520546
157	0x3da998ad	0.08281074
158	0x3d7caf28	0.06169048
159	0x3d0adc4b	0.033901494
160	0x3be3cae1	0.0069516753
161	0xbda18649	-0.07886941
162	0x3dc8643d	0.09784744
163	0x3dd23e72	0.10265817
164	0xbd2ecf01	-0.042677883
165	0xbcfe8575	-0.031069497
166	0xbc930bc2	-0.017949942
167	0x3cbc321e	0.022973116
168	0xbd84a496	-0.06476705
169	0xbd82b07a	-0.063813165
170	0x3d249ab7	0.04018661
171	0xbc9e5161	-0.019325914
172	0x3c9d0ce7	0.019171191
173	0xbd8f9c83	-0.07012274
174	0xbdc3e3d4	-0.09564939
175	0xbddcd8e0	-0.10783553
176	0xbd222cbb	-0.03959344
177	0xbda72f4e	-0.081633195
178	0x3d42509e	0.047440164
179	0xbce68a19	-0.028142022
180	0x3d97bef6	0.0740947
181	0x3df5e92f	0.12007367
182	0xbcc49e4d	-0.024001265
183	0x3dab00f6	0.08349793
184	0x3d180ac9	0.03711966
185	0x3e0989e8	0.13431513
186	0x3aa86334	0.0012846948
187	0xbd63d6a5	-0.055624623
188	0xbd979603	-0.07401659
189	0x3cf4a149	0.029862063
190	0x3d76a867	0.060219195
191	0xbd8536f4	-0.06504622
192	0x3e13a752	0.14419296
193	0x3ca09461	0.019602003
194	0x3c8b4299	0.01699953
195	0x3d12599a	0.035729982
196	0xbcc68d35	-0.024237255
197	0xbd112e0a	-0.035444297
198	0xbd3de7cc	-0.046363637
199	0x3c399c4e	0.01132877
200	0x3ae3f82e	0.0017392689
201	0x3d87b4b3	0.066262625
202	0xbce1ec07	-0.027578367
203	0xbae91107	-0.0017781564
204	0xbd7150fa	-0.058915116
205	0x3c908ca9	0.017645197
206	0xba482e6f	-0.00076363137
207	0xbd9c4aee	-0.07631479
208	0xbda8aff3	-0.08236685
209	0xbbcac238	-0.0061877035
210	0xbdd5f698	-0.10447425
211	0xbd0a0dc3	-0.03370453
212	0x3d9d4faf	0.07681214
213	0xbc968d1f	-0.018377839
214	0x3cb0bbb5	0.02157388
215	0xbd646f02	-0.055769928
216	0x3dc7e949	0.097612925
217	0xbd442574	-0.04788728
218	0x3d827b1a	0.06371136
219	0xbde81e42	-0.11333896
220	0x3dc2a0d2	0.0950333
221	0xbb444b86	-0.0029952242
222	0x3dfed203	0.124424
223	0xbb8d0a39	-0.004304197
224	0x3daab2d5	0.08334891
225	0xbc88017b	-0.016602268
226	0x3cac7bae	0.021055069
227	0xbd434736	-0.047675334
228	0x3c6e1275	0.014530768
229	0xbdc68b99	-0.09694595
230	0x3c18a950	0.009317711
231	0x3e0ecbbe	0.13944909
232	0xbd11a93e	-0.035561793
233	0x3cd7d4f1	0.026346656
234	0x3d86e006	0.06585698
235	0xbd1404c7	-0.03613737
236	0x3d608fdb	0.05482469
237	0xbca6b231	-0.02034864
238	0x3da5ddbc	0.08098933
239	0x3dd10980	0.1020689
240	0xbd057564	-0.032582656
241	0xbd71153d	-0.058858145
242	0xbb9948e9	-0.004677881
243	0xbcb88a47	-0.022526873
244	0xbd07e55a	-0.03317771
245	0xbda05b4f	-0.07829916
246	0xbd80f7d0	-0.062972665
247	0xbe09960b	-0.13436143
248	0xbc2b0ee0	-0.010440558
249	0xbcc84d6e	-0.024450984
250	0x3d3da9f8	0.046304673
251	0x3d4756b7	0.048666682
252	0xbbf8eb4d	-0.0075964094
253	0xbdbb4a83	-0.09145071
254	0x3d0f973d	0.03505634
255	0xba06d18f	-0.0005142921

title_net.0.bias f4 [128]
0	0xb654cf00	-3.1710952e-06
1	0xbd4b292d	-0.049599815
2	0xbc4ba974	-0.0124305375
3	0xbdf2d78e	-0.1185752
4	0xbd449443	-0.047992956
5	0xbdd2c0a8	-0.102906525
6	0xbda6cc52	-0.0814444
7	0xbddb5af5	-0.10710708
8	0xbde90ecd	-0.11379776
9	0xbdf80944	-0.12111142
10	0xbd87fbeb	-0.066398464
11	0xbd82d1e7	-0.06387692
12	0xbdc3e7c3	-0.095656894
13	0xbd444c42	-0.047924288
14	0x3cda39c9	0.026638882
15	0xbd58815b	-0.052857738
16	0xbdd08c59	-0.10183019
17	0xbe273875	-0.1633013
18	0xbdca898c	-0.09889516
19	0x3c38b3c7	0.011273331
20	0xbd85a276	-0.065251276
21	0xbdf4eb67	-0.11958962
22	0xbe042fd6	-0.12908873
23	0x3cc69a26	0.024243426
24	0xbda84990	-0.08217156
25	0xbd6bd971	-0.057580415
26	0x3cd56cc5	0.026052842
27	0x3d078dd8	0.033094257
28	0x3b7476bc	0.0037302217
29	0x3c49b82a	0.012311975
30	0x3d06d50e	0.03291803
31	0xbd2d9137	-0.042374816
32	0xbd4f3818	-0.050590605
33	0xbbee0ccc	-0.007264709
34	0xbdb4241d	-0.087959506
35	0x3ca88faf	0.020576326
36	0xbd30f80e	-0.043205313
37	0xbdcc242d	-0.099678375
38	0xbdd819c6	-0.10551791
39	0xbdde7870	-0.108628154
40	0xbd84e274	-0.06488505
41	0xbd9e09ea	-0.07716735
42	0x3d37cb38	0.04487154
43	0xbd506fbc	-0.05088781
44	0xbd9d71de	-0.07687734
45	0xbccfe687	-0.025378479
46	0x3d85ca94	0.06532779
47	0xbd2f1ca8	-0.042751938
48	0x3d45e8bb	0.048317652
49	0x3bd96fff	0.0066356654
50	0xbc8d6a36	-0.01726256
51	0x3cbaef17	0.022819085
52	0xbdf3d00d	-0.11904917
53	0x3d99d5ec	0.075115055
54	0xbdbac757	-0.09120052
55	0xbd83d38b	-0.06436833
56	0xbda9aa7f	-0.08284473
57	0xbd8d43e4	-0.06897715
58	0xbd8c01d7	-0.068362884
59	0xbe4032de	-0.18769404
60	0x3c2ea5e5	0.0106596695
61	0xbd6b93b6	-0.057513915
62	0xbd9bc3e9	-0.07605726
63	0xbd895760	-0.067061186
64	0xbdbf50eb	-0.09341606
65	0xbc930bef	-0.017950026
66	0xbd873f67	-0.0660389
67	0x3c8d9414	0.017282523
68	0x3abcd10d	0.0014405564
69	0x3b6fd149	0.003659325
70	0xbb1fd1fc	-0.0024386635
71	0xbcede652	-0.02904049
72	0xbe09d3a4	-0.1345964
73	0xbcda8fce	-0.0266799
74	0xbe2acf80	-0.16680717
75	0xbdb72702	-0.08942987
76	0xbda177b8	-0.07884163
77	0xbd71efc1	-0.059066538
78	0xbd99b465	-0.07505111
79	0x3c5cf57f	0.013486265
80	0xbd27583d	-0.040855635
81	0xbe3031e6	-0.17206535
82	0xbcb3fbc9	-0.021970646
83	0xbde225a1	-0.110423334
84	0xbddc9e72	-0.107724085
85	0xbd7159bf	-0.05892348
86	0xbe1d6dce	-0.15373918
87	0xbd8d85a1	-0.06910253
88	0xbcbe906e	-0.023262229
89	0xbd815d4f	-0.06316625
90	0xbe1167e3	-0.14199786
91	0xbd373eba	-0.044737555
92	0xbde145eb	-0.10999664
93	0xbd8d4115	-0.06897179
94	0xbc571dd8	-0.013129674
95	0x3dbdb33d	0.092627026
96	0xbd7b8b2f	-0.061412033
97	0x3c734217	0.0148473
98	0xbc821733	-0.015880203
99	0xbde6f87f	-0.112778656
100	0xbd75af7c	-0.059981808
101	0x3c779fab	0.015113751
102	0xbdf92edd	-0.121671416
103	0xbbae7594	-0.005324075
104	0x3c41e4b8	0.011834316
105	0xbd6c78f2	-0.05773253
106	0xbd8c84b4	-0.068612486
107	0xbdd5df95	-0.104430355
108	0xbdd92f17	-0.10604685
109	0xbd954a27	-0.07289534
110	0x3c7ee085	0.015556459
111	0xbd3dfac2	-0.04638172
112	0xbd8d797e	-0.069079384
113	0x3c6b724e	0.014370514
114	0xbd6d9516	-0.058003508
115	0x3b143ed1	0.002262045
116	0xbdcde1cb	-0.10052832
117	0xbd8eb637	-0.069683485
118	0xbd0eb8b4	-0.034844115
119	0xbd95a0e5	-0.07306079
120	0xbdd6cf65	-0.10488776
121	0xbe059b40	-0.13047504
122	0xbdb1b0d8	-0.086763084
123	0xbd883738	-0.06651157
124	0xbd460d64	-0.048352614
125	0x3d548793	0.051887106
126	0x3cbc6688	0.02299811
127	0xbdbb8520	-0.09156251

title_net.2.weight f4 [128]
0	0x3f727416	0.94708383
1	0x3f78c190	0.9717035
2	0x3f69032f	0.9102048
3	0x3f64c880	0.8936844
4	0x3f66d409	0.9016729
5	0x3f80bbf2	1.0057356
6	0x3f781087	0.9690022
7	0x3f723083	0.94605273
8	0x3f78d4a4	0.97199464
9	0x3f85a3fc	1.0440669
10	0x3f67c4ae	0.90534484
11	0x3f65cfbf	0.8977012
12	0x3f818899	1.0119811
13	0x3f72b350	0.9480486
14	0x3f78b566	0.9715179
15	0x3f6dbb67	0.9286408
16	0x3f763628	0.96176386
17	0x3f894dad	1.072683
18	0x3f7145fe	0.94247425
19	0x3f876a10	1.0579243
20	0x3f60b16e	0.87770736
21	0x3f77ed8b	0.96846837
22	0x3f782278	0.96927595
23	0x3f77ead4	0.96842694
24	0x3f6c0cf2	0.9220725
25	0x3f7214c2	0.94562924
26	0x3f7a0bdd	0.9767435
27	0x3f8104f8	1.0079641
28	0x3f69dc4f	0.9135179
29	0x3f70b4d8	0.94025946
30	0x3f720841	0.94543844
31	0x3f6f5412	0.93487656
32	0x3f776862	0.9664365
33	0x3f78f60c	0.9725044
34	0x3f8b723e	1.0894239
35	0x3f61bfdc	0.8818338
36	0x3f7c3847	0.9852337
37	0x3f714c49	0.94257027
38	0x3f7b8201	0.98245245
39	0x3f7d9ffc	0.9907224
40	0x3f7b24c1	0.98102957
41	0x3f863285	1.0484167
42	0x3f6ff069	0.9372621
43	0x3f7e0dad	0.9923962
44	0x3f81f02b	1.0151418
45	0x3f705fd2	0.9389621
46	0x3f6d33cb	0.92657155
47	0x3f69d168	0.91335154
48	0x3f78d523	0.9720022
49	0x3f693dcc	0.9110992
50	0x3f73fe1e	0.9530963
51	0x3f6800f2	0.9062644
52	0x3f8c01c7	1.0938042
53	0x3f64e180	0.89406586
54	0x3f8512bc	1.0396342
55	0x3f844792	1.0334342
56	0x3f874183	1.0566868
57	0x3f788974	0.97084737
58	0x3f7747a1	0.9659367
59	0x3f763a9c	0.9618318
60	0x3f814eac	1.0102134
61	0x3f76abdc	0.96355987
62	0x3f7d412e	0.9892758
63	0x3f7f6255	0.9975942
64	0x3f6cb68d	0.9246605
65	0x3f6ceb88	0.9254689
66	0x3f70a041	0.9399453
67	0x3f68ce91	0.90940195
68	0x3f7592d8	0.9592719
69	0x3f756ee2	0.9587232
70	0x3f7c0653	0.9844715
71	0x3f6f77fe	0.9354247
72	0x3f7c8369	0.98638016
73	0x3f6fbaf7	0.9364466
74	0x3f7432d6	0.9539007
75	0x3f7b7867	0.98230594
76	0x3f8bf319	1.0933563
77	0x3f86e065	1.053723
78	0x3f69a42d	0.9126614
79	0x3f6fb824	0.9364035
80	0x3f746f7f	0.9548263
81	0x3f6decef	0.92939657
82	0x3f7abebd	0.97947294
83	0x3f82ac6a	1.0208867
84	0x3f6e078a	0.92980254
85	0x3f7402bc	0.9531667
86	0x3f7cdbf1	0.98773104
87	0x3f610f2d	0.8791378
88	0x3f67adeb	0.9049975
89	0x3f72b679	0.9480968
90	0x3f65a583	0.89705676
91	0x3f802a23	1.0012859
92	0x3f749683	0.9554216
93	0x3f7f335f	0.9968776
94	0x3f83c906	1.0295722
95	0x3f751ac4	0.95743966
96	0x3f77392c	0.9657161
97	0x3f8549d1	1.0413152
98	0x3f80e421	1.006962
99	0x3f8c77fd	1.0974118
100	0x3f866cdb	1.050197
101	0x3f739abc	0.9515798
102	0x3f8f1044	1.1176839
103	0x3f6ea9e2	0.9322797
104	0x3f7350df	0.95045274
105	0x3f6c5009	0.92309624
106	0x3f703de4	0.9384444
107	0x3f9fa90c	1.2473464
108	0x3f631813	0.8870861
109	0x3f834dd5	1.0258127
110	0x3f6ae345	0.91753036
111	0x3f6911cd	0.91042787
112	0x3f8529c9	1.0403377
113	0x3f81eedf	1.0151023
114	0x3f843c09	1.0330821
115	0x3f652f05	0.8952487
116	0x3f8ac5cb	1.0841612
117	0x3f72755a	0.94710314
118	0x3f7b6c8b	0.982125
119	0x3f6ade70	0.9174566
120	0x3f7d1886	0.98865545
121	0x3f8217b4	1.0163484
122	0x3f8bd457	1.0924176
123	0x3f8c0bd1	1.0941106
124	0x3f6ef5ba	0.933437
125	0x3f784901	0.96986395
126	0x3f85f37f	1.0464934
127	0x3f802a07	1.0012826

title_net.2.bias f4 [128]
0	0x3e087899	0.13327254
1	0x3d208da5	0.039197583
2	0x3d0d6b6e	0.03452628
3	0xbd5f5548	-0.05452469
4	0x3da470c7	0.08029323
5	0x3e463179	0.1935481
6	0x3d933520	0.07187867
7	0xbc45b15a	-0.01206621
8	0x3d9652b8	0.07339996
9	0x3dcf8681	0.101330765
10	0x3d6378f4	0.05553527
11	0x3d945540	0.07242823
12	0x3bbf76c3	0.005843015
13	0x3e55cbfb	0.20878594
14	0x3c9958cb	0.018719098
15	0x3e4b6219	0.1986164
16	0x3c296019	0.010337853
17	0x3e30d29a	0.17267838
18	0x3e249c30	0.16075206
19	0x3dfb4257	0.12268513
20	0x3e165a76	0.14682946
21	0x3e3d20bc	0.18469518
22	0x3d9e44ea	0.07727988
23	0x3e4d057d	0.20021625
24	0x3c31b5c8	0.010846563
25	0x3e0b944f	0.13630794
26	0x3e5bc2ce	0.21461031
27	0x3e3711ee	0.17877933
28	0xbe01dec1	-0.1268263
29	0x3d390569	0.045171175
30	0x3b061a6d	0.0020462528
31	0x3da37cf3	0.079828165
32	0x3d95864e	0.07301007
33	0x3e38e674	0.18056661
34	0x3e59f879	0.21286191
35	0xbcb71cb1	-0.022352548
36	0x3e09b201	0.1344681
37	0x3dd2aa85	0.1028643
38	0x3e424aa9	0.18973793
39	0x3c9defec	0.019279443
40	0x3de7bdff	0.11315536
41	0x3e5029f0	0.20328498
42	0x3b6b7316	0.003592675
43	0x3e429701	0.19002916
44	0x3e059347	0.13044463
45	0x3e238398	0.15968168
46	0x3da645ef	0.081188075
47	0x3e46424f	0.19361232
48	0x3dc70d1d	0.09719298
49	0xbcda7b3c	-0.02667009
50	0x3e12bbac	0.14329404
51	0x3e2d18ac	0.16903943
52	0x3e1c1beb	0.15245025
53	0x3db8f62e	0.0903133
54	0x3e4fd654	0.20296603
55	0x3e16f6a1	0.14742519
56	0x3e22ebaa	0.15910211
57	0x3e4751dc	0.1946482
58	0x3e18fde9	0.14940609
59	0x3da2417e	0.07922648
60	0xbc7f3ce7	-0.015578485
61	0x3ddc9912	0.10771383
62	0x3e0f6ecf	0.14007114
63	0x3d4c9a38	0.049951762
64	0x3e48504c	0.19561881
65	0x3de8abd8	0.113609016
66	0x3d4ff2bd	0.050768603
67	0x3e6008c6	0.21878347
68	0x3dee4dd7	0.116359405
69	0x3d956c79	0.0729608
70	0xbd2016ca	-0.039084233
71	0x3d45ef7d	0.048324097
72	0x3dc61d88	0.096736014
73	0x3e616840	0.22012424
74	0x3e72129f	0.23639916
75	0x3e0f4059	0.1398939
76	0x3e4f68a0	0.20254755
77	0x3e45bf66	0.19311294
78	0x3dd80ffc	0.10549924
79	0x3e145e4b	0.14489095
80	0x3e34c483	0.17653088
81	0x3e0ec9c7	0.1394416
82	0x3da5a821	0.08088709
83	0x3d9d2764	0.07673529
84	0x3d51a092	0.051178522
85	0x3df851ca	0.12124975
86	0x3e19bc88	0.15013325
87	0x3d265a87	0.040613677
88	0x3df1b952	0.11802925
89	0x3e39c37b	0.18140976
90	0x3da8dc9e	0.082452044
91	0x3e451db8	0.19249618
92	0x3e359003	0.17730717
93	0x3bf44830	0.0074548945
94	0x3d96a2c4	0.07355264
95	0x3df9bb11	0.12193883
96	0x3d856423	0.0651324
97	0x3e4c104a	0.19928089
98	0x3d745ba3	0.059657704
99	0x3e23dbf2	0.16001871
100	0x3e11ac51	0.1422589
101	0x3e13e545	0.14442928
102	0x3e4514da	0.19246235
103	0x3e44f6c8	0.19234765
104	0x3df8f2da	0.12155695
105	0x3dae6d63	0.085169576
106	0x3d44fbf3	0.04809184
107	0x3dd45133	0.1036705
108	0x3db707cb	0.08937033
109	0x3dbcc2a2	0.09216811
110	0x3e585d8f	0.2112944
111	0x3d113a6e	0.035456114
112	0x3ca1c002	0.019744877
113	0x3c8a8bdc	0.016912393
114	0x3da7c2ab	0.08191427
115	0x3de0f322	0.10983874
116	0x3e61e61a	0.22060433
117	0x3e17bc3e	0.14817902
118	0x3c0856e1	0.008321495
119	0x3d83cc8f	0.06435501
120	0x3e712638	0.23549736
121	0x3dba1834	0.09086648
122	0x3e6b47b8	0.22976577
123	0x3e47ed9b	0.19524233
124	0x3d9342c8	0.07190472
125	0x3d6787b9	0.05652592
126	0x3e1e0362	0.15430978
127	0x3dcf7c7a	0.10131164

title_net.2.running_mean f4 [128]
0	0x3cce4aa0	0.025182068
1	0x3c0aad93	0.008464235
2	0x3e0ba3a3	0.13636641
3	0x3caa491f	0.02078682
4	0x3e3a6b2c	0.18204945
5	0x3bdc69b9	0.0067264703
6	0x3d3a6da2	0.04551471
7	0x3d376652	0.044775315
8	0x3c56b4b6	0.013104608
9	0x3c3d5836	0.011556676
10	0x3d47c24f	0.04876929
11	0x3d1ba6fe	0.038001053
12	0x3bfd9a42	0.007739336
13	0x3c9e82fe	0.019349571
14	0x3ca96ab5	0.020680765
15	0x3cdc54a5	0.02689583
16	0x3c0468ea	0.008081654
17	0x3b665d19	0.0035150705
18	0x3c93dc9a	0.018049527
19	0x3c39405c	0.011306848
20	0x3d95003e	0.07275437
21	0x3c547285	0.012966757
22	0x3c1002fa	0.008789772
23	0x3cccd58c	0.02500417
24	0x3d6bd5c2	0.057576902
25	0x3ce84488	0.02835299
26	0x3c49cd20	0.012316972
27	0x3c8508cd	0.016239548
28	0x3e232cae	0.15935013
29	0x3ddffdd0	0.10937083
30	0x3cadfbc8	0.021238223
31	0x3dbaa6da	0.09113856
32	0x3cab0e79	0.020880925
33	0x3c996585	0.018725166
34	0x3bd87a04	0.0066063423
35	0x3e8b77c0	0.272398
36	0x3c96a224	0.018387862
37	0x3cd88f04	0.026435383
38	0x3c93c8e3	0.018040126
39	0x3ba279b4	0.004958356
40	0x3c99d0b2	0.018776271
41	0x3c65def1	0.014030204
42	0x3d38e69e	0.04514181
43	0x3ca61310	0.020272762
44	0x3c982152	0.018570576
45	0x3e0415c8	0.12898934
46	0x3e14f1b6	0.1454533
47	0x3dd1bf49	0.10241563
48	0x3c8c0a91	0.017094882
49	0x3cc83a81	0.02444196
50	0x3cb72e1d	0.022360856
51	0x3d461884	0.048363224
52	0x3b4aefd8	0.0030965712
53	0x3e19fce1	0.15037872
54	0x3baac59d	0.0052115456
55	0x3cb8b515	0.022547284
56	0x3b79a4ef	0.0038092693
57	0x3c956594	0.018236913
58	0x3c980f2e	0.018561926
59	0x3c43c27a	0.011948222
60	0x3c4b4cf6	0.012408486
61	0x3d4457e7	0.047935393
62	0x3c83b274	0.016076304
63	0x3c329402	0.010899546
64	0x3c881792	0.016612802
65	0x3d91139d	0.07083819
66	0x3de061d8	0.10956162
67	0x3d67b9c7	0.056573655
68	0x3c88b615	0.016688386
69	0x3d1d91ad	0.038469005
70	0x3c58211f	0.01319149
71	0x3daa6782	0.08320524
72	0x3c3150ab	0.010822455
73	0x3d4e1c5d	0.050320018
74	0x3c6e4aaf	0.014544173
75	0x3bb77711	0.0055989106
76	0x3bce5e04	0.0062978286
77	0x3bd7f18b	0.0065900735
78	0x3dc13556	0.09434001
79	0x3ce9f5a0	0.028559506
80	0x3ccd5a13	0.025067365
81	0x3d1dcdca	0.038526334
82	0x3d395cbc	0.045254454
83	0x3bd782f6	0.006576891
84	0x3d2c6731	0.0420906
85	0x3d2e3cf1	0.042538587
86	0x3c9effa1	0.019409003
87	0x3d8f0148	0.06982666
88	0x3d057740	0.03258443
89	0x3c9625b7	0.01832853
90	0x3d3f6bb2	0.046733566
91	0x3c8386cb	0.016055485
92	0x3cb44466	0.022005271
93	0x3bc1b055	0.005910913
94	0x3cb9906b	0.022651872
95	0x3da7046c	0.0815514
96	0x3d0d46f3	0.03449149
97	0x3c27cd75	0.010241856
98	0x3ca710cb	0.02039375
99	0x3b4b1ccd	0.0030992508
100	0x3c8f04fd	0.017458433
101	0x3d1b7b4d	0.037959386
102	0x3c117b6a	0.008879522
103	0x3dbdf019	0.092743106
104	0x3da13a1b	0.07872411
105	0x3dead5a5	0.11466531
106	0x3da37a14	0.07982269
107	0x3a898b32	0.0010493754
108	0x3c2f1d56	0.010688147
109	0x3c0459b5	0.008078028
110	0x3d2c3803	0.042045604
111	0x3dadd20e	0.084873304
112	0x3c5e7f45	0.013580148
113	0x3b9f5259	0.0048621115
114	0x3c290635	0.010316421
115	0x3e0b676e	0.13613674
116	0x3c29c8c5	0.010362809
117	0x3d93acc7	0.07210689
118	0x3c3ce320	0.01152876
119	0x3d829bee	0.063773975
120	0x3c5d4844	0.013505999
121	0x3c5cafc1	0.013469637
122	0x3c0ad1f2	0.008472906
123	0x3c2bd320	0.010487348
124	0x3d318038	0.04333517
125	0x3e0f2a7a	0.13981047
126	0x3c632445	0.013863628
127	0x3bf68fb9	0.0075244573

title_net.2.running_var f4 [128]
0	0x3b775607	0.0037740485
1	0x3ad6f847	0.0016400897
2	0x3c5c5ccc	0.013449859
3	0x3b364250	0.0027810521
4	0x3c52c4e9	0.01286433
5	0x3a893140	0.0010466948
6	0x3badb2f9	0.005300876
7	0x3b9ac7ed	0.00472354
8	0x3b2090a2	0.002450027
9	0x3ac980a8	0.0015373426
10	0x3bbde8a9	0.0057955575
11	0x3b9887ff	0.004654884
12	0x3abada81	0.0014255793
13	0x3b25eab1	0.002531689
14	0x3b7fc652	0.003902812
15	0x3b845255	0.004038135
16	0x3aad074a	0.0013201025
17	0x3a0d9c77	0.0005402038
18	0x3b1adf74	0.0023631724
19	0x3b0f7b17	0.0021893436
20	0x3c15dd05	0.009146933
21	0x3b087c2e	0.002082597
22	0x3a91530e	0.0011087374
23	0x3b9e670c	0.0048340615
24	0x3bce4757	0.0062951255
25	0x3b9e1acb	0.0048249713
26	0x3b1eae1a	0.002421266
27	0x3b5e7e04	0.0033949623
28	0x3c56f6d4	0.013120372
29	0x3c285733	0.010274696
30	0x3ba938b6	0.005164231
31	0x3c19a9df	0.009378879
32	0x3b7496eb	0.00373214
33	0x3b767c04	0.003761054
34	0x3aaf3ff2	0.0013370498
35	0x3c72e0a3	0.014824065
36	0x3b224754	0.0024761753
37	0x3b5cc0b0	0.0033684187
38	0x3b2bb6b2	0.0026201424
39	0x3a83f955	0.0010068814
40	0x3b48a85d	0.003061793
41	0x3b398c35	0.002831233
42	0x3be21617	0.006899606
43	0x3b545e29	0.0032404757
44	0x3b3a3ef3	0.0028418868
45	0x3c33b1d3	0.01096769
46	0x3c49148a	0.012272963
47	0x3c32aafa	0.010905022
48	0x3b51b42a	0.0031998255
49	0x3b9ce64e	0.0047881966
50	0x3b63f4a0	0.003478326
51	0x3bbc2a51	0.005742349
52	0x3a1b5683	0.0005925672
53	0x3c537343	0.0129058985
54	0x3a659bf4	0.00087588956
55	0x3b595fbf	0.0033168641
56	0x3a836e4c	0.0010027378
57	0x3b2366c0	0.002493307
58	0x3b122466	0.0022299527
59	0x3ab149a6	0.0013525977
60	0x3b1e11bd	0.002411946
61	0x3bcc5133	0.0062352656
62	0x3b1d27eb	0.0023980092
63	0x3affd1d9	0.0019517496
64	0x3b111580	0.002213806
65	0x3c0ed3e7	0.008717514
66	0x3c2105cd	0.009828043
67	0x3bdebeac	0.006797632
68	0x3b242a7e	0.0025049741
69	0x3bc62ad1	0.0060475846
70	0x3b3e595c	0.0029044962
71	0x3c10ea15	0.008844872
72	0x3ab78889	0.0014002483
73	0x3bc48392	0.0059971297
74	0x3af90915	0.0018999899
75	0x3a8ffe44	0.0010985811
76	0x3a7e05e5	0.00096902094
77	0x3ab06697	0.0013458309
78	0x3c1eec1d	0.0096998485
79	0x3b9677a3	0.0045918985
80	0x3b732898	0.0037103053
81	0x3b986fd7	0.004652004
82	0x3bead314	0.0071662758
83	0x3a9c464e	0.0011922808
84	0x3ba81559	0.005129498
85	0x3bb280ba	0.0054474743
86	0x3b082429	0.0020773506
87	0x3c04c388	0.008103259
88	0x3b8a7354	0.004225174
89	0x3b3864b8	0.0028136205
90	0x3b9d3f68	0.0047988184
91	0x3b175774	0.0023092898
92	0x3b4f7f8d	0.003166172
93	0x3aa1e20d	0.0012350694
94	0x3b7269ce	0.0036989334
95	0x3c207c04	0.009795193
96	0x3b9e41f0	0.0048296377
97	0x3b05bae0	0.0020405576
98	0x3b43b94c	0.0029865084
99	0x3a3dfbf8	0.0007247324
100	0x3b4bbb29	0.0031086898
101	0x3bc87519	0.0061174748
102	0x3ac0f2c9	0.0014720793
103	0x3c195597	0.009358785
104	0x3c0d9fe4	0.008644078
105	0x3c42cc87	0.011889583
106	0x3bf5afeb	0.0074977777
107	0x396229bf	0.00021568591
108	0x3ac02ff2	0.0014662726
109	0x3ad49b39	0.0016220576
110	0x3bc20b8a	0.0059217857
111	0x3c07a511	0.008279101
112	0x3b2485a0	0.002510406
113	0x3a8ea7f9	0.00108838
114	0x3b145ddf	0.002263896
115	0x3c466f85	0.012111549
116	0x3acd2046	0.0015649877
117	0x3c106c64	0.008814905
118	0x3b13f613	0.0022577092
119	0x3bef6b3b	0.007306484
120	0x3b0d188c	0.0021529524
121	0x3aeec64b	0.0018217055
122	0x3ad224af	0.0016032661
123	0x3ae07678	0.001712515
124	0x3bab88f4	0.005234832
125	0x3c444c10	0.011981025
126	0x3b27683e	0.002554431
127	0x3aa3ed5f	0.0012506655

combined_net.0.weight f4 [128, 192]
0	0xbcc14037	-0.02359019
1	0xbc0a633c	-0.008446511
2	0xbd87f68e	-0.066388234
3	0x3d6f0d9e	0.058362596
4	0xbd9c6fcd	-0.07638512
5	0x3db2bb25	0.08727101
6	0x3ccddff4	0.025131203
7	0x3d48ffdd	0.049072135
8	0x3bcad98b	0.006190484
9	0x3c25cca7	0.010119594
10	0xbdb49549	-0.088175364
11	0xbdd2c1d2	-0.102908745
12	0x3d219f02	0.039458282
13	0x3c1c8f91	0.009555713
14	0x3cb12b05	0.021626959
15	0xbce8bc0e	-0.028409984
16	0xbbf5d46e	-0.00750213
17	0xbd76ea1a	-0.06028185
18	0x3d617d80	0.055051327
19	0xbc856be7	-0.016286803
20	0x3cf1e145	0.029526362
21	0xbda1a06c	-0.07891926
22	0xbd453af5	-0.04815193
23	0xbc02537f	-0.007954477
24	0x3d4958cc	0.04915695
25	0xbc0f112e	-0.008732123
26	0x3caf674f	0.021411566
27	0xbd4b9e60	-0.049711585
28	0x3c69811c	0.0142519735
29	0x3cc40f64	0.02393312
30	0xbc91c398	-0.017793462
31	0x3cef9f68	0.029250816
32	0xbd58986c	-0.052879736
33	0x3d775455	0.06038316
34	0xbd4b7083	-0.049667846
35	0xbd14e441	-0.036350492
36	0x3b69aac4	0.0035654763
37	0xbc52eab4	-0.01287334
38	0xbe276140	-0.16345692
39	0x3ca5d49a	0.020242978
40	0xbd8268b5	-0.063676275
41	0xba1faa9b	-0.0006090791
42	0xbd5abace	-0.053400807
43	0xbc5aaa49	-0.013346263
44	0x3c2fe7c2	0.010736408
45	0xbe1c1541	-0.15242483
46	0xbb59637e	-0.0033170874
47	0xbce0669a	-0.027392674
48	0x3da282e2	0.0793512
49	0xbc9643b5	-0.018342832
50	0x3c969973	0.018383717
51	0x3c174afb	0.009234185
52	0xbd0c805e	-0.034302108
53	0xbd151e62	-0.03640593
54	0x3d4a5cde	0.04940497
55	0x3a96bc10	0.0011500139
56	0x3d815cf6	0.06316559
57	0x3d7b72b8	0.0613887
58	0x3d9212da	0.07132502
59	0x3c86031e	0.016358908
60	0xbb419f17	-0.0029544288
61	0xbd81659a	-0.06318207
62	0x3a7c9d80	0.00096365064
63	0x3d868c2b	0.06569704
64	0x3d54fc06	0.05199816
65	0x3c9c07ab	0.019046625
66	0xbd5e55cb	-0.054281037
67	0x3bb9fdeb	0.0056760213
68	0xbcc52537	-0.024065597
69	0xbda1aaf0	-0.07893932
70	0x3ca1e74e	0.019763615
71	0x3d28c303	0.041201603
72	0xbdf560b6	-0.11981337
73	0x3cb59bff	0.022169111
74	0x3d9499f1	0.072559245
75	0x3cbe8faa	0.023261864
76	0xbd07fe8f	-0.03320175
77	0xbd5a0bef	-0.053234037
78	0xbd43adc8	-0.047773153
79	0xbd374b2f	-0.044749435
80	0x3d0960c5	0.033539552
81	0x3dd9a739	0.10627598
82	0x3d260bcd	0.040538598
83	0x3cd1a2b1	0.025590273
84	0xbd3d589b	-0.04622708
85	0xbd3af823	-0.045646798
86	0x3b37780a	0.0027995133
87	0xbd46f146	-0.04856994
88	0xbd9f1fc5	-0.077697314
89	0x3d8df7c5	0.06932024
90	0x3d4c6764	0.04990329
91	0xbd8e6d12	-0.06954397
92	0xbd353d32	-0.044247814
93	0x3d2ba6a2	0.04190696
94	0xbdcefb60	-0.1010654
95	0xbaed2fd2	-0.0018095917
96	0xbb7f1a21	-0.0038925486
97	0xbce8b0a9	-0.02840455
98	0xbc3aa838	-0.011392646
99	0xbd15cbae	-0.036571197
100	0x3d777e1c	0.060423
101	0xbd107036	-0.035263263
102	0xbdb61aad	-0.08891807
103	0xbca25401	-0.019815447
104	0xbe0538e5	-0.13009985
105	0xbcfb8185	-0.030701408
106	0x3cd620d2	0.026138697
107	0xbca7966d	-0.02045747
108	0xbe25a74a	-0.16177097
109	0xbcb6d9fa	-0.022320736
110	0x3b6b551c	0.0035908883
111	0x3d3b59b5	0.04573985
112	0x3b7cc258	0.0038567986
113	0xbcb570fb	-0.0221486
114	0xbdb5a3cb	-0.08869132
115	0xbcf1e588	-0.029528394
116	0xbded2e66	-0.115811154
117	0x3d3688c7	0.044564035
118	0xbd9af307	-0.07565885
119	0xbd84f1ed	-0.06491456
120	0x3cd52b14	0.026021518
121	0xbd9d949c	-0.076943606
122	0x3e2cc7d4	0.16873103
123	0xbd2527e0	-0.04032123
124	0x3d6f2961	0.05838907
125	0xbc0117cd	-0.00787921
126	0x3cfb6f54	0.030692734
127	0x3d3075da	0.043081142
128	0x3ce79a0f	0.028271703
129	0xbd89e6fd	-0.06733511
130	0xbcc0f44f	-0.023553995
131	0xbccc520a	-0.024941463
132	0x3b1bd417	0.0023777538
133	0xbccca82a	-0.02498253
134	0xbda0e74b	-0.07856616
135	0xbd16217b	-0.036653023
136	0xbabb3cb4	-0.0014285059
137	0x3cad7585	0.021174202
138	0x3c8a4a1c	0.016881041
139	0x3d1b17d7	0.037864532
140	0x3b93060e	0.0044868058
141	0xbda4649b	-0.080270015
142	0x3d720874	0.059090093
143	0x3cc050a1	0.023475947
144	0xbda97df8	-0.0827598
145	0xbd34d941	-0.044152502
146	0x3caa6000	0.02079773
147	0x3d3d2d35	0.04618569
148	0x3dba803d	0.09106491
149	0xbcf31e1a	-0.02967744
150	0xbdad5f37	-0.084654264
151	0xbd8d7471	-0.06906975
152	0xbd2655a8	-0.040609032
153	0xbd1bfeda	-0.038084842
154	0xbd48c974	-0.049020246
155	0x3cc923a8	0.024553135
156	0x3c590a4b	0.013247083
157	0xbc1b34f8	-0.009473078
158	0xbca8f490	-0.020624429
159	0xbe0a3b50	-0.13499188
160	0xbd4aef2b	-0.049544495
161	0xbb97e64d	-0.0046356083
162	0x3d8a2848	0.06745964
163	0x3d9e96df	0.0774362
164	0xbde1e3a6	-0.110297486
165	0xbb590eae	-0.0033120322
166	0x3d435c77	0.047695603
167	0x3d9bb723	0.0760329
168	0xbbd0b2e6	-0.0063689826
169	0xbc0f5c1c	-0.008749988
170	0x3d1a5749	0.037680898
171	0x3d205752	0.039145775
172	0xbd063470	-0.032764852
173	0xbd9ccce3	-0.076562665
174	0xbd8a7860	-0.06761241
175	0xbc229d88	-0.009925254
176	0xbd7268a0	-0.05918181
177	0xbc37a1be	-0.011207996
178	0x3da4c289	0.08044917
179	0x3d9309fb	0.07179638
180	0xbe086713	-0.1332057
181	0xbbede923	-0.007260458
182	0x3dd2384e	0.102646455
183	0x3d5ed68d	0.05440383
184	0x3c04e0c2	0.008110227
185	0x3d99e268	0.07513887
186	0xbdca76a6	-0.09885912
187	0xbda15522	-0.07877566
188	0x3d296dc5	0.04136445
189	0xbbfb76d7	-0.007674079
190	0xbe13d145	-0.14435299
191	0x3d2a3078	0.04155013
192	0xbdc24b8c	-0.09487066
193	0x3d254802	0.040351875
194	0xbc05b011	-0.008159653
195	0xba425838	-0.00074136583
196	0xbd6a87dd	-0.057258476
197	0x3b3eca18	0.0029112156
198	0xbbe6380d	-0.0070257247
199	0xbcbe9405	-0.02326394
200	0x3c6f3e6d	0.014602286
201	0xbc60368d	-0.013684881
202	0xbd7eccc7	-0.06220701
203	0x3cd8febd	0.026488656
204	0xbd3b1237	-0.045671668
205	0x3c31668f	0.0108276745
206	0x3cc547b4	0.024082042
207	0x3d048796	0.032355867
208	0x3d98cf81	0.07461453
209	0x3d88192f	0.066454284
210	0x3d0a67be	0.033790343
211	0x3c3b746d	0.011441332
212	0xbd590a23	-0.052988183
213	0xbdbf25f6	-0.09333412
214	0x3d30b2aa	0.043139137
215	0x3d0ec922	0.034859784
216	0xbd2c16bf	-0.04201388
217	0xbbdbe1e2	-0.006710277
218	0x3d2352d8	0.039873928
219	0xbbe286fe	-0.006913065
220	0xbd7673a0	-0.060168862
221	0x3c96109d	0.018318469
222	0xbb34e508	-0.0027602334
223	0x3ce4a892	0.027912412
224	0xbc2affd0	-0.010436967
225	0xbd236c23	-0.03989805
226	0x3c8413f0	0.016122788
227	0x3b8a13d1	0.004213788
228	0xbb8ae2c2	-0.0042384574
229	0x3cae6d06	0.02129222
230	0x3c6de880	0.014520764
231	0xbd6add29	-0.05733982
232	0xbd687f4b	-0.05676202
233	0xbd823d09	-0.06359298
234	0xbd14d3de	-0.036334865
235	0xbca4e26f	-0.020127503
236	0x3b0b5ffa	0.0021266923
237	0x3d887f73	0.06664934
238	0xbc55182c	-0.013006251
239	0xbc6ccc70	-0.014453039
240	0x3df18565	0.11793021
241	0xbb10c7ed	-0.0022091821
242	0xbcb73aa0	-0.022366822
243	0xbcb513ac	-0.022104107
244	0xba075cd8	-0.0005163676
245	0xbc12253e	-0.008920012
246	0x3cafae70	0.021445483
247	0xbd46db1c	-0.048548803
248	0xbd3e0911	-0.046395365
249	0xbdab4cd5	-0.08364264
250	0xbd7700ac	-0.060303375
251	0xbd340899	-0.043953512
252	0xbcdc6302	-0.02690268
253	0xbd9b1376	-0.07572071
254	0xbd0a8f41	-0.033828024
255	0xbc7b05b3	-0.015321183

combined_net.0.bias f4 [128]
0	0xbe21d9c6	-0.1580573
1	0xbe25e530	-0.1620071
2	0xbd225319	-0.03963003
3	0xbdab7194	-0.08371273
4	0x3d07c36d	0.033145357
5	0xbe005c26	-0.12535152
6	0xbe26a9d8	-0.16275728
7	0xbe20227e	-0.15638158
8	0xbd4864d6	-0.04892429
9	0xbe7d9268	-0.24762881
10	0xbe4d568d	-0.20052548
11	0xbe63f8b6	-0.22262844
12	0xbd8d0708	-0.06886107
13	0xbe191253	-0.14948396
14	0xbe7b719d	-0.24555059
15	0xbe2bba76	-0.16770348
16	0x3d836348	0.06415421
17	0xbd821456	-0.06351535
18	0xbe4cbd75	-0.19994147
19	0xbdbf4bb9	-0.09340615
20	0xbe4087f2	-0.18801859
21	0xbd4c26ef	-0.049841817
22	0xbd8635f9	-0.06553263
23	0xbd8f8188	-0.07007128
24	0xbdd80704	-0.10548213
25	0xbe46dcd9	-0.19420184
26	0xbd4303d3	-0.04761107
27	0xbd8b68d8	-0.06807107
28	0xbdd4187c	-0.103562325
29	0xbe11d2b7	-0.14240538
30	0xbde0705a	-0.10958929
31	0x3c265db9	0.010154181
32	0xbd57cec2	-0.052687414
33	0xbd6bcf3d	-0.057570685
34	0x3b38bd10	0.0028188862
35	0xbe072e98	-0.13201368
36	0xbdd71946	-0.105028674
37	0xbe0b2b8f	-0.13590835
38	0xbd804917	-0.06263941
39	0xbe1c0649	-0.15236773
40	0xbe0b4f0b	-0.13604371
41	0xbd78838c	-0.060672328
42	0xbcb5e082	-0.02220178
43	0xbdf952d8	-0.12174004
44	0xbe85d325	-0.26137653
45	0xbde480f5	-0.11157409
46	0xbd4f81dd	-0.050660957
47	0xbd9cbe92	-0.07653536
48	0xbe0862b1	-0.13318898
49	0xbe04cacf	-0.1296799
50	0xbdec4298	-0.11536139
51	0xbc6efc73	-0.014586556
52	0xbdaf4dc4	-0.085597545
53	0xbe456fcc	-0.19280928
54	0xbd7bc78f	-0.06146961
55	0xbde6e848	-0.11274773
56	0xbe022c26	-0.12712154
57	0xbea1d177	-0.31605121
58	0xbe413b99	-0.18870391
59	0xbd85a49c	-0.06525537
60	0xbdeb8012	-0.11499037
61	0xbcbcf4ac	-0.023065887
62	0xbe085033	-0.13311844
63	0xbe98f5ae	-0.2987494
64	0xbdffaabb	-0.12483736
65	0xbe04e246	-0.12976941
66	0xbde6394f	-0.112413995
67	0xbe2e2980	-0.17008018
68	0xbd1ca3ff	-0.038242336
69	0x3c59ee72	0.013301479
70	0xbdfa408a	-0.12219341
71	0xbe261207	-0.16217814
72	0xbe057335	-0.13032229
73	0x3c88ceb7	0.016700132
74	0xbde0f9b5	-0.10985128
75	0xbe0079e5	-0.12546499
76	0xbe401c38	-0.18760765
77	0xbd6d0557	-0.05786642
78	0xbe3ef92f	-0.18649743
79	0xbbb4738c	-0.0055069383
80	0xbdb1fd6f	-0.08690917
81	0xbd14585d	-0.036217082
82	0xbe4cb576	-0.19991097
83	0xbe072271	-0.13196732
84	0xbddd91ec	-0.10818848
85	0xbd2a3bc2	-0.041560896
86	0xbe5efc8c	-0.21776026
87	0xbe5682ee	-0.20948383
88	0xbe7375d5	-0.23775418
89	0xbe866fda	-0.2625721
90	0xbe2a0d02	-0.16606525
91	0xbd6e8e60	-0.058241248
92	0xbe1f4ab0	-0.15555835
93	0xbd64065f	-0.05567014
94	0xbd5d6e44	-0.054060236
95	0x3c26ebb3	0.010188031
96	0xbd843c50	-0.06456816
97	0xbe1fa853	-0.15591554
98	0xbdc743f3	-0.09729757
99	0xbcee9aa7	-0.029126478
100	0xbe34db70	-0.17661834
101	0xbd776a40	-0.060404062
102	0xbe5c5fbb	-0.21520893
103	0xbd2a65bf	-0.04160094
104	0xbd3f58b8	-0.04671547
105	0xbe3493b6	-0.17634472
106	0xbd680d84	-0.056653515
107	0xbe92a819	-0.28643873
108	0xbe157472	-0.14595202
109	0xbd8a6054	-0.067566544
110	0xbd7ae8d0	-0.061257184
111	0xbe61cf1e	-0.22051665
112	0xbe05d193	-0.13068227
113	0xbe444046	-0.19165143
114	0xbe2b52af	-0.1673076
115	0xbe3c462c	-0.18386143
116	0xbe942077	-0.2893102
117	0xbdf85769	-0.12126047
118	0xbdd44153	-0.10364022
119	0xbd9ebebe	-0.07751225
120	0xbda935e8	-0.08262235
121	0xbe181ea6	-0.14855441
122	0xbde4501c	-0.11148092
123	0xbdb274de	-0.08713697
124	0xbd596db5	-0.05308314
125	0xbd354ab6	-0.044260703
126	0xbe09aa9c	-0.13443989
127	0xbe03719f	-0.12836312
