artifacts/training_runs/run_20250613_144755/best_model.pth (torch, 585269 bytes, 39 tensors)

numerical_net.0.weight f4 [64, 36]
00000000: aedb 2abd fab2 61bd 004d 05be 4b03 32be
00000010: aeba d43d 589c 823d f42b a3bd a196 e03d
00000020: 07d0 f93d ff60 02be 0504 333d e861 0c3e
00000030: 6e60 6bbd ef90 00be 4379 e23d 1075 383e
00000040: 0a33 8abd fee7 043e 5551 f0bc 0105 113d
00000050: 85cc 893b 67c4 c83d d044 7d3d 3196 a03c
00000060: 69b5 953a cdf0 bdbd adf3 f3bd 186d 013e
00000070: dae7 203d 5f85 c53d db28 b53d 3ed8 8d3d
00000080: afd1 3c3e 90a6 b93c c6c4 c63d 6c29 02be
00000090: 498e 2e3e 1172 a8bd de90 063d 7e59 ca3d
000000a0: 1647 1fbe 0bb6 93bd 7975 093d fcd0 21be
000000b0: c560 023e 9624 38be b382 ef3d 7799 a83d
000000c0: 44fa dcbd cb91 a4bd dbbb 83bd 535d 0f3e
000000d0: 871f 0cbe 7844 b83b ae33 5bbe 2081 b2bc
000000e0: 2407 43bd 585a 2b3d d0c4 30bd 97c4 99bc
000000f0: a901 01be 91b3 963d 1d7c e8bc b877 8a3d
00000100: b759 fe3d dfc6 e1bd ea1d 643c e975 373e
00000110: 083b e038 d852 d0bd 68b6 cebc 7154 b93d
00000120: 6c2f 3b3e 01f7 8abd 2469 a1bc a8f4 b33b
00000130: 8045 e33b aa04 1cbd be47 4ebd ae81 4abd
00000140: 2ad3 4c3e 674c a83d d558 dd3d f581 5bbd
00000150: 211a 2dbe 11f6 c8bd 429d 493e 69a6 f4bd
00000160: 5acb cebd 626e 20bd 3468 c03c 62bd aebc
00000170: 91b0 493d bb4e 97bd fca8 2c3e a58e d6bd
00000180: 6484 ec3d e871 e93d 6064 90bd a745 f73d
00000190: ca97 95bd caa9 3bbd ccf2 1ebb fed4 ebbc
000001a0: 7b4e ddbd de13 38be 2ba3 003e bcc5 1cbc
000001b0: 3d6c 243d d7e0 403e a110 7a3d 0c4a cbbd
000001c0: afb0 b93d 2d11 ac3c ec8e 263e 1ff2 94bd
000001d0: 0fe5 2f3d bbed de3c b335 523d eae5 0ebd
000001e0: cec3 113e accb bd3d ccf4 b9bd 60e4 a13d
000001f0: a078 d8bc d09e 90bd d77d 293e 7b00 4bbd
00000200: 0118 40bd 9e54 05be 9ea4 97be f3a3 6ebd
00000210: b8f5 0fbe fdb7 9f3d 6fa2 50bc b361 3d3d
00000220: 50dd eb3c 0435 083e 33c0 5f3d a8bb cb3d
00000230: c60e 903d 8525 15bc 8df5 e13c 0c6c 40be
00000240: 2f02 18bd 8c25 333d ad21 983d e909 943d
00000250: 33eb e3bd 33f7 013e 6606 a73d 84b8 bfbd
00000260: cebe 98bd 64a3 453e b6df 1a3e 9e5e a03d
00000270: 9260 51be 76a6 c0bd 380f ac3d 1ad1 e03d
00000280: 95fc cabd f3f3 d4bb 7b2b 40be bee0 47bd
00000290: 9919 933d 26cc e13d aa98 80bd 1c06 d93d
000002a0: 7169 a83d e05f 38be 7cb4 86bd 0763 5d3e
000002b0: 0e9f ff3d 214d dc3d 5ca7 c13d 7c33 92bd
000002c0: 9109 1dbe 84d5 8d3d ff97 533d e21e 07be
000002d0: 52bb 673c 9783 be3d 278d 863d b64d 243e
000002e0: 1b72 b33d f2b7 963c 3567 02be 0a60 d93d
000002f0: 6157 63bd 4139 813d 069f 0c3e 68bb 8fbb
00000300: 2e67 073e 1533 1bbc e7e4 f03d ddf5 51be
00000310: 9ec4 843d dd64 283d 307f e6bd 548d 12be
00000320: fbd0 04bd 450c 343d 83ae 413e dba1 0cbe
00000330: c40a e93d 6b42 ebbd 8d53 11be 8492 9cbd
00000340: 8549 f63d 2d82 92bd d88f 783d a97d 013e
00000350: 86c2 3dbe 2f81 2c3d 8f48 443b fcf1 35bd
00000360: 0331 c73d 16b1 ba3d 97f3 b03d b192 47be
00000370: 415d 8b3e ec93 083d aea8 f1bc 301c 29be
00000380: 96f4 e939 778d 583d da6e 523a b748 13be
00000390: ae09 d13c 5915 8abd 223b 90bd f294 9c3d
000003a0: 93c3 8fbc ab28 3e3c e1ad 90bd e51d 52be
000003b0: 252a a43c e5bf 8dbd 08c9 873d 1f2e 0ebe
000003c0: e3a5 153d 93e8 f43c a9fa 57bc 1c76 bf3d
000003d0: 59a3 5fbd 9b03 93bb ce01 81bc f9f1 edbd
000003e0: 353f 143d cd45 4f3d baee 17be e0f8 2abd
000003f0: 330e a1bd 8a9c 7ebb 99bb c7bd 66da c5bc
-0.04171341 -0.055102326 -0.13017654 -0.17384069 0.10387169 0.063774765 -0.07967368 0.1096623
0.12197881 -0.12732314 0.043705005 0.13709223 -0.05746501 -0.12555288 0.11058285 0.18013406
-0.06748016 0.12979123 -0.029335657 0.035405163 0.004205289 0.09803086 0.061833203 0.019602867
0.0011421862 -0.09274445 -0.11911712 0.12639272 0.03928361 0.09644579 0.08845683 0.069260105
0.18439363 0.022662431 0.097055 -0.12711114 0.17046465 -0.082248814 0.032853 0.098803505
-0.15554461 -0.07212456 0.033559296 -0.15802377 0.12732227 -0.17982706 0.11694851 0.08232396
-0.10789922 -0.0803562 -0.06432315 0.14000444 -0.13683902 0.0056233965 -0.21406433 -0.021790087
-0.04761423 0.041834205 -0.043156445 -0.0187705 -0.1259829 0.07358468 -0.028379494 0.06761116
0.124194555 -0.1102426 0.013923148 0.17916073 0.00010692148 -0.10172051 -0.025233462 0.09049309
0.18279809 -0.067853935 -0.019703455 0.005491812 0.0069357753 -0.038090385 -0.050361387 -0.04944008
0.20002428 0.082176976 0.10807959 -0.053590734 -0.16904499 -0.098125584 0.19688895 -0.11945803
-0.1009738 -0.03916777 0.023487188 -0.02133054 0.049240652 -0.073880635 0.16861337 -0.10476426
0.11548689 0.11398679 -0.07050395 0.12073832 -0.07304342 -0.04581622 -0.0024253605 -0.028788086
-0.108059846 -0.17976329 0.12562244 -0.009568628 0.040142287 0.1883577 0.061051015 -0.09926233
0.09066903 0.021004284 0.16265458 -0.072727434 0.042943057 0.027212968 0.051320743 -0.034887232
0.1423485 0.09267363 -0.090798944 0.07904887 -0.026424706 -0.07061541 0.1655191 -0.049561005
-0.046897892 -0.1302056 -0.2961778 -0.058261823 -0.14058578 0.07798765 -0.01273404 0.04623575
0.028792053 0.13301474 0.054626655 0.09947902 0.07034068 -0.009103184 0.027582908 -0.18791217
-0.037111457 0.04373698 0.07428298 0.07228453 -0.11128845 0.12691955 0.08155517 -0.093613654
-0.07458268 0.1930061 0.15124401 0.07830547 -0.20446995 -0.0940675 0.0840134 0.10977383
-0.099114574 -0.0064988076 -0.18766586 -0.048798315 0.07182617 0.11025266 -0.06279118 0.105968684
0.08223236 -0.18005323 -0.065773934 0.21619807 0.12481509 0.10756899 0.094557494 -0.07138726
-0.1533568 0.069254905 0.051658627 -0.13195375 0.014143782 0.093024425 0.065698914 0.1604527
0.08761998 0.018398259 -0.12734683 0.10614021 -0.055503253 0.063097484 0.13732538 -0.0043863542
0.13222954 -0.009472628 0.1176241 -0.20503946 0.06482814 0.041111816 -0.11254728 -0.14311725
-0.03242586 0.043957014 0.18914227 -0.13733618 0.113790065 -0.114872776 -0.14192028 -0.07645133
0.120257415 -0.07153735 0.060684055 0.12645592 -0.18531236 0.042115387 0.0029950475 -0.044420227
0.09726145 0.09115808 0.08640211 -0.19489552 0.27219585 0.033344194 -0.029499378 -0.16514659
0.00044623454 0.052869286 0.00080273824 -0.14383207 0.025517311 -0.06742353 -0.07042529 0.076455966
-0.017549312 0.011606376 -0.07064415 -0.20519216 0.020039627 -0.069213666 0.066301405 -0.13884781
0.036535155 0.029896056 -0.013182321 0.093486995 -0.05459914 -0.004486514 -0.01574793 -0.11618418
0.03619309 0.050603677 -0.1483716 -0.041741252 -0.078640364 -0.0038850629 -0.09752578 -0.024151992

numerical_net.0.bias f4 [64]
00000000: 993e ff3d 1f5d 91bd a691 6f3b 621f 57be
00000010: d2eb 9abd 95e2 e6bd ebbe e1bc 6292 ae3d
00000020: 6c24 37be d877 0c3e 53f5 65bc 0a5f 9a3d
00000030: daa2 643e 92ce 46bd b48e c83d 3ec4 273e
00000040: 5229 10bc cf00 ac3b 468a 4b3e 7dec 333e
00000050: d9f0 9c3d 268c 12be 649a bb3d f8d5 783d
00000060: 4208 96bd f763 87bc c4ef 76be b9e0 593e
00000070: e6d1 fdbd ae00 0bbe c2e6 b3bc 8e64 a8ba
00000080: e86f 0dbe f6d7 253e 5621 20be dcde b5bd
00000090: 6932 c63d 3db3 c73d 2f8e 10bd 1ad7 3fbd
000000a0: 2503 2d3c 9c67 9abd fe8e 15be 056b 78be
000000b0: 4206 cebd d0be c13d 95e8 de3d 9c31 8bbd
000000c0: bdf2 3f3e f185 2d3e 187a 683c af3e 85bd
000000d0: b7aa 8dbd 4d42 5f3e ce70 193e c5d2 083d
000000e0: da11 41bd b7ff 013d 96d8 a3bd cced 4dbe
000000f0: dbef 87be 3839 913d 9373 113e 280f 003e
0.124631114 -0.070978396 0.003655532 -0.21008065 -0.075645104 -0.11273686 -0.027556857 0.08524014
-0.17884988 0.13717592 -0.014035541 0.075376585 0.22327748 -0.048536845 0.097928435 0.16383454
-0.008798914 0.00524912 0.19876966 0.17570682 0.076631255 -0.14311275 0.09160307 0.06075093
-0.07325794 -0.01652716 -0.24114901 0.21277131 -0.123935506 -0.13574478 -0.02196062 -0.001284735
-0.1381222 0.16195664 -0.15637717 -0.08880398 0.09677584 0.09750984 -0.035291847 -0.046835996
0.010559832 -0.07539293 -0.14605328 -0.24259575 -0.10059787 0.09460223 0.10884205 -0.067965716
0.18744941 0.16945626 0.014189266 -0.065060966 -0.06917327 0.21802635 0.14984438 0.03340413
-0.047136165 0.03173801 -0.08000295 -0.20110244 -0.26550183 0.07090992 0.14204244 0.12505782

numerical_net.2.weight f4 [64]
00000000: 0ed6 663f fd9e 793f ee23 673f 95f5 833f
00000010: 1030 713f 9ece 703f d068 753f 63e3 853f
00000020: 4d38 883f 1e60 7b3f 788b 813f ab8e 743f
00000030: 6fe2 813f e5a5 813f 7096 813f b13e 843f
00000040: dc77 663f 0c28 683f 39dc 7d3f 2c8b 693f
00000050: 00bd 7c3f 1649 8b3f 9ad3 663f e946 853f
00000060: 274e 763f a9bc 6b3f 8221 733f 3fef 7f3f
00000070: a934 833f 0651 713f 621c 6e3f d87a 823f
00000080: 01b2 7e3f c4df 7c3f d0b0 7f3f c92a 823f
00000090: 73df 7f3f 5476 853f 75b4 803f 35e8 6b3f
000000a0: 3b20 733f a92a 7f3f a1e0 773f d3ca 883f
000000b0: e791 793f a862 793f f73d 7e3f 849f 813f
000000c0: a6b6 803f 7c4e 7e3f 4c55 703f d16c 7c3f
000000d0: 906a 7f3f 7500 783f b7a1 803f b0fc 6c3f
000000e0: acec 7c3f 3435 753f 973c 7e3f dd0d 7d3f
000000f0: 886a 753f dd0e 763f f80f 6a3f 29e1 7f3f
0.9017037 0.9750822 0.902892 1.0309321 0.9421396 0.9406527 0.95863056 1.0460018
1.0642182 0.9819354 1.0120687 0.95530194 1.0147227 1.0128752 1.0124035 1.0331632
0.9002664 0.90686107 0.9916416 0.91227984 0.9872589 1.0881679 0.9016663 1.0412265
0.96213 0.9208475 0.94973004 0.99974436 1.0250446 0.94264257 0.9301206 1.0193739
0.9949036 0.9877894 0.9987917 1.0169307 0.9995033 1.0426736 1.0055071 0.92151195
0.94971055 0.9967447 0.9682713 1.0686897 0.97488254 0.9741616 0.993133 1.0126805
1.005574 0.9933851 0.9388015 0.9860354 0.99771976 0.968757 1.0049351 0.9257307
0.9879863 0.95784307 0.993112 0.9884928 0.9586568 0.9611643 0.91430616 0.9995294

numerical_net.2.bias f4 [64]
00000000: 0940 cabc 05f7 9a3d 1495 48bd d08c 4f3d
00000010: 9746 bfbc de1d 01bd c9a8 58ba e708 593c
00000020: 4cd3 72bb bf3a 973d 6e8a 14bd d2af b1bb
00000030: ef1c 1dbd 9a87 983c 02ab 2abd ba70 8a3d
00000040: 5802 70bd ce63 c8bc 782b 04bd 6437 90bc
00000050: f232 f6ba d647 003d 2176 0abe 7d1c 833d
00000060: c19c fbb9 949b 723c 2806 49bd 99ac 69bc
00000070: 491b d93a 432f 89bd 7648 5ebd 6cb4 95bd
00000080: 0a62 90bb 8d9b f73c 6d79 e1bd 81e2 c1bc
00000090: d9ec 75bc e2f8 1c3a 1957 a4bd 96bf 4e3d
000000a0: 26b4 8c3d 3bb7 8d3d 7eef c4bc bd7c a8bc
000000b0: 01e8 853c a020 10bd 7542 47bd 087b 473c
000000c0: e89b 433c da53 1dbd 8f4a 853d 36ee 0dbd
000000d0: 04c4 77bd ca91 223a 2b49 33bc 3649 cdbd
000000e0: ce31 fc3a 02dd 29be 3745 6e3c 5e6c 81bd
000000f0: 7d5b 68bd 95f6 e4bc d05a 73bc b36b 6dbd
-0.024688737 0.075666465 -0.048970297 0.0506714 -0.02334909 -0.031522624 -0.0008264897 0.013246751
-0.0037052212 0.07384252 -0.03626483 -0.0054225707 -0.03835767 0.018619347 -0.041666992 0.06759782
-0.058595985 -0.024461653 -0.032268018 -0.017604537 -0.0018783493 0.031318508 -0.13521625 0.06401918
-0.0004799124 0.0148076005 -0.049078137 -0.014262342 0.0016563918 -0.066984676 -0.054268323 -0.07309803
-0.0044062184 0.03022554 -0.11009488 -0.023667576 -0.015010082 0.0005988014 -0.08024425 0.05047568
0.06870298 0.06919714 -0.02403998 -0.020567292 0.01634598 -0.035187364 -0.048647363 0.012175329
0.011939026 -0.038410045 0.065083615 -0.034651004 -0.06048967 0.0006201534 -0.010942738 -0.100237295
0.0019240917 -0.16588214 0.014542869 -0.063194975 -0.056727875 -0.02794961 -0.014853194 -0.057964038

numerical_net.2.running_mean f4 [64]
00000000: 7d17 943e 5901 4f3e 2966 6a3e 053a 063e
00000010: c776 803e 8cb0 573e 360a 723e 2eaa 5d3e
00000020: 18db 1e3e 10c8 b93e 416d 583e 1533 983e
00000030: 904e c83e dd07 723e 1c3a 8d3e 29a5 8c3e
00000040: 8cda 6d3e 725f 9a3e 40aa bf3e e9bf b23e
00000050: 5457 843e f15f b33d 4faf 9c3e 3323 4a3e
00000060: 31f8 3f3e a32a 823e 6f62 c93d fe57 b63e
00000070: a6d1 1c3e f1ec 323e 23c6 4e3e ddc3 593e
00000080: f7e0 4b3e 5f60 b33e 4358 e53d 61c3 623e
00000090: 58dd a23e b36c 973e a85b 8e3e b4bd 703e
000000a0: 4843 a83e 68aa 373e 2814 123e d643 d33d
000000b0: 2675 033e 775c b23e c03b 993e c4c6 643e
000000c0: d481 ba3e 6939 8a3e 1d47 ac3e e653 2f3e
000000d0: 542a 743e ae3b eb3e 304d ad3e 6ead 843e
000000e0: 84a5 5b3e 7f79 6c3e 2078 713e 16c2 253e
000000f0: f28f d73d b8e6 803e ab65 a93e c692 833e
0.2892417 0.20215358 0.22890534 0.1310807 0.2509062 0.21063441 0.23636708 0.2164695
0.15513265 0.36285448 0.21135427 0.29726472 0.39122438 0.23635812 0.27583396 0.27469757
0.232279 0.30150944 0.37434578 0.3491204 0.25847876 0.08758534 0.306025 0.1973999
0.18747021 0.25423154 0.09833228 0.35614008 0.1531435 0.17473198 0.2019277 0.21266122
0.19910036 0.35034463 0.11198475 0.22144844 0.31809497 0.29575118 0.27804303 0.23509866
0.32863832 0.17936099 0.14265501 0.10315673 0.12837657 0.3483617 0.29928398 0.22341448
0.36427176 0.26996925 0.33648005 0.17121848 0.23844272 0.4594397 0.33847952 0.25913566
0.21449858 0.23093222 0.2358098 0.16187319 0.10525502 0.25176024 0.3308538 0.25697917

numerical_net.2.running_var f4 [64]
00000000: db69 253e b8bf f63d 8aa2 d93d 9dad 723d
00000010: 9f64 203e e00a e73d 0a17 e03d d252 b33d
00000020: 71a7 983d 9d41 373e 6357 de3d b4ab ff3d
00000030: 86af 023e d37d 163e d6a8 513e 7691 c43d
00000040: 359e 243e 6594 4c3e 4c65 273e 28e0 1d3e
00000050: 5bbf f73d 0f75 ea3c e41f 253e 1484 923d
00000060: 8e90 a63d 9a36 083e 639d 7a3d 94cc f63d
00000070: 952d 8a3d 8529 ad3d fff3 c93d 46fb c43d
00000080: 51c8 f83d 908c 483e ff3a 303d ecb7 e93d
00000090: fcfc 3f3e de05 193e 9161 1e3e 4e7f cf3d
000000a0: 943a 2d3e a97f 9d3d 34bf e13d e3ca 423d
000000b0: 95a6 693d 8250 843e 3b90 0d3e 62e4 003e
000000c0: 4525 3b3e 21e5 ce3d c012 bb3e ea99 ca3d
000000d0: 4f76 3b3e b50e ac3e 9832 3c3e 823c 023e
000000e0: 4745 f83d 451d b63d 952f 0e3e 70f5 aa3d
000000f0: 6ba0 403d e8b7 053e a27a 513e 8381 d53d
0.16153662 0.12048286 0.10626705 0.0592476 0.15663384 0.11281371 0.10941894 0.08756031
0.07453812 0.17896123 0.108565114 0.12483922 0.1276227 0.14696436 0.20474562 0.09598057
0.16075976 0.19978483 0.16347235 0.1541754 0.12097045 0.028620271 0.16125447 0.07154098
0.0813304 0.13302079 0.061185252 0.12050739 0.06746975 0.08455185 0.09860992 0.09618239
0.12147582 0.1958487 0.043025013 0.114120334 0.1874885 0.14943644 0.15466906 0.10131703
0.16916877 0.07690365 0.11022797 0.04755677 0.05704363 0.25842673 0.13824551 0.12587121
0.18275936 0.101022966 0.36537743 0.09892638 0.1830685 0.3360497 0.18378675 0.12718394
0.121225886 0.088923015 0.13885339 0.08347595 0.047027986 0.13058436 0.20456937 0.10425093

numerical_net.4.weight f4 [64, 64]
00000000: 7cab 32b9 ea26 98bd 5ce6 11bd 60b3 6bbd
00000010: 01e4 23bd a23c 6a3c b5c3 9abd 1dd8 993d
00000020: f62f 1c3b ad69 0bbe 60c2 73bb a4b0 a6bd
00000030: 58d1 26bd 7f53 273e d30e f73d 56fb 933c
00000040: 8078 b53c dd55 ffbc 5a00 873d e476 87bc
00000050: 0cff d23d 4d79 d33c 9dbd 773d 9fdf 683d
00000060: ecb8 583d d9e1 5bbd c338 c8bc 0cb5 bc3c
00000070: 6301 333d cdac 83bd cf78 c4bd e68b 023d
00000080: a945 d3bd 3f1c 17bd 1b5e 12be ee06 83bd
00000090: 4bdb f7bd 16b3 343b 9a46 da3d 9fa6 c0bc
000000a0: 787f 8c3d fbad a33d bf7d 2fbd ee54 4b3e
000000b0: 1456 563d 83bd e93d 4830 a43d 9ae7 003e
000000c0: c50d 493d ced8 823d 2aa3 cabc 2307 b3bd
000000d0: 8a26 193e be3c 0bbe 3551 e0bd 6f84 4b3c
000000e0: 4aaf 1b3e f136 283e 597c 143d bda7 b5bc
000000f0: fb83 163d 64f2 9cbd 9fbc a0bb ccbd 053d
00000100: 7136 a33d f896 59bd ff70 20bd ab74 afbc
00000110: e99a 25bc f92b 2e3d abcc f0bd 3904 cb3b
00000120: 872c d53c d93e 5f3c ec72 e9bc 3512 ebbd
00000130: 9bb6 163e 85b8 5d3d 34be d5bd b8d7 0ebe
00000140: 7561 9f3d c493 f7bc 7ac9 8a3d 060b ff3d
00000150: ac42 a4bd 4c60 883d 4a6b 763d f075 a2bd
00000160: f89f 993b 965f f23d 9c11 993d 2e2d 223d
00000170: 9229 debd f8ce 8bbd 45d4 2f3d f0e3 cd3d
00000180: 1c2b f93a 1129 44bc 39d4 99bc b82a ad3d
00000190: 002d 473d ea1d 823d ea9b 3e3e ecbd 053d
000001a0: 9744 b43d 065f 47bd 4b37 b23c ca4a 483e
000001b0: a925 b6bd aabd ea3d 61a6 a23d acc2 8e3d
000001c0: f1f6 393d 5401 583c 603c 28bd 8159 e8bc
000001d0: 5243 4c3d a1e0 95bd 9d01 b93d 11a4 e33d
000001e0: 0c95 5dbd 3940 583d e1d9 85bd a424 4c3c
000001f0: f022 6bbc 3af7 c7bd 1bbc 80bd b8b0 b13d
00000200: 7880 a4bc 556d 9b3d d48b e33d c0aa 52bc
00000210: 3c30 183d 6e74 10bc 138d a53d 5e6d febd
00000220: 4da4 31be d0ff 05be 3269 1ebd a55b 013e
00000230: 1b57 ce3c d2da 3bbd aa54 8a3d 984e f2bd
00000240: 29e5 3e3c 321e 173d 7175 2dbd bb3f b33d
00000250: fcb7 793d 9116 ca3c 8168 013e e946 29be
00000260: f0cf f9bc 39a2 a9bc a536 d93d e869 08bc
00000270: a0d2 c83d 9395 b63d 8b7d ee3d 35d8 ee3d
00000280: a657 03be 71ea 83bc 4f32 913d aeb2 cfbc
00000290: f48c 00be 6708 933d 8911 9f3d 4201 07be
000002a0: e83c 01be 6881 323d 8e4d e93c af91 e2bd
000002b0: 9119 2a3e ccf4 93bd 6942 233d bae6 a53d
000002c0: 5bdd cebc e276 abbc b8bd b8bd 3458 6b3c
000002d0: a863 363d 0dbf c2bc 42b0 f4bc 057e bb3c
000002e0: adaa 3bbe 3ec7 853d a4ee adbc 61a8 83bc
000002f0: c04a 433d 8797 953c 3dfc ebbd 8e71 c03d
00000300: 4f77 8bbc e3fe 86bc fa5e f43d 2b74 89bc
00000310: 3502 303d fabe 1fbd be88 83bd ec3b 1a3e
00000320: ee56 d2ba 4ab4 093d 81c8 d33c 9b9b 833d
00000330: b2b8 243e 52cf 233e 767d 893d f3b0 c6bc
00000340: d7fe b63d e498 3b3d 186e 8fbd a875 9abc
00000350: 7cf8 c5bd 9078 76be d79d 99bc c489 933d
00000360: 40cc 063e 48af 8dbd f32f f8bb 51d1 393d
00000370: d811 64bd c0f1 273e b22d 873c 2ca5 58bd
00000380: 23d5 b0bd f4e3 6bbc 67e2 04be e7af ca3d
00000390: 8979 593d 3b82 cfbd 8f15 7ebd 82a0 44bd
000003a0: 7a3e 543d 3e38 dbbd 70cf c8bd 7551 923d
000003b0: d814 593d fe47 243d ca4b 05bd 41ac fabc
000003c0: b3c4 053e da55 e53d 232b 2dbd b99a dbbd
000003d0: dc86 adba b593 efbd 1390 0c3e ce8b 8cbc
000003e0: bc2e d23c 412e a73d 2a9b 80bd 3b02 7d3d
000003f0: 6784 5a3d 9e5d 49bd b02a 9abd ccd3 183e
-0.00017039286 -0.07429297 -0.03562008 -0.057544112 -0.040012363 0.014296683 -0.075568594 0.075119235
0.0023832298 -0.13614531 -0.0037194714 -0.0813916 -0.04072699 0.16340445 0.12063374 0.018064182
0.022152185 -0.031168872 0.06591864 -0.016536184 0.103025526 0.025814677 0.060483564 0.056853887
0.05291073 -0.053682182 -0.024441129 0.023035549 0.043702494 -0.064294435 -0.09593355 0.0318717
-0.10316021 -0.036892172 -0.14293711 -0.06397806 -0.12102374 0.0027572564 0.106579974 -0.023516951
0.0686025 0.079921685 -0.04284453 0.19856617 0.052328184 0.114130996 0.080170214 0.12588349
0.049085397 0.063890085 -0.024736006 -0.087415956 0.14956108 -0.1359739 -0.10952989 0.012421711
0.15203586 0.16427208 0.0362514 -0.02217471 0.03674696 -0.0766342 -0.004905298 0.032651708
0.07969368 -0.05312249 -0.03917026 -0.021417936 -0.010107734 0.042522404 -0.11757787 0.0061955717
0.026022209 0.013625824 -0.028497182 -0.11478082 0.14718096 0.05413105 -0.10436669 -0.13949478
0.0778226 -0.030221827 0.0677671 0.124532744 -0.08020529 0.06658992 0.060160913 -0.07932651
0.004688259 0.11834638 0.07474062 0.039593868 -0.10847773 -0.068265855 0.042927045 0.10053241
0.001901004 -0.011972682 -0.018777953 0.084554136 0.0486269 0.06353362 0.18614164 0.032651827
0.08802145 -0.048674606 0.021754881 0.1955978 -0.08893902 0.11461957 0.079418905 0.069707245
0.045401517 0.01318391 -0.041073203 -0.028362991 0.04986889 -0.07318235 0.09033511 0.111152776
-0.05409722 0.052795622 -0.06535698 0.012459908 -0.0143515915 -0.097639516 -0.06285878 0.086762846
-0.02008079 0.07589213 0.111106545 -0.012858093 0.037155375 -0.0088168215 0.080835484 -0.12423204
-0.17347832 -0.13085866 -0.03867454 0.12632616 0.02518802 -0.04586298 0.0675443 -0.11831397
0.011651316 0.03689403 -0.04234833 0.0875239 0.060966477 0.024668964 0.12637521 -0.16530956
-0.03049466 -0.020707237 0.10606126 -0.008326031 0.098057985 0.08915248 0.11645039 0.11662332
-0.12826404 -0.016103001 0.07089674 -0.025353756 -0.1255377 0.07179337 0.077670164 -0.13184074
-0.1262089 0.043580443 0.028479364 -0.11062943 0.16611315 -0.07224426 0.039858256 0.08100648
-0.025252035 -0.020930711 -0.09020561 0.014364291 0.044528633 -0.02377274 -0.029869203 0.02288724
-0.18326826 0.06532143 -0.021231957 -0.0160715 0.04767871 0.01826073 -0.1152272 0.09396659
-0.017024664 -0.016478961 0.11932178 -0.016779026 0.042970855 -0.03900049 -0.06422566 0.15061921
-0.0016047636 0.033619203 0.025852444 0.06426164 0.1608608 0.15997055 0.06713383 -0.024254298
0.089353256 0.045800105 -0.070034206 -0.018854931 -0.09666535 -0.24069428 -0.018752022 0.07204011
0.13163853 -0.06918198 -0.0075740754 0.045365635 -0.05568108 0.16400814 0.016501281 -0.052891895
-0.086344026 -0.01439761 -0.1297699 0.09896832 0.05309442 -0.10132261 -0.06203228 -0.048004635
0.051817395 -0.10704087 -0.098051906 0.07144443 0.052998394 0.04010772 -0.03254298 -0.030599715
0.13063316 0.111980155 -0.042277467 -0.107228704 -0.0013239044 -0.11698095 0.13726835 -0.017156508
0.02565705 0.08163119 -0.06279595 0.061769705 0.053348925 -0.049161546 -0.07527673 0.14924544

numerical_net.4.bias f4 [64]
00000000: 4810 023d e6d7 e23c 5848 25be 154e a63d
00000010: 015d d73c 31fa 8a3b 9b6c 41bd 53ae 1cbd
00000020: ce3b 84bd 3920 b4bd 0c6c 66bc 01bd 8abd
00000030: f94d c33b dd1d 9e3d cde9 02bb 5f4c e2bd
00000040: ad28 14be 088c 903c d3a5 903d 5c88 adbc
00000050: 0168 17bc b5d3 b33d 56f2 443d 7df2 153d
00000060: cab4 623d ac14 b6bd 097d 063d 452e cd3d
00000070: a6c0 173c 78eb 3cbe ee54 c33c 5d20 03bc
00000080: e6e6 ac3d 1cee 023e f564 893d 1a16 ea3d
00000090: 7cee 69be d0cf 363d fe0b e2bd d8a0 c53d
000000a0: fe21 1ebe 509a 1a3e a6af cdbc 3bb5 d03d
000000b0: 5b5d 6f3d 5173 b5bd 9e43 ebbd 0723 603d
000000c0: ccb3 b23d d1c5 a0bc 6257 16be 4b3e dcbd
000000d0: bddc 113e c734 4d3d e5ee a8bd 330e 55bd
000000e0: e643 943b 9281 5c3d 956d 983a 0e83 d63c
000000f0: 4592 04bd e100 7cbc f148 1cbe 8323 9a3d
0.03175381 0.027690839 -0.16140878 0.08120362 0.026289465 0.004241251 -0.047222715 -0.038252186
-0.06456719 -0.087952085 -0.014063846 -0.06774331 0.005960223 0.0772054 -0.0019975782 -0.11049723
-0.14468642 0.017644897 0.070628785 -0.021183185 -0.009241105 0.08780614 0.048082672 0.036608208
0.055348195 -0.088906616 0.032834087 0.10018591 0.00926224 -0.18449199 0.023844209 -0.0080033215
0.08442478 0.12786144 0.06708709 0.11429997 -0.22844881 0.04463178 -0.110374436 0.09649819
-0.15442654 0.15097928 -0.02510817 0.10190817 0.05843864 -0.088598855 -0.11487506 0.054720905
0.087257 -0.019625576 -0.14681771 -0.10754069 0.14244361 0.05009916 -0.082486905 -0.052015495
0.0045246957 0.053834505 0.0011629338 0.026185539 -0.032366056 -0.015381069 -0.152622 0.075263046

numerical_net.6.weight f4 [64]
00000000: 85e0 7b3f fe12 7c3f cb4e 803f 768d 7d3f
00000010: bd4a 763f e320 6e3f 0376 7d3f 6556 763f
00000020: 5cf9 743f 0465 723f 7b4d 733f c77b 803f
00000030: b26a 6c3f 19ef 813f 675b 773f b840 7b3f
00000040: 0c2e 793f 0c82 733f 0d37 793f d81d 703f
00000050: 5d24 743f c518 793f c10d 773f 5123 6f3f
00000060: 3dea 6e3f 7a9e 843f 1cbd 7b3f 5b18 7f3f
00000070: 3adb 783f 1cb6 7d3f 3c47 723f 9944 7a3f
00000080: ae0f 7c3f 98f3 703f 3648 773f 6915 7d3f
00000090: ac99 7c3f 7293 723f 62d7 793f 3d1d 753f
000000a0: ec73 723f d8e2 7f3f a733 833f 6ec8 6d3f
000000b0: ee0f 7d3f 8519 733f 744b 803f 8e35 793f
000000c0: bc02 6d3f 7f1a 753f e27a 6c3f 2fbd 743f
000000d0: d3de 743f f9c0 813f 0b4d 813f 23d8 753f
000000e0: 50f0 783f 1afe 813f a54a 843f 251a 793f
000000f0: c25e 7e3f 427a 7a3f fc8e 723f 65fc 783f
0.98389465 0.9846648 1.0024046 0.9904398 0.9620779 0.9301893 0.99008197 0.9622558
0.9569299 0.9468539 0.950401 1.0037774 0.92350304 1.0151092 0.96623844 0.9814563
0.97335887 0.9512031 0.97349626 0.9379554 0.95367986 0.9730342 0.9650536 0.93413264
0.9332617 1.0360863 0.98335433 0.9964654 0.97209513 0.99106 0.94639945 0.9776092
0.98461425 0.94121695 0.9659456 0.98860794 0.98671985 0.94756234 0.97594273 0.9574774
0.9470813 0.9995551 1.0250138 0.92883956 0.9885243 0.94960815 1.0023026 0.9734734
0.925823 0.95743555 0.92375004 0.9560117 0.956525 1.0137016 1.0101637 0.96032923
0.9724169 1.0155671 1.033528 0.9730552 0.9936334 0.978428 0.94749427 0.97260123

numerical_net.6.bias f4 [64]
00000000: 2159 1abd 7dbb 91bd 68d1 78bc 4a8e 633c
00000010: d916 00bc ea51 8dbd 3362 bcbc 9799 c5bc
00000020: 1145 79bd 7028 04bd 503c d73c 35e8 cdbc
00000030: c5b1 a8bc 1677 0ebd 9b8f abbc fe41 cbbc
00000040: 54a4 2ebd 9a57 06bd c528 043d 098d 0abd
00000050: 4871 9ebc d753 84bc dfc0 dc3c dc02 7fbd
00000060: 7e72 16bd 3a47 debc 8938 18bd af40 80bd
00000070: 03f9 babc 816b d8bc fe43 4bbd 949d a8bc
00000080: 7a2b 6fbc c431 e0bc 604e cd3c 3a38 56bd
00000090: 7a96 36bd ccb3 fa3b 1e1d 5ebd 0121 b33c
000000a0: 38ce 973c 5ead 5cbb 0f7a 1abd ee10 be3b
000000b0: 076d d33c 6150 073c 4612 68bd fad3 8d3b
000000c0: 9bf0 9a3c 6a6e 6f3c 2be2 2bbd 29e0 9c3c
000000d0: 4442 f4bc 123c 2ebd be7b 593d 2c50 9239
000000e0: 1c7e e1bc 4504 273d 9a95 20bd 0a4b 6abd
000000f0: ec5b 2cbd f851 bf3c 7583 41bd 3d53 fcbc
-0.037682656 -0.07115839 -0.015186645 0.013888905 -0.007817947 -0.069003895 -0.022996044 -0.024121089
-0.060856882 -0.032265127 0.026273876 -0.025135139 -0.02059258 -0.034781538 -0.0209425 -0.024811741
-0.042637184 -0.032798387 0.032265443 -0.033825908 -0.019341126 -0.01615326 0.026947437 -0.062258586
-0.036730282 -0.027133573 -0.03716329 -0.062623374 -0.022823816 -0.02641845 -0.04962539 -0.020582952
-0.014597768 -0.02736748 0.025061786 -0.052299716 -0.0445771 0.007650828 -0.054226987 0.021866323
0.01853095 -0.003367267 -0.03771406 0.005800358 0.025808824 0.00825891 -0.056658052 0.004328248
0.018913558 0.014613727 -0.041963737 0.019149857 -0.029816754 -0.042537756 0.053096525 0.00027907023
-0.027525954 0.040775556 -0.03920517 -0.05720047 -0.04207985 0.023354515 -0.047244508 -0.03080141

numerical_net.6.running_mean f4 [64]
00000000: 038b e43e 10fc bb3e 5381 173e 2271 cd3e
00000010: b0d1 9c3e b063 c33e a11a 9c3e 5151 9f3e
00000020: 2cbc b53e 1d70 953e 6a25 a73e 9a2e 9d3e
00000030: 64f0 a13e 49dd f13e 452c d63e 01b1 b03e
00000040: cf51 a13e 5334 ae3e c4cb be3e 9885 b53e
00000050: 9ccb 843e c8c6 b93e 936f b53e f694 953e
00000060: 475f d03e 2aad e63e 54af c73e 01a1 d13e
00000070: ab17 c43e 2878 4b3e c483 953e b01d b83e
00000080: 83f2 be3e f94e e03e 7eac b53e 2fd2 a73e
00000090: c377 223e ed0c dd3e 7a0f 8c3e 3699 cf3e
000000a0: 2346 883e 0dee f93e a05d b73e eff3 ef3e
000000b0: 26d0 ce3e 368d 743e d8a4 673e fe0c d33e
000000c0: 2f85 ab3e de36 bb3e 185e 813e 200b 8d3e
000000d0: 26e5 e63e a6cc b13e 450b ae3e 9617 aa3e
000000e0: 0d10 ea3e 99c4 e53e a2bd fc3e 30e2 c43e
000000f0: 3c2a a23e 3514 a43e 3326 893e 70fc b93e
0.44637308 0.36715746 0.14795427 0.40125376 0.3062873 0.38161993 0.30489066 0.31116727
0.35495126 0.29187098 0.32645732 0.30699617 0.31628716 0.4723914 0.4183065 0.34510043
0.31507728 0.34024295 0.37264836 0.35453486 0.25936592 0.3628447 0.35436687 0.2921521
0.4069769 0.4505399 0.39000952 0.4094315 0.38299307 0.19870055 0.29202092 0.3596015
0.37294397 0.4381025 0.35483164 0.32777545 0.15865998 0.43173924 0.27355558 0.40546578
0.2661601 0.4881443 0.35813618 0.46865794 0.4039318 0.23881993 0.22621477 0.4122085
0.3350005 0.36565298 0.252671 0.2754755 0.450967 0.34726447 0.33992973 0.3322112
0.4571537 0.44876555 0.49363428 0.38453817 0.31672847 0.32046667 0.26786956 0.36325407

numerical_net.6.running_var f4 [64]
00000000: b4c6 173f 773d c93e 8ee0 053e 3f66 de3e
00000010: fcb1 603e fcbe 0f3f 63dc 5d3e cdbb 663e
00000020: b9a5 b53e 1d30 df3e 56ef c93e de51 993e
00000030: da64 ae3e 1f2e bf3e 1030 a33e 6934 c53e
00000040: 3244 893e 0b8d 973e 8e3f df3e 1e25 9c3e
00000050: 506f 163e 2526 a73e a039 913e 7efd 243e
00000060: a260 7d3e 87c1 dd3e 10aa b53e 9cb8 e63e
00000070: aa00 723e a777 173e 1633 8f3e f5ad 9f3e
00000080: c72d 9c3e da31 b23e 0003 8d3e 1bc7 573e
00000090: 0530 543e e97e c03e 5654 ce3e 582f fb3e
000000a0: 0a81 5b3e 86ec fb3e 67f8 db3e ff3a dd3e
000000b0: c0cd b63e c4ca 3f3e 9008 8a3e ef0e a33e
000000c0: 8a55 573e 6abf 0b3f a790 b13e e498 783e
000000d0: 2c83 5b3e 2ed7 ad3e 44e0 753e 21d6 c43e
000000e0: 7b2c f13e 56d1 f03e 6074 0a3f 16f7 e53e
000000f0: a438 923e 3e27 833e 087c c63e 5085 a83e
0.5928757 0.39304706 0.13073942 0.43437383 0.21942896 0.56150794 0.21666102 0.22532578
0.35478 0.43591395 0.3944041 0.29945272 0.3406132 0.37339875 0.31872606 0.38516548
0.2680984 0.29599795 0.43603176 0.30497068 0.146909 0.3264629 0.28364277 0.16112325
0.24743894 0.43311712 0.3548131 0.4506272 0.23633066 0.14791737 0.27968663 0.31187406
0.30503675 0.3480366 0.2754135 0.21072046 0.20721443 0.37596825 0.40298718 0.49059558
0.21435943 0.4920389 0.42962953 0.43209073 0.3570385 0.18729693 0.26959658 0.3184733
0.21028724 0.5458895 0.34680673 0.24277073 0.21436757 0.33953232 0.24011332 0.38444617
0.47104248 0.4703471 0.54083824 0.44915074 0.28558838 0.25615877 0.38766503 0.3291421

title_net.0.weight f4 [128, 200]
00000000: a30a 2b3c bfd8 2e3d 2c6a 8bbd 3489 07bc
00000010: 3607 013d 8657 fd3c 20e3 01bd fedf 8bbd
00000020: b2a6 333d d8ef bb3b ebf9 c9bd f8ec d5bc
00000030: 1599 83bc 54c2 813c 5c64 323c 67dd 81bd
00000040: 1a2b 59bd a7eb 8c3c 2f42 653d 916f a73d
00000050: f100 42bd 7dc4 653d 9e94 40bd 70ca e93c
00000060: 0f97 80bd 771a 50bd 1442 84bc 3870 26bd
00000070: 04fa 083d a9fa 89bd 1ffd c3bd 4b29 41bc
00000080: 8130 a2bc 5a2f 17bd d703 423d e3ba ff3c
00000090: 01ee 243d 5ea3 933d ece3 bebd 9fc7 993d
000000a0: 9bd3 a6bd 16cc 043d 37ce 3ebb 00f7 d2bb
000000b0: e403 593d 1a87 73bc 9fe6 74bc cb71 59bb
000000c0: a003 b7bd 8569 4d3d 54fe ab3d bfd7 cabd
000000d0: 44ac 3abe 4ed8 8dbc c2b8 e43c 83fe 583d
000000e0: 78fa 95bd 4d3c bd3d 3dde 32bd c95e 243d
000000f0: c0fb 0d3e 9607 8f3d 6661 293b 32a3 183d
00000100: 15ac 883d bdf3 a7bd 2975 0a3d d136 59bd
00000110: d027 093d e56d 7a3d 5879 a7bc bee1 bd3c
00000120: c3cc 003d 66a4 6abd 5cda cbbd 7029 843d
00000130: 8fc8 8ebd 8d3d 9f3c 4e3e aebc ee36 bfbb
00000140: e9ac ae3c bcc4 13bb 40bc e43d 08e0 d1bd
00000150: 2620 53bd 15be 12bd d4a3 683d 403d 843d
00000160: eae2 9b3d cab6 aa3d 6722 693c 4b73 fcbc
00000170: 6e3a 77bd 5ae2 a53c c46c f83b d361 ac3d
00000180: 533e b03c 1790 453d d7e0 11bd 7159 6dbd
00000190: 868b b13c 22c5 55bd 2715 39bd ade0 c7bc
000001a0: 846e 53bc 34ed 85bd dd73 eb3c a0e2 91bc
000001b0: 7e8f cfba 463a d23d c77f 893d 10f9 ce3c
000001c0: 3e98 703d 0534 dcbd e24c ebbc bdf3 c0bd
000001d0: 67e2 29bc c67d b93d 5a72 b0bc 47d4 44bc
000001e0: 93c3 b63d f4dc 053d 3d5c 97bb d53f f43c
000001f0: ec7e 6b3c 90ab 4d3d fd21 70bd a08a d93c
00000200: cfad fd3b 34e0 cb3c 2eaa 393d db63 7e3c
00000210: 5a46 a7bd 89e8 eebc 573d 303d 6dd7 933d
00000220: d080 033d 97f2 4b3d f811 133c ed3c e0bb
00000230: 65b4 073e 487a 06bd be0e 2e3d 0514 c4bc
00000240: 37c8 353d e0a4 e9bc 4549 0b3d cf6a 13bd
00000250: 7104 23be 194d 8e3d 8404 56bd 1de2 10bd
00000260: 7f10 d0bc 83bf 47bd ca1f 26bd bbb6 a5bc
00000270: 78b3 aabd bebd 89bd 0083 a73c 309d 183c
00000280: 7838 0bbd ffed 16bc 87ca 10bd ba5f 93bd
00000290: 91f0 febc cffb fb3c 67c3 9abc f080 c1bd
000002a0: a95f ab3d 9718 93bb c69d cb3d 2403 62ba
000002b0: f2b5 c2bc 9ca9 9a3d 6ea2 d93d 9979 a43c
000002c0: 2e19 2abd ee7d 893c ce86 fbbc 2646 ba3d
000002d0: 3a55 81bd c671 c53c 45cf af3d 52b4 0e3e
000002e0: a855 3b3d 6b28 62bb 4e00 f0bd 0272 7a3d
000002f0: 4bf9 363d e4e0 21bd eb5d 873d 649f 4b3d
00000300: 0c55 1abb 36e5 79bd 1a2d cd3c 081c cbb9
00000310: 6079 913c 82d1 23bd 66f0 d53a 78c8 b33c
00000320: 6c43 7bb9 408a b9bc 2413 2ebd e471 26bb
00000330: d256 cc3d b93e 993d 74eb 7dbc 257b b3bc
00000340: 0d11 c9bd 92a2 8dbc f87b af3c 4e36 49bd
00000350: e0ee 99bd 1701 1cbd 1c93 a2bc b004 073c
00000360: fe1d bb3c bda1 07bd 555e 5a3d d87a bb3d
00000370: f6d6 5cbd 7eec 35bd b28b 8ebd 07ce adbd
00000380: ae04 5e3d 04a2 ebbc 0632 c3bd 20ba e5bd
00000390: efc5 e5bc 8fc7 9cbd 9d1e 67bd a486 afbc
000003a0: a0b5 653c cf4b f03c 7846 973a 539e 273c
000003b0: 96f5 5bbc 6ec9 ed3c 2040 b6bd 4ea1 eabd
000003c0: 9775 643c 8e4c f1bc a46b c23d f47b 8bbc
000003d0: d6d6 913b 34c2 cc3d c44b 61bd b76d 65bd
000003e0: 5bc8 aebd ca24 153d cf91 e4bd de58 d9bd
000003f0: 027c 523d 8c35 993c d9df 4dbd 1d26 753d
0.010439548 0.042687174 -0.0680736 -0.008272458 0.031501018 0.030925523 -0.031710744 -0.068298325
0.043860145 0.0057353787 -0.09862121 -0.026113972 -0.016064206 0.015839733 0.010888185 -0.06341057
-0.05301962 0.017202212 0.05597132 0.081755765 -0.04736418 0.05609559 -0.047016732 0.028538913
-0.06278812 -0.05080649 -0.01614479 -0.040634364 0.03344156 -0.06737263 -0.095697634 -0.01178963
-0.01979852 -0.036910392 0.047366943 0.031217044 0.04026604 0.07208894 -0.093208164 0.07508778
-0.08145829 0.032421194 -0.0029114613 -0.006438136 0.052982226 -0.014863754 -0.0149475625 -0.0033179398
-0.08936238 0.05014946 0.083981186 -0.099044316 -0.18229777 -0.017315056 0.02792013 0.052977096
-0.07323164 0.09240017 -0.043668974 0.040129457 0.13865566 0.06983869 0.0025845408 0.03726501
0.06673447 -0.08200786 0.03380314 -0.053030793 0.033485234 0.06113996 -0.020443603 0.023178931
0.031445276 -0.05728569 -0.09953758 0.06453216 -0.06971847 0.01943853 -0.021269944 -0.0058354056
0.021322684 -0.0022547683 0.11168718 -0.10247809 -0.05154433 -0.035825808 0.056796864 0.06456995
0.0761164 0.083356455 0.014229394 -0.030816695 -0.060358457 0.020249534 0.0075813252 0.08417096
0.021514094 0.048233118 -0.035614815 -0.057946626 0.021672975 -0.052189954 -0.045186188 -0.024399126
-0.012904767 -0.065393835 0.028741771 -0.017808259 -0.0015835611 0.10265021 0.06713825 0.025265247
0.05873894 -0.107521094 -0.028723184 -0.094214894 -0.01036892 0.090571925 -0.021538902 -0.0120135015
0.089240216 0.03268142 -0.00461915 0.029815594 0.014373522 0.050212443 -0.058626164 0.02655536
0.007741667 0.024887182 0.04532831 0.015526737 -0.08167715 -0.029163616 0.04302725 0.072188236
0.032105267 0.0497919 0.008976452 -0.0068432004 0.13252409 -0.03283146 0.042494528 -0.023935327
0.044380393 -0.028521001 0.034005422 -0.035990532 -0.15919663 0.06948299 -0.0522504 -0.03537189
-0.025398491 -0.048766624 -0.04055766 -0.020228734 -0.08335012 -0.067256436 0.020448208 0.00931482
-0.0339894 -0.009212016 -0.035349395 -0.07195993 -0.03112057 0.03075972 -0.018892003 -0.09448421
0.08367855 -0.0044890153 0.09942202 -0.0008621684 -0.023768399 0.07551882 0.10626684 0.020077514
-0.04152792 0.01678368 -0.030703928 0.09095411 -0.06315084 0.024102103 0.085844554 0.13935974
0.045735985 -0.0034508954 -0.11718808 0.061143883 0.044671338 -0.039521113 0.0660971 0.049712554
-0.0023549227 -0.06100961 0.02504592 -0.00038740062 0.017758071 -0.039994724 0.0016322255 0.021946177
-0.00023962342 -0.02264893 -0.042498723 -0.0025397474 0.09977497 0.074826665 -0.015498031 -0.021909306
-0.09817705 -0.017289434 0.021421418 -0.049124055 -0.07516265 -0.038086977 -0.019845538 0.008240864
0.02284145 -0.03311323 0.05331262 0.0915429 -0.05391594 -0.04441499 -0.069602385 -0.08486562
0.05420368 -0.028763779 -0.095310256 -0.11217141 -0.028048484 -0.0765525 -0.05642568 -0.021426506
0.014020354 0.029333023 0.0011541387 0.0102306185 -0.0134252515 0.029026713 -0.088989496 -0.11456548
0.013944051 -0.02945545 0.09493187 -0.017026879 0.0044506593 0.09997979 -0.055003896 -0.056012835
-0.085343085 0.036412038 -0.11160623 -0.10612653 0.051387794 0.018702291 -0.050262306 0.0598508

title_net.0.bias f4 [128]
00000000: a443 58bd 7a66 ff3b 3b80 063d d42e 08bd
00000010: 38ae b5bc fea9 00bd 163c 053d 7a0f 6cbd
00000020: f817 1bbd 0a9d 933d 3375 bebc a0f1 5abd
00000030: 32c6 1ebc a154 21bd 8354 ab3c e397 a8bd
00000040: da38 ed3c 21d4 86bd 32f0 25bd 7d62 a0bd
00000050: 896a 18bd d7f4 b2bd 22a2 003d 1e41 3a3d
00000060: f28a a73d b346 25bd f7a0 803c 3d64 763d
00000070: 951c 423d 5a3b 483d 0070 4cbd 79eb 293d
00000080: 9e31 523d e42d a6bd 5905 4dbd d919 39bd
00000090: b6ec b6bd a24d 8dbc 06ff 983d e40d 20bb
000000a0: 59e8 383d e980 8c3d 96d9 95bd 7279 1d3d
000000b0: 6c7b cb3d a2d8 6c3c 17d7 44bd cfbc 133c
000000c0: 28f9 26bb d8c1 4dbd b03d aebc 9bfc 8c3d
000000d0: 5e39 9e3c 44dd 6a3d 082f 43bd c4d5 1d3d
000000e0: b176 5fbd ae95 df3c 5ca3 203d 22a7 13bd
000000f0: b1b7 0e3d 765e f93c 7d5b 40bd 2faa a1bd
00000100: 4c90 543d b3c2 babb ff00 2ebc 98ca ae3c
00000110: 19a6 513d 6f42 0d3c c897 163b 1f17 1cbd
00000120: f71a 0abd 5341 293d 658e e63c e22c 8abc
00000130: b8aa 333d 5d6f aa3c d01e bb3d 1e2f 3b3d
00000140: 6a1e b23d 93b1 803d ad1a 2cbd 9cd7 f8bc
00000150: 11de 3ebd bcae 0c3d ec67 34bd 4e86 12bd
00000160: 2578 29bd 6a60 6b3d 44b4 a8bc 965c 28bd
00000170: c25e 313d 49d7 623c 9c3a 9e3d d437 213c
00000180: bb72 11be 6bbd 66bd 9ec0 543d c6f2 74bd
00000190: d8ce 8abc fb90 ee3c f9c0 debc 98de dabc
000001a0: 8835 7cbc e848 563d 25d2 a5bd 63e9 bd3c
000001b0: a539 64bd df7f 3c3d daad 5e3c 2c3a 32bd
000001c0: 1e05 7d3d f5b1 563d b5c0 e83a 3f6b a83c
000001d0: 7e19 843d c09b 153d 2c02 66bd 14d2 9f3d
000001e0: 03d6 8fbc 432e 9d3d d3a4 7d3d 28f8 313d
000001f0: 6a88 a73d 5178 70bc 9c5c 4dbd 5954 aa3d
-0.052798882 0.0077941986 0.032837134 -0.033247784 -0.0221778 -0.031412117 0.032528006 -0.057631947
-0.037864655 0.07207687 -0.023249244 -0.053453088 -0.009690808 -0.03938735 0.020914322 -0.08232095
0.028957773 -0.06583429 -0.04051227 -0.07831285 -0.037210975 -0.08738106 0.031404622 0.045472257
0.081807986 -0.040350627 0.015701754 0.06015419 0.04739054 0.048884727 -0.0499115 0.04148433
0.05131685 -0.08114222 -0.050053928 -0.045190666 -0.08931868 -0.017248932 0.07470517 -0.0024422342
0.04514346 0.06860525 -0.07316892 0.038445897 0.0993565 0.014455946 -0.04805669 0.009017183
-0.0025478099 -0.050233692 -0.02126965 0.06884118 0.019314464 0.05733992 -0.047652274 0.03853394
-0.054556552 0.027293053 0.03921829 -0.036048062 0.03484315 0.03044055 -0.04696225 -0.07893788
0.051895425 -0.0056994795 -0.010620355 0.021336839 0.051183794 0.008621796 0.0022978652 -0.038107987
-0.033717122 0.041322064 0.02814407 -0.016867105 0.043863982 0.020805055 0.091367364 0.04569923
0.08697207 0.062838696 -0.042017628 -0.030376248 -0.046598498 0.034346327 -0.04404442 -0.035772614
-0.041374344 0.057464994 -0.02059377 -0.04110392 0.04330326 0.013845273 0.077260226 0.009839971
-0.14203922 -0.056332987 0.051941507 -0.05980184 -0.016944334 0.029121866 -0.027191626 -0.02671747
-0.015393622 0.052315623 -0.080967225 0.023182577 -0.055719037 0.046020385 0.013591254 -0.04351251
0.06177246 0.052415807 0.0017757626 0.020558951 0.06450175 0.036525488 -0.056154415 0.07803741
-0.017558103 0.07674839 0.061924767 0.04344955 0.08180316 -0.014677123 -0.050137147 0.08316869

title_net.2.weight f4 [128]
00000000: b58e 7f3f de8f 813f e2c4 733f 1318 803f
00000010: ad9b 703f 98d3 843f 8698 803f 5db9 823f
00000020: 5de2 713f 0175 793f af0d 803f 4781 733f
00000030: 5619 853f 591b 813f 42fc 7d3f d957 783f
00000040: ba86 743f f894 713f 24e3 7e3f 1498 7f3f
00000050: af2e 783f 0bd3 7a3f dff0 7a3f 6893 6e3f
00000060: 709b 7d3f 4adc 723f c21d 7a3f b339 7e3f
00000070: 5827 7b3f 3f6a 743f 53c2 743f c397 813f
00000080: 70de 793f 1927 7e3f fa11 843f 974d 823f
00000090: f589 7e3f 88fc 723f d8e7 7a3f bac9 793f
000000a0: 1d7d 743f 82e3 743f 2525 733f 20c3 843f
000000b0: a3ee 733f 08da 843f 46e3 813f 1afc 813f
000000c0: e0b7 743f ee88 833f a955 863f 9fad 813f
000000d0: cd1c 753f 07e7 803f bdf9 803f bb0c 7c3f
000000e0: 6342 733f a109 6c3f 50eb 7c3f d854 733f
000000f0: 11c4 843f 1e79 6d3f 5a4c 793f 4c0d 733f
00000100: 49a8 783f 323e 7a3f 36a5 7f3f 675d 7a3f
00000110: c571 813f a3fe 813f 86f8 833f 3f3f 7d3f
00000120: 3240 793f d7a3 823f 7859 7a3f 775f 823f
00000130: 94de 793f 0d17 773f 81dd 783f d155 823f
00000140: 0ed5 7a3f c9b3 783f c5d0 823f 1139 6d3f
00000150: 7393 823f bc49 753f e922 793f ca9c 7b3f
00000160: 2b22 783f fc21 7a3f cefd 723f c14a 7b3f
00000170: 8686 753f 580b 7b3f c967 833f 81fe 773f
00000180: df97 7a3f 6d41 853f ec4e 833f cac8 853f
00000190: c2a4 7f3f 1875 7b3f dd4f 773f 6bbd 813f
000001a0: 3db9 793f cf70 853f c500 7e3f 3d1e 7c3f
000001b0: 7695 7c3f 7ce0 7b3f 73a3 713f 1f75 763f
000001c0: 1dd0 823f 02e7 823f b154 7c3f 7e00 743f
000001d0: 6ea3 793f fec2 7d3f 5978 703f 1f04 833f
000001e0: ef8f 743f a52d 743f 5f9d 833f 885f 733f
000001f0: e1ff 793f 8c98 813f ab4f 6e3f c835 703f
0.9982713 1.012203 0.95222294 1.0007347 0.9398754 1.0377073 1.0046546 1.0212818
0.9448603 0.9744416 1.0004176 0.95119137 1.0398357 1.0086471 0.9921304 0.97009045
0.95518076 0.94367933 0.9956534 0.9984143 0.96946234 0.97978276 0.9802379 0.93193674
0.99065304 0.94867384 0.97701657 0.9930679 0.9810691 0.9547462 0.95609015 1.0124439
0.9760504 0.9927841 1.0317986 1.0179929 0.99429256 0.9491658 0.98010015 0.97573435
0.9550341 0.9565965 0.94978553 1.0372047 0.95286006 1.0379038 1.0147483 1.015506
0.9559307 1.0276163 1.0494891 1.013111 0.9574707 1.0070504 1.0076214 0.98456925
0.95023173 0.9220219 0.9879656 0.95051336 1.0372335 0.92762935 0.9738213 0.94942164
0.9713178 0.9775115 0.99861467 0.9779877 1.0112845 1.0155834 1.0310218 0.9892463
0.9736358 1.020625 0.9779277 1.0185384 0.9760525 0.9651955 0.9721299 1.0182439
0.97981346 0.9714933 1.0219961 0.926652 1.0201248 0.95815635 0.97318894 0.98286116
0.96927136 0.97708106 0.94918525 0.9816094 0.9590839 0.98064184 1.0266048 0.9687272
0.97887987 1.0410591 1.025846 1.0451901 0.99860775 0.98225546 0.96606237 1.0135931
0.97548276 1.0425051 0.99219924 0.9848364 0.9866556 0.9838941 0.9439003 0.9627246
1.0219761 1.0226748 0.9856673 0.9531325 0.97515 0.9912566 0.93933636 1.0235633
0.95532125 0.9538215 1.0282401 0.95067644 0.97656065 1.0124679 0.93090314 0.93832064

title_net.2.bias f4 [128]
00000000: c518 4fbd 5162 4c3c 2555 f53c a1da 623d
00000010: a3e2 87bb fd0d 393c 81f9 c5bb b19b f2bc
00000020: 04bf 363d 537c 18bd fd07 813d 0a0e c23c
00000030: 1f8f 2c3d d304 27bb fdf9 013d 1a47 09bd
00000040: f8ad 813c ebfa 8dbc 772d 87bb 4966 453b
00000050: a64e bfbc 4739 55bd f0ae 33bc 1184 7e3c
00000060: 93f9 f2bb 6c78 16bd 97ef a0bc fe0b 91ba
00000070: 1ab1 44bd 1cc2 f339 4a2e bcbb a6b5 a23b
00000080: b63a e2bc 897e 03bd d90a b53b 8758 ed3c
00000090: ae25 1f3d 5077 993c 55c6 25bd 7f04 5dbd
000000a0: 66a0 913c 6228 bfbb 98d2 a1bc 3796 eebb
000000b0: fb45 f7bc 342e 3fbd 1f8f 3abd e178 493b
000000c0: 4385 563d 67f3 7c3c 1229 45bd dd6f 44bd
000000d0: 6562 2ebd 2b30 523c 7ac1 f93a aef6 dbbc
000000e0: 065a 1ebd 2f2a 963d e41c 573c f5ab 01bd
000000f0: ef49 abbc 2bb2 663c 0240 dcba 9f52 66bc
00000100: 7538 653d b6d6 403c 9e65 123d 6b27 28bd
00000110: 27d4 793c 6c1a 28bd 0fa4 c73b 93f4 e3bc
00000120: 2b1f 323d c06e 86bc a044 333c e666 573d
00000130: 7483 00bd 02fe b03c b359 cfbc e805 6ebc
00000140: 19ae 15bc a505 93bc 50cd 8ebc 5dec acbb
00000150: e388 973c 8660 8a3c b447 6dbc 1ba9 14bd
00000160: 0eb2 24bc 805d eebc f8cb ac3b 63fc 54bb
00000170: 8f7e 13bd 6545 9c3b 1d70 723c e2e7 24bb
00000180: b1af 03bd a557 53bb 7547 bb3a 7e24 093c
00000190: 7d71 be3b 4cdb 19bb f472 0fbd 3d3d 62bc
000001a0: 505f 4c3d db89 4c3b 441f c83c 4244 703c
000001b0: d1e1 59bd 21cf 853c 5ed4 9dbc 2857 07bd
000001c0: 6185 83bd 5997 d63c a742 1bbc 427d 0cbd
000001d0: cbe1 683d 7a01 a2bc 4cc5 17bd 7b18 883c
000001e0: b337 823c c427 2abc 5d13 ca3c 11f0 15bd
000001f0: 93ff 833d debe b2ba c193 a8bc f691 1f3d
-0.05056073 0.012474612 0.029947827 0.055384282 -0.0041468902 0.011294839 -0.006041706 -0.029615255
0.04461576 -0.03722794 0.06300352 0.023688335 0.04212868 -0.0025485053 0.031732548 -0.033515073
0.015830025 -0.017331561 -0.004125293 0.003012078 -0.023352932 -0.052056577 -0.010967001 0.015534417
-0.0074150055 -0.036735937 -0.019645495 -0.0011066196 -0.04802046 0.00046493195 -0.005742823 0.004965502
-0.027615886 -0.032103095 0.005524975 0.028972877 0.038854294 0.01873365 -0.040472347 -0.053959366
0.01777668 -0.0058336714 -0.01975374 -0.0072810906 -0.030184736 -0.046674922 -0.045546647 0.0030742215
0.052373182 0.015438891 -0.04813487 -0.047958244 -0.042574305 0.012828867 0.0019054853 -0.026851024
-0.03866007 0.07332265 0.013129447 -0.03165813 -0.020909278 0.0140805645 -0.0016803744 -0.014057784
0.055962045 0.011769941 0.03574144 -0.041053217 0.015248335 -0.041040823 0.0060925554 -0.027826583
0.043486755 -0.016410232 0.010941654 0.052588366 -0.031375363 0.021605495 -0.025311327 -0.014527775
-0.009135746 -0.017947027 -0.017431885 -0.0052772 0.01849789 0.01689173 -0.014482427 -0.036294084
-0.010052217 -0.029097319 0.0052733384 -0.0032499067 -0.036009368 0.0047690147 0.014797238 -0.0025162627
-0.032149974 -0.0032248285 0.0014288264 0.008370517 0.0058118687 -0.0023476658 -0.035021737 -0.013808546
0.049895585 0.0031210098 0.024428971 0.014664711 -0.05319387 0.016334118 -0.019266304 -0.033042103
-0.064219244 0.026195215 -0.00947634 -0.034299143 0.056855958 -0.019776095 -0.03705339 0.016613236
0.0158957 -0.010385457 0.024667436 -0.0366059 0.06445231 -0.0013637205 -0.020578267 0.03895756

title_net.2.running_mean f4 [128]
00000000: b2cb a13d 2566 a03d efc9 d23e f676 003f
00000010: 4149 b93c fe55 a63e 61cd fc3a c76d f83c
00000020: 82ee 483d e352 743c 4c6e fd3e ee80 c83e
00000030: c342 f43e c722 b03e 74ce 943e a4c8 fb3a
00000040: 6870 aa3d b4e3 ba3a a7ff 573d d54e f03b
00000050: ae57 dd3c 60ae ac3a cc33 583d 6542 1d3f
00000060: 9f3a ce3b 8a8c ac3e 5b92 a23e f196 553d
00000070: 6dbd dd3b 27b3 873d efb8 213f ddf3 fe3e
00000080: 1b9a 2f3e 3026 3a3e 8b3f 033f 235e e83b
00000090: e01b e63c 635c e53d 9a26 723c 3f31 043e
000000a0: b077 423e 8777 103d ca95 143b e811 083e
000000b0: 45b7 803c 118b 493d d7d8 733d 5033 013f
000000c0: dc5b 013f 11b8 073f a60f d33c e871 063d
000000d0: e8c2 213c 2689 f03a 9dee 6d3b 9f36 f93d
000000e0: d36d 5b3d 0b79 233f c526 673e 8dec 1a3d
000000f0: 3470 653e 0ec6 823b 0be1 de3e 5326 d63b
00000100: d870 3f3f b8d4 d93e afe0 8e3c ec94 b53d
00000110: 1d77 a03c ba88 503d f71b 173f d4b3 0b3f
00000120: 0b34 b23e ff3f 4d3d 35f1 c73c 113c 143f
00000130: e138 843c 3ad9 e73c 9b2c 8b3e ed9d 883c
00000140: 38dc c53d 0e11 e93b da57 063f e64b 823b
00000150: 1d63 1b3f 7db8 ad3d a9d5 3f3e a2aa cf3c
00000160: 722f ff3e 4e8b 7d3d 31f6 bb3c 57e1 193d
00000170: de59 0a3d dc58 853e e30a 513e abee d23c
00000180: 866b 7d3a 2876 813a 5e58 833d 2d43 ed3e
00000190: 58a0 133f a4e5 883d 9ff8 743c afa3 343d
000001a0: 13b5 1b3f b426 e83e be5a e13a e40c 1c3d
000001b0: b6da 793c a98d ff3e b751 b13d 584d c13c
000001c0: d3db 433e 6c33 a33c c7ef 2c3e 74b9 a53b
000001d0: a33e dd3e bfe0 7b3c f212 823b ad5d 7e3e
000001e0: b621 5f3d 7f5a c23d f6ab 0d3f 9fe8 c93c
000001f0: c9c0 ff3e a18d 413d a5a4 c53d fbed 0f3f
0.0790018 0.078319825 0.41169688 0.5018152 0.022617938 0.32487482 0.0019287282 0.030325783
0.049055584 0.01491234 0.49498212 0.39160866 0.47707185 0.34401533 0.2906376 0.0019209576
0.08322221 0.0014258535 0.052734043 0.0073336163 0.027019348 0.0013174526 0.052783772 0.61429435
0.0062936093 0.33700973 0.31752285 0.052145902 0.006766966 0.066259675 0.6317281 0.49795428
0.1714863 0.1817863 0.51268834 0.0070913 0.028089464 0.11199262 0.014779711 0.12909411
0.1899097 0.03527024 0.002267229 0.1328808 0.01571239 0.04920489 0.059532966 0.5046892
0.5053079 0.5301524 0.025764298 0.032823473 0.009873129 0.001835142 0.0036305555 0.12168621
0.053571533 0.6385657 0.22573383 0.03782325 0.22406083 0.003990895 0.4353107 0.0065353303
0.7478156 0.42545104 0.017441122 0.08866295 0.019588048 0.050911643 0.59027046 0.5457127
0.3480533 0.05010986 0.024407009 0.57904154 0.016140403 0.028301824 0.2718247 0.016676867
0.09661144 0.007112629 0.524778 0.003976333 0.6069811 0.08482454 0.18733849 0.025349919
0.49840885 0.06190043 0.022944542 0.037568416 0.03377711 0.26044357 0.20414309 0.025748571
0.00096672063 0.0009877132 0.06413339 0.46340314 0.5766654 0.066844255 0.014951854 0.044101413
0.6082317 0.45342028 0.0017193181 0.03809823 0.015249899 0.49912766 0.08658164 0.02359645
0.19126825 0.01992198 0.16888343 0.005057508 0.4321185 0.015373408 0.0039695436 0.24840422
0.05447551 0.09489917 0.55340517 0.024647055 0.4995177 0.04725421 0.09650544 0.56222504

title_net.2.running_var f4 [128]
00000000: 2806 5e3c c603 d93c 51cc 693d 7f18 a03d
00000010: 19cb 913b 0530 6a3d 00c2 203a 1c89 a63b
00000020: 7176 173c 63fc 733b 010f 9e3d 3fbd 8a3d
00000030: 78a3 953d 1c9b 753d b047 0a3d 7acd 0e3a
00000040: c7f8 6b3c b7a3 053a 2dd4 d13b 4e61 de3a
00000050: 609d 0d3c 02bb c539 8194 4d3c dab5 a63d
00000060: abcd b33a 31e8 103d 28e9 253d c4a7 8b3c
00000070: c052 fc3a 26bf 833c 2cd1 923d cf0e a93d
00000080: 9bd6 a63c ad54 e93c d3ad a63d 65a5 d23a
00000090: 4c39 cb3b 0eeb a83c 666d 2d3b d7bf 073d
000000a0: b44e aa3c 9e03 0b3c cabf f839 26fb ed3c
000000b0: b7e0 653b 0ea4 8b3c 28d6 503c b2b6 963d
000000c0: b0f5 953d 5bac ae3d 598f 043c afa1 eb3b
000000d0: e27b 383b 53be d039 6645 853a f8ca 023d
000000e0: 78c8 273c 532c 903d fe55 023d eacb 343c
000000f0: 510f 5d3d a04c a93a 89e4 913d b7fe b23a
00000100: 690d 883d 9b9d 8d3d 1a5c 7a3b 5883 953c
00000110: f70b a63b 257a 803c 36ba ca3d 8d57 a93d
00000120: ab0d 663d b2b5 773c 7a09 bf3b 2534 ad3d
00000130: 2ea4 4c3b cf18 ef3b 0d02 0e3d 5f7b 773b
00000140: af38 e73c d1e8 de3a 70bf a93d d831 973a
00000150: cba1 c03d 498a 973c 015a 093d b9f7 b33b
00000160: 7601 913d 0c37 313c e3af b73b 4ba8 563c
00000170: 7e18 183c 0204 313d 0a2d 223d 239a 0b3c
00000180: 675f a639 536a ae39 7b30 a53c 2c1d 923d
00000190: 3e89 ac3d efb5 8d3c 97e1 903b 9629 fe3b
000001a0: 5b4f 423d f85c aa3d 61b1 c739 c6db ff3b
000001b0: cbd0 593b 47d1 6b3d a1e1 9b3c e02a 843b
000001c0: c96f 3d3d ee4f 6a3b b456 253d 2600 e93a
000001d0: 42c1 663d 71fc 373b 0b55 a73a b1d5 373d
000001e0: b34c 6c3c b152 573c 19b8 b53d 51ee b43b
000001f0: 26f6 9f3d 0227 743c d2b2 843c e0ed a13d
0.013551272 0.026491057 0.057079617 0.07817172 0.00444926 0.0571747 0.0006132424 0.0050822627
0.009244547 0.0037229292 0.077177055 0.06774377 0.0730657 0.059962377 0.033759773 0.00054474885
0.014402575 0.0005097943 0.006403467 0.0016966255 0.008643478 0.000377141 0.012547613 0.08140154
0.001371791 0.035377685 0.04050556 0.01704777 0.0019250736 0.016082358 0.071688026 0.08254778
0.020366004 0.02848276 0.08138623 0.001607102 0.0062018987 0.020619895 0.0026462912 0.033141937
0.020789482 0.008484749 0.0004744514 0.029050421 0.0035076567 0.017046 0.012746371 0.07359065
0.07322252 0.08528968 0.008090817 0.007190905 0.0028150012 0.00039814654 0.0010167777 0.031931847
0.010240667 0.07039704 0.03182029 0.011034945 0.053969685 0.0012916513 0.07123668 0.0013656233
0.06643183 0.069148265 0.003820187 0.018251106 0.0050673443 0.015683243 0.09898798 0.08268652
0.05616538 0.015119003 0.005829987 0.084572114 0.0031225788 0.0072966586 0.034669925 0.0037762744
0.028225271 0.001700664 0.08288467 0.001153524 0.094058596 0.018498557 0.0335331 0.0054921773
0.07080357 0.010816347 0.005605684 0.013101648 0.009283183 0.043216713 0.039593734 0.008520636
0.00031733068 0.00033267084 0.020164719 0.0713447 0.08424614 0.017298667 0.0044214237 0.0077564223
0.04743896 0.08318514 0.00038088395 0.0078081815 0.0033236023 0.05757263 0.019028487 0.0040334314
0.046249185 0.0035753208 0.04036589 0.0017776533 0.05633665 0.002807405 0.0012766434 0.044881526
0.014422583 0.013142274 0.088730045 0.0055215736 0.07810621 0.014901878 0.01619855 0.07906699
