artifacts/training_runs/run_20250613_134854/best_model.pth (torch, 585269 bytes, 39 tensors)

numerical_net.0.weight f4 [64, 36]
000000 96 e1 d2 3d 6e 4b d0 3d 2b 4f de 3d da 2c 40 3e
       0.10296933 0.10170637 0.10854944 0.1876711
000010 a3 b7 1f be 83 78 bb 3c 54 a6 a3 bc 1a 5c d5 bd
       -0.15597396 0.022884613 -0.019976772 -0.104179576
000020 7e 7d 0d 3e b9 8d 76 bb 3a 8f ec bd b8 06 f2 bc
       0.13817403 -0.0037621094 -0.11550756 -0.02954422
000030 f8 79 d6 bd 09 d3 37 3e 08 82 9b bd 2f 9b 19 be
       -0.104724824 0.17951597 -0.07593161 -0.15000604
000040 6e bc bf 3d 71 cc 0e bd 38 49 f8 bd 23 8e bd 3d
       0.09362112 -0.03486294 -0.1212334 0.09255626
000050 2f db 8f bd 95 0a 95 3d 9b 7a 8e bd 37 b6 ff 3d
       -0.07024228 0.07277409 -0.06956979 0.124859266
000060 12 18 49 3e 2c a1 ce 3d ce 15 92 3d e8 23 6b 3d
       0.19638088 0.10089335 0.07133065 0.05740729
000070 e6 66 92 3d 5f 7d d4 bd f8 62 f4 bd d3 2a ff bd
       0.071485326 -0.10375475 -0.11932939 -0.1245934
000080 8d 43 0e bd db c1 9c 3d db ac b3 bc df dc 37 3c
       -0.03473239 0.076541625 -0.02193301 0.011222093
000090 93 94 94 3c 62 65 e7 3d a3 a7 fa bd 37 8b e1 bd
       0.018137252 0.11298634 -0.122390054 -0.11012881
0000a0 4e 02 cb 3b 3f a0 4b 3e 25 a1 04 3d be 18 5a bd
       0.006195343 0.19885348 0.032380242 -0.053246252
0000b0 dc c8 03 3e 49 a2 0e be 0c ec 3e 3d 0f ee 1a bd
       0.1286959 -0.13929094 0.04661183 -0.037824687
0000c0 36 b7 63 3b c5 e0 2a 3d 31 af c1 bd 84 49 ff 3d
       0.0034746653 0.041718263 -0.09457243 0.12465194
0000d0 9c c8 9b 3d e2 f7 15 be e3 21 16 3e bf 85 e3 3d
       0.076066226 -0.14645341 0.14661364 0.111094944
0000e0 52 ff 0c 3c c8 16 6f bd 1f ec ec bd bb ff b2 3c
       0.008605795 -0.058371335 -0.11568474 0.021850457
0000f0 06 da ba 3d c9 42 2e 3e 5c eb e8 3d 58 b8 b5 bd
       0.09123616 0.17017664 0.11373016 -0.088730514
000100 04 29 38 bd b2 8a d8 bc 05 fc 21 be 52 ce e1 3b
       -0.04496099 -0.026433323 -0.15818794 0.0068910504
000110 a5 93 7d bc 8a 8e b4 bd ad 47 f6 bc 9b b2 da bd
       -0.015477096 -0.0881625 -0.030063475 -0.106785975
000120 6c 13 bc 3d 4a 2a 06 3e 22 97 8e bc a7 00 15 3d
       0.09183392 0.1310207 -0.01740605 0.036377575
000130 7b 1c ff bd 0b 33 40 bd 58 cc 03 bb 25 da c6 bd
       -0.12456604 -0.04692368 -0.0020110812 -0.097095765
000140 e6 b3 e5 bd b4 e0 f4 3c e8 9d 51 3e 4d 7a 3f 3e
       -0.112159535 0.029892303 0.20470393 0.18698998
000150 1e e9 f6 3d dd 63 15 3e 92 29 0f 3e 3c 3f 91 bd
       0.12056182 0.14588876 0.13980702 -0.07092139
000160 44 6c 6a bc 67 70 0a bd 91 a7 2c bc 96 4d f6 bd
       -0.014308039 -0.0337986 -0.010537998 -0.12026517
000170 20 91 56 3d 44 61 4e bd 6d b2 9f bd 28 54 c5 3b
       0.052384496 -0.05038573 -0.07797704 0.006021995
000180 da 0d ed 3d db 52 3e 3e 98 4e 7c 3d bd 6c ef bd
       0.115749076 0.18586294 0.06159839 -0.11690662
000190 e1 a9 97 3d df 53 13 be 04 e1 dd 3d e1 d3 fa bd
       0.07405449 -0.14387463 0.10833934 -0.12247444
0001a0 d8 ce 79 bc 8a d0 88 bd 14 01 29 be 5d 32 f5 bb
       -0.015247069 -0.06680401 -0.16504318 -0.0074828104
0001b0 49 2d 34 3e 83 eb cb bd 72 44 1e be 9a cf db bd
       0.175954 -0.0995703 -0.15455797 -0.10732956
0001c0 4f b4 e3 bd 27 df 89 bc 88 b5 df 3d a7 6e 7e 3c
       -0.111183755 -0.01683004 0.10923296 0.015529311
0001d0 4f 52 f9 bd 3f 65 2f 3e 42 03 f2 bd 6d 54 be bd
       -0.12173902 0.17128466 -0.11817028 -0.09293447
0001e0 57 6c cb 3d f9 dd ee 3d 50 df 1f 3e 2b 90 9a bd
       0.099327736 0.11663432 0.1561253 -0.07547029
0001f0 86 8b 11 3e 98 ec 27 3e 7f 74 f5 bd 92 ae e0 3d
       0.1421338 0.16398847 -0.119851105 0.10970797
000200 7f e7 0f 3d ea 46 07 bd 15 b7 0a 3e fd 25 f9 3c
       0.03513288 -0.033026613 0.13546403 0.030413622
000210 6e 98 bf bd 1f f4 82 3b 2e 8c 9a 3d 8b 3d ca bc
       -0.093552455 0.0039963867 0.075462684 -0.02468755
000220 35 0e c6 bd f8 73 42 bd 3e 51 9d bd 7e 6f b8 bd
       -0.096706785 -0.047473878 -0.07681511 -0.090056404
000230 29 9a f9 3d 70 c0 19 3c 5c 2b 56 3d 2d b2 ce bd
       0.12187607 0.00938426 0.052287444 -0.10092578
000240 3e f0 e7 ba 8c b1 28 bd 32 5a 29 be 7f 75 f6 3d
       -0.0017695499 -0.041184947 -0.16538313 0.12034129
000250 20 05 52 bd 57 3f ae ba f7 8b a2 bd 0e 90 a5 3d
       -0.05127442 -0.0013294023 -0.079368524 0.08084117
000260 4d 56 31 3e 06 c0 c7 3d 54 d5 33 bd 74 32 c3 3d
       0.17318077 0.097534224 -0.043904617 0.095311075
000270 d3 bf 47 be 02 41 c5 3b d2 05 d2 3d 1a 56 33 3e
       -0.19506769 0.0060197124 0.102550164 0.17513314
000280 dc 77 3a 3e 6a 83 07 be 7c 11 09 bd b4 3d bd 3d
       0.18209785 -0.13233724 -0.03346394 0.092402846
000290 74 7e e9 3d d3 89 8b 3c 60 e1 12 3e 37 74 33 bc
       0.11401072 0.017033493 0.14343786 -0.010953001
0002a0 52 fa 5f bd 75 36 ba 3d 9f 76 89 3d 17 bf 5d 3d
       -0.054682083 0.09092418 0.06712078 0.054137316
0002b0 a7 71 86 3d 76 d5 f9 3c 74 13 2d 3d 58 f1 62 3d
       0.06564646 0.030497294 0.04225488 0.055405945
0002c0 15 05 15 3d 2c 3b 32 3d ed b8 f8 bd 75 16 a5 3d
       0.0363818 0.043513462 -0.12144647 0.08060924
0002d0 11 03 c3 bd 06 32 e8 3c 43 40 65 bd 7f 3a de 3d
       -0.09522069 0.028344166 -0.055969488 0.10851001
0002e0 62 87 23 bd 43 1c 69 bd ad 1b 08 bd 26 bf c9 bd
       -0.039924033 -0.056911718 -0.03322952 -0.09850912
0002f0 d9 0a 12 be 10 93 99 3d 74 25 cf bd f0 69 bf bd
       -0.1426195 0.07498753 -0.101145655 -0.09346378
000300 6f 9d 5f be 8a a9 84 3d 94 55 29 3e d0 14 68 bd
       -0.218374 0.064776495 0.16536552 -0.056660473
000310 fa 90 2b 3d f7 14 f2 bc 2e f9 31 bd 8c 34 51 be
       0.041886307 -0.029551012 -0.043450527 -0.20430201
000320 9a 3f 8d 3c 13 a5 ba bc 80 c9 57 be e5 c9 7d bd
       0.017242242 -0.022783792 -0.2107296 -0.06196012
000330 10 ed 5d bd fe 2d 33 bc 00 6a bd 3d d0 6c 57 bc
       -0.05418116 -0.010936258 0.092487335 -0.0131485015
000340 a5 ea 62 bc b1 46 1f 3e 5e f9 59 3d 76 6f 07 3e
       -0.013849889 0.1555431 0.05321633 0.13226113
000350 95 e4 a9 3d 9f 08 4b 3d 91 84 aa 3d 22 ec 72 3d
       0.08295552 0.04956877 0.08326066 0.059307225
000360 5a 6a b3 bd 82 d5 06 be 89 a9 59 3d 7d ee b9 3d
       -0.08760519 -0.13167384 0.053140197 0.09078691
000370 84 9a 79 bd 21 a3 95 3b fb f1 ae 3c 96 5e 05 be
       -0.060938373 0.0045665656 0.02135562 -0.13024363
000380 90 39 ee bb 58 a1 84 bd ba 80 c7 bd 5d 19 99 3d
       -0.0072700456 -0.064760864 -0.097413495 0.07475541
000390 30 bf d3 3d d5 af 95 3d 27 64 b0 bd 50 c3 ad 3b
       0.103392005 0.07308928 -0.086128525 0.005302824
0003a0 98 b0 49 3d 50 76 4d be b2 f3 20 be 3b 81 c9 3d
       0.04924068 -0.20064664 -0.15717962 0.09839102
0003b0 2b 0a f5 bc 49 34 41 3d 81 ad 10 bd 67 16 00 bd
       -0.029912075 0.047169004 -0.035321716 -0.031271365
0003c0 b8 0b c8 3c e4 fc a9 3d 8b 36 e2 bb dd bb c8 3d
       0.02441965 0.08300188 -0.0069034747 0.09801457
0003d0 10 87 32 bd 8b 8e 91 bd 4d 5b dd bc 81 67 df bc
       -0.043585837 -0.07107266 -0.027021075 -0.027271034
0003e0 d8 ae 92 3c 6e aa 8b bd d4 14 2a 3e 0f 2e 3f 3e
       0.017905638 -0.06819616 0.16609508 0.18669914
0003f0 43 02 91 bd e0 42 66 3d 2f 0a 0a 3e 8f 44 d3 bd
       -0.070805095 0.05621612 0.13480447 -0.10315811

numerical_net.0.bias f4 [64]
000000 a5 a9 30 be ca 82 02 3e 92 ba d8 3d 92 d2 0d 3e
       -0.17252214 0.12745205 0.105824605 0.13849857
000010 8e a5 4a 3e d5 42 09 bd 57 fe 66 bd 00 9a 68 3e
       0.19789717 -0.033511 -0.0563949 0.22714996
000020 66 2a 11 be 2f a2 36 3b 8d e2 42 3e 95 b9 08 be
       -0.1417633 0.0027867665 0.19031735 -0.13352044
000030 09 b4 0e 3e 7e df 34 3d bd 08 0e 3e 17 c1 c8 3d
       0.13935865 0.04415845 0.13870521 0.09802454
000040 27 45 34 3e 03 d5 9e bd 07 44 0e be 5e 53 65 be
       0.17604505 -0.077554725 -0.13893138 -0.22395083
000050 ff 5d 4d 3d e7 80 6f bd ab ea ba 3d 1f cb 27 3e
       0.05013847 -0.05847254 0.091267906 0.16386078
000060 36 95 64 3e bd 41 ed bc d4 4e 29 3e f6 4d c2 bc
       0.22322544 -0.02896201 0.16533977 -0.023718815
000070 25 40 34 be e2 f4 f1 bd fd 8a bc 3d b7 82 9b 3d
       -0.17602594 -0.11814286 0.092061974 0.07593291
000080 04 dd 1c be 2f 57 8d bd 51 8c 36 3e f5 44 78 bd
       -0.15318686 -0.069013946 0.17826964 -0.060612638
000090 1a 37 75 bc 1c f2 d5 3d d5 71 6e 3d dd 71 c2 bb
       -0.0149667505 0.10446569 0.058214027 -0.0059339837
0000a0 41 fd 90 bd 8e 48 ce bd 6c 2c 42 be da dd 9e 3d
       -0.07079554 -0.100724325 -0.18962258 0.077571586
0000b0 81 17 ae 3d 87 19 60 bd eb cd 98 bd aa 2d b8 bd
       0.08500577 -0.054711845 -0.07461151 -0.08993085
0000c0 d8 d3 75 3c 16 37 47 bd 2c 68 59 bc fa ad ff bd
       0.015004121 -0.04863652 -0.013269465 -0.12484355
0000d0 93 31 8b 3d 18 f6 85 3d 43 22 eb bc e4 3b 1b 3d
       0.06796565 0.06541079 -0.02870286 0.037898913
0000e0 ac 32 34 3e 8f dd 4a bd 57 8f f4 bc 8c 3c 81 bd
       0.17597455 -0.0495277 -0.029853506 -0.063103765
0000f0 29 a7 db bd f0 8a ef bd e7 1c 75 3d 49 9c 5c bd
       -0.10725243 -0.11696422 0.059842017 -0.053859983

numerical_net.2.weight f4 [64]
000000 50 ec 70 3f e1 35 80 3f 4f c2 7d 3f 5e 83 6e 3f
       0.94110584 1.0016443 0.99124616 0.931692
000010 cf 67 81 3f 61 66 82 3f 21 5a 85 3f e4 4e 81 3f
       1.0109805 1.0187494 1.041813 1.01022
000020 72 d3 7f 3f ac 00 76 3f e4 da 7a 3f 65 00 70 3f
       0.99932015 0.96094775 0.9799025 0.937506
000030 d9 f9 7c 3f d9 5e 79 3f b8 d5 7b 3f 08 c6 7f 3f
       0.9881874 0.9741035 0.98372984 0.99911547
000040 be 07 7a 3f 01 3b 81 3f 7c c2 80 3f 81 ed 7b 3f
       0.97668064 1.0096132 1.0059352 0.9840928
000050 58 71 84 3f 1e 97 7f 3f 10 0d 86 3f 25 c6 7f 3f
       1.034709 0.9983996 1.0472736 0.9991172
000060 20 d9 84 3f 0d b4 83 3f e7 57 6f 3f 1a 25 79 3f
       1.0378761 1.0289322 0.93493503 0.9732224
000070 33 10 6f 3f 21 e8 77 3f e8 d9 79 3f 9e bd 89 3f
       0.93384093 0.96838576 0.97598124 1.0760992
000080 f0 a9 81 3f e3 15 83 3f 58 12 82 3f 22 f1 82 3f
       1.0129986 1.0241054 1.0161848 1.0229838
000090 b7 65 77 3f 6f a2 6e 3f 31 d2 85 3f 0d 3c 76 3f
       0.9663958 0.93216604 1.045477 0.9618538
0000a0 34 60 7b 3f 1b a8 7d 3f 91 93 72 3f 58 5f 84 3f
       0.9819367 0.99084634 0.9475642 1.0341597
0000b0 6a ce 79 3f ac 43 7e 3f 70 19 7c 3f 03 c1 71 3f
       0.9758059 0.9932201 0.98476315 0.9443514
0000c0 ab 81 7e 3f e8 92 79 3f 63 2a 78 3f 29 de 7a 3f
       0.9941661 0.97489786 0.96939677 0.9799524
0000d0 10 33 89 3f ec db 83 3f e0 d2 7a 3f e4 ca 76 3f
       1.0718708 1.030149 0.9797802 0.96403337
0000e0 9c 12 84 3f cf a1 81 3f 89 69 79 3f 40 0f 76 3f
       1.0318179 1.0127505 0.9742666 0.9611702
0000f0 f7 50 75 3f 56 c5 6f 3f 95 4c 77 3f c5 25 83 3f
       0.9582667 0.93660486 0.9660123 1.0245901

numerical_net.2.bias f4 [64]
000000 f1 53 40 bd 10 fa 1e bd 26 85 98 3c 21 43 d0 3c
       -0.046955053 -0.038812697 0.018618178 0.025422635
000010 53 11 9a bc 9a 1f bb ba 29 85 8c bc a1 81 36 3d
       -0.018807089 -0.0014276386 -0.01715334 0.044557218
000020 14 6d 92 bd fa 19 d4 ba 8b 16 0c 3d cd 26 15 bd
       -0.07149711 -0.0016182058 0.034201186 -0.036413956
000030 68 8e 48 3c 16 f7 22 bc 54 17 66 bc 68 47 d8 bb
       0.012240984 -0.009946605 -0.014043648 -0.006600309
000040 b9 7b 4e 3c a6 37 45 3d b1 5f 1a bd 27 93 5d bd
       0.01260274 0.048148774 -0.037688915 -0.054095414
000050 19 84 e2 3c 96 42 4a 3d 06 a0 86 3b 61 6a 96 3b
       0.02765088 0.049379908 0.0041084317 0.004590318
000060 71 84 34 bd 8a ac 6b 3b 3e 04 d8 3b 4f 51 4d 3c
       -0.04407162 0.0035960996 0.0065923026 0.0125315925
000070 18 ab 25 3d 0e 1f b2 bd 6a 4b 18 3c d3 25 62 bd
       0.04044637 -0.086973295 0.009295324 -0.055211853
000080 f6 8e 08 3d 29 05 64 3c 89 3c e0 3c dd 88 19 bd
       0.033339463 0.013917246 0.027372615 -0.03748404
000090 d4 d0 15 3c 51 45 60 bd e5 9c 39 3d bb f2 75 bb
       0.009144027 -0.054753605 0.045315642 -0.0037528712
0000a0 f2 e1 4b 3d 36 e5 44 3d 16 c3 34 3c dd 2d ef bc
       0.049776025 0.048070155 0.01103284 -0.029196674
0000b0 98 99 b6 3c 16 9c 55 bd 7f 1b 05 bd bd c8 7d 3d
       0.022290036 -0.05215081 -0.032496925 0.061959017
0000c0 3a 04 7c bd a1 c7 86 3b 46 2e 16 3d d3 46 c4 3b
       -0.06152747 0.004113153 0.036665224 0.005989888
0000d0 78 52 af 3c 03 5f c1 bc 5e 76 0a 3d 3d 2f ee 3c
       0.021401629 -0.023604875 0.03380429 0.02907526
0000e0 64 8b e7 3c 9e 93 25 3d 93 e7 4b bc 5a 24 8f bc
       0.028264709 0.04042398 -0.012445348 -0.017473388
0000f0 9c 1b 0d bc a5 ac 1a 3d 75 bb 36 3b 09 a8 d5 3c
       -0.00861254 0.037762303 0.002788273 0.026081102

numerical_net.2.running_mean f4 [64]
000000 36 b8 4b 3e b6 79 8e 3e 59 93 a1 3e 72 60 a0 3e
       0.1989449 0.27827233 0.3155773 0.31323582
000010 3a 2f a8 3e 5b ee 40 3e 39 59 5b 3e 0b 5f c8 3e
       0.3284853 0.18840925 0.21420754 0.39135012
000020 07 75 27 3e 4e 43 8e 3e 13 8b a8 3e 5a 43 06 3e
       0.16353236 0.27785724 0.32918605 0.1311163
000030 33 09 83 3e b0 e2 7b 3e 7c 07 a1 3e 69 48 85 3e
       0.25592956 0.24598193 0.31451023 0.26031807
000040 7a aa 8d 3e f2 a3 38 3e 59 0f 3b 3e 56 1b 10 3e
       0.27669126 0.1803129 0.18267573 0.14072928
000050 dd 70 5a 3e 4c 99 69 3e 57 ee 9e 3e 80 43 bd 3e
       0.21332116 0.22812384 0.31041214 0.3696556
000060 d4 d3 ba 3e ec 18 4b 3e 84 40 a6 3e b5 b9 81 3e
       0.36489737 0.19833726 0.32471097 0.25336996
000070 3f 83 27 3e a0 c6 35 3e c5 a5 ac 3e 97 ed 71 3e
       0.1635866 0.1775155 0.33720222 0.2362579
000080 f7 0f 1a 3e fe e6 84 3e 8f 0f e4 3e c6 c7 59 3e
       0.15045153 0.25957483 0.4454312 0.21267614
000090 d9 b9 34 3e bf 60 7f 3e 94 47 81 3e 3b 8c 5f 3e
       0.1764902 0.2493925 0.25249922 0.21830837
0000a0 27 b4 72 3e 9f d1 28 3e 60 22 26 3e b1 3b 94 3e
       0.23701535 0.16486214 0.1622405 0.2895179
0000b0 ac ae 8a 3e 93 fc 59 3e 1b c0 61 3e 79 a5 73 3e
       0.2708639 0.21287756 0.22045939 0.23793592
0000c0 62 8e 98 3e a3 ce 2f 3e f2 93 84 3e 19 32 63 3e
       0.2979613 0.1716867 0.25894123 0.2218708
0000d0 7d 05 6c 3e e5 f4 74 3e fe 41 39 3e 9a a0 60 3e
       0.23048969 0.23921545 0.1809158 0.21936265
0000e0 f9 4e 8d 3e f2 2d 6a 3e 5e 8a 2b 3e 9f a6 84 3e
       0.27599314 0.22869089 0.16752002 0.25908372
0000f0 3b 1d 2a 3e ba 2a 18 3e 52 03 94 3e 4e 1d 84 3e
       0.16612713 0.14860049 0.28908783 0.25803608

numerical_net.2.running_var f4 [64]
000000 a0 05 01 3e 1b 2c 00 3e d8 d7 62 3e a9 a3 43 3e
       0.12599802 0.12516825 0.2215265 0.191054
000010 dc a6 53 3e ff 1d 93 3d 90 92 d8 3d 0e f3 6a 3e
       0.2066912 0.07183456 0.105748296 0.2294428
000020 6c 33 01 3e 63 5d 5c 3e ae 90 35 3e bb 9f 6c 3d
       0.12617272 0.21519999 0.17730972 0.05776952
000030 65 f0 e1 3d 6f 66 3f 3e b1 37 2e 3e c6 95 09 3e
       0.1103218 0.18691419 0.17013432 0.1343604
000040 2e 83 dd 3d 90 fc 0e 3e cb 30 5a 3e 16 6f be 3d
       0.10816036 0.13963532 0.21307676 0.09298532
000050 0b 43 01 3e 4a 17 0d 3e 39 26 0a 3e 47 0a a6 3e
       0.12623231 0.13778415 0.13491143 0.32429716
000060 57 48 3e 3e 99 9d b7 3d f4 42 49 3e 52 52 29 3e
       0.18582283 0.08965606 0.19654447 0.16535309
000070 bc 8e c3 3d 7d 89 de 3d 41 75 4f 3e 5b 74 aa 3d
       0.09548709 0.108660676 0.20259573 0.08322974
000080 99 b8 ab 3d 37 4b 82 3e 2b 06 8d 3e 60 f5 9c 3d
       0.083848186 0.2544801 0.27543768 0.07663989
000090 16 98 a3 3d 17 c7 09 3e 20 38 00 3e 2f 2a da 3d
       0.079879925 0.13454853 0.1252141 0.10652577
0000a0 07 70 0c 3e c2 1a ac 3d b1 b4 b9 3d 93 99 32 3e
       0.1371461 0.08403541 0.09067667 0.17441396
0000b0 6b 1b 09 3e 83 1f ea 3d 43 90 06 3e 7a 83 1f 3e
       0.13389365 0.11431792 0.13140969 0.15577498
0000c0 0c f0 22 3e 6a e9 d0 3d b9 76 14 3e d4 18 09 3e
       0.15911883 0.1020077 0.14498414 0.13388377
0000d0 db 1d 05 3e 2c 7c d4 3d a0 05 ae 3d 36 aa c1 3d
       0.1299967 0.103752464 0.08497167 0.09456293
0000e0 9c 5f bb 3d 28 75 eb 3d 51 31 93 3d 05 16 37 3e
       0.091490954 0.11496955 0.07187141 0.17879494
0000f0 df cb b0 3d 88 9e 8c 3d 46 d3 49 3e d7 ab 2d 3e
       0.08632635 0.06866175 0.197095 0.16960083

numerical_net.4.weight f4 [64, 64]
000000 c9 ca 01 3e e2 c7 29 3e 16 63 d7 3d 40 05 c0 bb
       0.12675013 0.16580155 0.10516946 -0.005860001
000010 ba 18 25 3d 6d b7 6b 3d 95 94 d4 3c 8e 73 96 3d
       0.040306784 0.057547975 0.025949756 0.07346259
000020 f8 28 52 3c db e6 00 3a 70 a9 b2 bd c3 2f 48 3d
       0.0128271505 0.00049172126 -0.08723724 0.048873674
000030 8c fe fb 3d ba 66 e2 bd 3f 0c 39 3d 4c 5e 2b 3d
       0.1230441 -0.1105475 0.045177694 0.041837975
000040 a0 61 11 3e 21 dd 0b 3e ad 1e 5f bd fa 12 ec bb
       0.14197397 0.13658573 -0.054472614 -0.0072044106
000050 9d a7 00 3e 48 9e 8d bd f8 ee 11 3d 66 5f be bb
       0.1256394 -0.069149554 0.03562829 -0.005809712
000060 98 07 94 bc 5f 87 5e 3d 2e 4b b2 3d 48 cd 81 bd
       -0.018070027 0.05432832 0.08705746 -0.063379824
000070 58 8d 7e bd 41 9b ae 3d 28 25 85 bd dc fe 0b be
       -0.062146515 0.08525706 -0.065012276 -0.1367144
000080 f4 68 b4 3d b1 21 2d 3c 59 64 91 bb f6 b9 1f bd
       0.08809081 0.010567115 -0.004437011 -0.038995706
000090 25 7b de 3d 03 0c 3a 3d 6a ed f1 3d c8 99 34 bd
       0.10863332 0.04542161 0.11812861 -0.04409197
0000a0 13 e5 30 3b 9e 57 ae bd b4 af 64 bc bb 89 38 be
       0.0026992008 -0.085128054 -0.0139579065 -0.1802129
0000b0 ee 87 f6 3d 4f 6c 55 bd 59 6b 18 3e df 8d 74 3d
       0.12037645 -0.052105244 0.148847 0.05970561
0000c0 f9 be c7 3d f5 c9 7a bd a3 29 19 be d5 1e 61 3d
       0.09753222 -0.061227757 -0.1495729 0.054961044
0000d0 cd 79 a2 bd 87 a7 4d 3d 34 ea de 3d dd 4e 47 bd
       -0.07933388 0.050208595 0.108845145 -0.048659194
0000e0 77 7f d6 bd b4 d3 ff bd 1f c6 f5 3d 4a e8 04 bd
       -0.10473531 -0.12491551 0.12000679 -0.03244809
0000f0 e1 37 0d 3d fc 6c e6 3d 4f 03 24 3c 63 12 e2 3d
       0.03447712 0.11251256 0.010010554 0.11038663
000100 7a 06 aa bc 21 c1 14 3e 20 a1 c2 bd 89 df 23 3c
       -0.020755041 0.14526798 -0.095033884 0.010002025
000110 fb a2 80 3d 88 d4 1f 3e 25 78 37 ba fd a8 48 3d
       0.06281086 0.15608418 -0.0006998799 0.048989285
000120 c9 d1 d8 bc 3d 11 9d bc bd 40 cf 3d bc 21 cb bd
       -0.02646722 -0.019173259 0.1011977 -0.09918544
000130 bf 21 4a 3d 92 b7 30 bd 43 cb ef 3c 1d c4 c7 bd
       0.04934859 -0.043143816 0.029271727 -0.097542025
000140 4e 6d 18 bd d6 70 d2 3a 63 3f 53 3d 4e 4c c4 bc
       -0.037213616 0.0016055356 0.051574122 -0.023962166
000150 09 4f 78 bc b7 1f 2d bd bc 1e 2f bc d5 45 1a 3d
       -0.015155562 -0.042266574 -0.01068848 0.037664253
000160 0a 73 de 3c 43 31 9f bd d0 f9 a7 3d e1 a2 4d bd
       0.027154464 -0.07773068 0.08201945 -0.05020416
000170 8b ab 02 be 47 ea 95 bd 5e fd 1a bd 07 38 b9 bd
       -0.12760751 -0.073200755 -0.037839286 -0.090438895
000180 7d ee c5 bc 30 c0 cb bc 13 83 8e 3d 45 33 1d be
       -0.024161572 -0.024871916 0.06958594 -0.15351589
000190 2e a3 b6 3b c4 c3 b2 3c 8d 33 05 be f0 aa 90 3d
       0.0055736518 0.021821864 -0.13007946 0.07063854
0001a0 6b 05 29 3c 8a 05 2f bd 0e e7 bf bd 6e d9 aa bd
       0.010316233 -0.04272989 -0.09370242 -0.08342253
0001b0 56 e9 74 3c 30 99 fd bb 59 2a 33 bd 77 74 0a 3d
       0.01494821 -0.0077392086 -0.043741558 0.033802476
0001c0 2f 15 4c 3d e4 9d 3f 3c 05 6e b1 bc 68 c4 b1 3c
       0.04982489 0.011695359 -0.021658907 0.0217001
0001d0 19 ca 10 bd 82 70 f5 bc 41 4c e2 bd 96 8a 9a bb
       -0.035348985 -0.029960874 -0.110497005 -0.0047162278
0001e0 25 62 7e bd a1 c9 1a bd 9b 08 d3 bd de 54 97 3d
       -0.062105317 -0.037789945 -0.10304376 0.07389234
0001f0 88 44 f9 bd f5 e4 86 3b 16 58 65 3d a8 09 0c be
       -0.121712744 0.0041166493 0.05599221 -0.13675559
000200 b1 cf 7f 3d c0 5d aa bd 63 92 39 3d c7 22 87 3c
       0.06245393 -0.08318663 0.04530562 0.016496075
000210 59 17 d4 3d 52 0e 25 3e c5 e0 49 3d a0 bf df bc
       0.10356016 0.16118744 0.049286623 -0.027313054
000220 f3 43 2d bd bb e7 ee 3d f8 fe 89 3d e6 09 b9 bd
       -0.04230113 0.11665293 0.067380846 -0.09035091
000230 e1 66 00 bc c0 c5 f1 3d 25 6b c8 bd 94 c6 ac bd
       -0.007837028 0.11805296 -0.09786061 -0.08436313
000240 73 a9 a8 bd b1 01 6e 3d 7e 7d 97 3c 11 96 59 bd
       -0.08235445 0.05810708 0.018492457 -0.05312163
000250 6f 68 8b 3d 25 f5 1f 3e 48 bc 0e be 78 4c d5 3d
       0.068070285 0.15620859 -0.13939011 0.10414976
000260 f2 8c 69 3d f5 52 94 bc 77 8e 6a bd 73 12 a1 bd
       0.05701918 -0.018105963 -0.05726477 -0.07864847
000270 2f 49 a6 3c d4 4c 9d 3d c3 39 49 bd e5 4a 43 bd
       0.020298569 0.076806694 -0.04912735 -0.047678847
000280 61 b2 28 3e c4 1f 17 3e ee 8b 67 3d 17 ca 9d bd
       0.16474296 0.14758211 0.05652993 -0.07704561
000290 fd 3f da 3c 3c 2c a2 bc ee 32 09 be 16 50 30 bd
       0.02664184 -0.019796483 -0.13398334 -0.043045126
0002a0 7a 22 d3 bc e2 6d 6f 3c 9c 43 1d be 02 d0 1f bb
       -0.025773276 0.0146136 -0.15357822 -0.0024385457
0002b0 24 a2 65 bd 8a 51 c9 bc 9e c7 a8 3d 61 f8 91 bd
       -0.056062832 -0.024575014 0.08241199 -0.07127453
0002c0 f2 b7 67 3d 27 d5 55 bd 24 7e 0f 3e 73 14 c1 bc
       0.05657191 -0.05220523 0.14012963 -0.023569321
0002d0 18 00 7d bd d4 63 e3 3d d5 f4 cf 3c 32 ee 81 bd
       -0.061767668 0.11103025 0.0253853 -0.0634426
0002e0 64 ea 0d bd 0b 05 be bd 6f 46 27 bd 0b 89 99 3d
       -0.03464736 -0.092783056 -0.040838655 0.07496842
0002f0 89 62 7c 3d 19 35 e3 bd bd a6 d6 3d 47 78 8b 3d
       0.061617408 -0.11094112 0.104810216 0.068100505
000300 23 cd 11 bc 4f 93 e6 3d a8 a3 ef 3d 67 bb 2a bd
       -0.008899006 0.11258566 0.11701137 -0.041682627
000310 f4 01 28 3b ec 25 02 3c 2d de 76 bc a5 b4 4d 3c
       0.002563593 0.007943612 -0.015067619 0.012555276
000320 f0 e3 74 bd 6c e8 fe 3c 86 03 9b 3d d3 31 0a 3e
       -0.05978769 0.031116687 0.075690314 0.13495569
000330 48 3b 74 bd da ba 64 bd f7 83 ed 3b 8b e1 91 3c
       -0.059626848 -0.055842258 0.0072483975 0.017807743
000340 a7 f7 92 3c 8d a7 a9 3d 11 5e 0d be b9 ee c2 3c
       0.017940355 0.08283911 -0.13805415 0.023795472
000350 a8 1b 7a 3b 6a 11 3a bd db 0a da 3d e3 3e 49 bd
       0.0038163457 -0.045426764 0.10646602 -0.04913224
000360 98 77 04 be 1c 0d 72 3d f6 41 26 bd 17 b7 bf 3d
       -0.12936246 0.059094533 -0.04059025 0.093610935
000370 3a 5a ba 3d fc e0 e2 bd f8 8e 28 bd 12 56 26 be
       0.090992406 -0.110780686 -0.04115197 -0.1624377
000380 30 f4 d2 bd 20 df 72 3d c6 17 fd 3d 56 63 94 3c
       -0.10300481 0.05929482 0.1235805 0.018113773
000390 84 d9 0e 3e d2 c3 54 bd 5e d1 2e 3e 0b cf 98 3d
       0.13950163 -0.05194456 0.17072055 0.07461365
0003a0 5d 78 8a 3d c9 fd 69 3d 90 03 91 3c 32 02 2c be
       0.06761239 0.057126794 0.017701894 -0.16797712
0003b0 e6 0b a3 bd 81 29 f1 3d f5 10 3c bd 10 db 2c bc
       -0.07961254 0.11775494 -0.04591461 -0.010550275
0003c0 ce a6 7c bd 87 a7 c7 3c b2 32 ba 3c 1e 2d 9b 3d
       -0.061682515 0.024371875 0.022729252 0.07576965
0003d0 c5 1a 04 be a2 eb fd bd 66 27 ea 3d ac 21 3d 3c
       -0.12900837 -0.12398459 0.11433296 0.0115436725
0003e0 64 38 07 3d 55 17 d9 3d 20 28 f8 bc 16 df 21 bd
       0.033012763 0.10600153 -0.03029257 -0.039519392
0003f0 e2 18 a6 bc af 18 b1 bd 1c e1 38 3d 8c e8 37 3d
       -0.020275537 -0.08647286 0.045136556 0.04489951

numerical_net.4.bias f4 [64]
000000 48 68 29 bd 80 dd 8d 3d 18 8a d9 ba aa 1c 55 3d
       -0.041359216 0.069270134 -0.0016596941 0.05202929
000010 c1 dc 08 3c 80 40 80 bd af 4a db 3d 6e b0 77 3d
       0.008353413 -0.062623024 0.10707604 0.06047099
000020 d2 02 07 bd 0e fd 73 3c 09 1e 0f 3e 34 e1 46 bc
       -0.032961674 0.014891876 0.13976301 -0.012138654
000030 e8 41 ef bc 6a cf cc bd e6 b5 e0 3c 62 b1 d5 bd
       -0.029206231 -0.100004986 0.027430486 -0.10434224
000040 f4 d7 74 3d b7 97 2a 3d 72 b9 11 bd 6e 42 19 3d
       0.05977626 0.041648593 -0.035577245 0.037416868
000050 88 ff a6 3d 01 87 4b bd 02 fa eb 3d cd 4c 03 be
       0.081542075 -0.049689297 0.115222946 -0.12822266
000060 cb e5 c5 bc ea 71 dd 3d 48 90 81 bd 00 37 ee bb
       -0.024157425 0.10812743 -0.063263476 -0.00726974
000070 73 cb cc 3d 51 91 44 bd 70 47 69 3d 34 cc 8b bd
       0.09999742 -0.047990147 0.056952894 -0.06826058
000080 03 8d 9a bd 2f 81 b4 3d f4 2e 33 3e 58 eb eb bd
       -0.07546427 0.08813702 0.1749838 -0.11519498
000090 c5 96 70 bc d9 68 81 bd 93 28 43 bd 64 fc 1b be
       -0.014684384 -0.06318826 -0.047646116 -0.15232998
0000a0 fe 62 58 3d 3f 25 c7 bd 0f 82 86 bb c7 c4 8c 3d
       0.05282878 -0.09723901 -0.0041048597 0.0687347
0000b0 d7 83 df 3d 9b 12 a5 bd ae c1 3d bd f0 8d ff bd
       0.10913818 -0.08060189 -0.046327285 -0.12478244
0000c0 fe 0e 6e bd c0 dc 15 3d 35 40 e1 3d 4e 04 01 bc
       -0.058119766 0.036587477 0.10998575 -0.0078745615
0000d0 e2 70 78 3d 32 0f 4d 3d 85 19 04 bd 19 85 5f 3c
       0.06065453 0.05006332 -0.0322509 0.013642573
0000e0 23 ae 39 3d 15 0c c4 3d e9 48 b3 3c 2b eb 94 3c
       0.045332085 0.09572617 0.021885352 0.018178543
0000f0 41 39 bc bd 3e dc 7a 3d 37 df eb 3d 3d 1a e8 bc
       -0.09190608 0.061245196 0.11517184 -0.028332824

numerical_net.6.weight f4 [64]
000000 21 7e 74 3f fd b6 6d 3f e3 83 73 3f a4 98 73 3f
       0.9550496 0.9285734 0.9512312 0.95154786
000010 8b cc 75 3f ef d6 6f 3f 96 84 79 3f 4a 91 7e 3f
       0.9601523 0.9368734 0.97467935 0.99440444
000020 08 91 75 3f 18 0c 7a 3f 49 ab 74 3f a4 18 77 3f
       0.95924425 0.97674704 0.9557386 0.96521974
000030 81 e1 6f 3f 56 48 75 3f aa bd 82 3f 45 43 79 3f
       0.93703467 0.958135 1.0214131 0.9736827
000040 4c 09 74 3f b1 c8 81 3f f4 22 78 3f 26 cd 79 3f
       0.95326686 1.0139371 0.96928334 0.97578657
000050 e1 34 72 3f 3c 73 71 3f 67 ed 7b 3f 40 1d 7d 3f
       0.94611937 0.9431646 0.9840912 0.98872757
000060 f7 73 78 3f 59 12 7f 3f fb d9 78 3f 84 b9 7c 3f
       0.9705195 0.9963737 0.9720761 0.98720574
000070 62 80 7a 3f 3e 74 7a 3f 11 5d 7d 3f c4 ce 73 3f
       0.97852147 0.9783362 0.98970133 0.95237374
000080 a0 8e 80 3f c4 0e 6d 3f bb da 7b 3f 63 ae 76 3f
       1.0043526 0.92600656 0.9838063 0.96359843
000090 6f a2 7b 3f 1c f3 71 3f 4a 53 75 3f ec 02 7f 3f
       0.9829473 0.9451158 0.95830214 0.99613833
0000a0 40 cc 74 3f 69 17 6f 3f e8 b9 73 3f 89 38 6e 3f
       0.9562416 0.93395096 0.95205545 0.93055016
0000b0 c0 53 80 3f 18 94 7e 3f 49 50 7f 3f ef 07 7c 3f
       1.0025558 0.99444723 0.9973188 0.98449606
0000c0 f6 17 6f 3f fe 7d 7b 3f 66 af 6f 3f f6 86 6f 3f
       0.93395936 0.98239124 0.9362701 0.9356531
0000d0 d0 91 76 3f ef 03 7c 3f 6e fd 7c 3f 07 96 7f 3f
       0.9631624 0.984435 0.98824203 0.998383
0000e0 b8 49 7a 3f 85 83 7d 3f 35 20 76 3f ec 1f 7e 3f
       0.97768736 0.9902881 0.96142894 0.9926746
0000f0 06 ad 71 3f f2 0b 75 3f 9e ca 71 3f bf 7e 81 3f
       0.9440464 0.9572135 0.94449794 1.0116805

numerical_net.6.bias f4 [64]
000000 7b e7 24 bd 99 99 39 bc 7e 6b 7a bd 95 18 51 3d
       -0.04025982 -0.011328124 -0.06113767 0.051048834
000010 c3 bc 31 bd d6 aa 22 3d 4a 3e c7 bc d0 16 af bb
       -0.043392908 0.039713703 -0.024321694 -0.0053432956
000020 4e 8f 01 bd 66 16 6a bc 46 f0 b6 3c 32 0e 48 3d
       -0.031630807 -0.014287567 0.022331368 0.048841663
000030 7a 4a e2 3c 8f 2a 32 bd 69 77 4b bd bc db b5 bc
       0.027623404 -0.04349762 -0.049674425 -0.022199504
000040 73 fb e7 bb ce b3 6d 3d 0e e6 f5 bc 3a 9b 22 3d
       -0.0070795356 0.058032803 -0.030016925 0.039698817
000050 3c 78 53 3d 44 98 83 3b 43 d0 d5 3c 7a a0 ed bc
       0.051628336 0.004015954 0.026100283 -0.029007185
000060 ed 33 b3 3b ff 18 97 bc b1 06 ae 3b 50 5d 4c bd
       0.0054688365 -0.018444536 0.0053108563 -0.049893677
000070 66 20 28 3d 1f 1a b6 bc 2d 9b 45 bd 0a 9f 5f bd
       0.041046523 -0.022229252 -0.04824369 -0.05459503
000080 d2 63 40 bd 92 25 f3 bc 56 13 92 bc eb 56 00 bb
       -0.046970196 -0.029681 -0.017831486 -0.0019583057
000090 8f a9 60 bd 41 b7 58 3c 61 8b 12 3d 53 1f 53 3c
       -0.054849204 0.013227285 0.035777453 0.012885886
0000a0 6c d9 1c bd 24 a9 1f bd 29 ea 6e 3c aa 31 82 bc
       -0.038293287 -0.038979664 0.014582195 -0.015892822
0000b0 a9 1e 63 bc e2 15 ce 3a c6 8e ac 3c a0 3f 4d bd
       -0.01386229 0.0015723074 0.021064173 -0.050109506
0000c0 89 2f 16 bb c7 c3 3e bd 4f ef 6b bc ce 8f 8a bd
       -0.0022916517 -0.046573427 -0.014400317 -0.0676571
0000d0 4c 43 cc bc 39 00 99 ba 4f 1c 20 3c 6d a8 4e bd
       -0.024934433 -0.001167304 0.009772374 -0.050453592
0000e0 c6 f0 49 3c 57 2d 3a bd 5d 5e 8a 3c c7 f4 33 3d
       0.012325471 -0.045453396 0.016890699 0.04393461
0000f0 ee 32 73 3c 88 da 9a bc 43 53 00 3d fd a1 c8 bc
       0.014843686 -0.018903032 0.031329405 -0.024491305

numerical_net.6.running_mean f4 [64]
000000 db ee a6 3e 38 50 8e 3e 8e 38 ac 3e ce 22 b3 3e
       0.32604107 0.27795577 0.33636898 0.3498749
000010 e4 1e aa 3e 35 b2 9c 3e 0d 7c bf 3e 50 06 df 3e
       0.33226693 0.3060471 0.3739933 0.43559504
000020 b8 0a b5 3e 02 46 aa 3e 05 5e dd 3e b0 2b cb 3e
       0.3535974 0.33256537 0.43235794 0.39681768
000030 e0 30 7f 3e 3b ea 8b 3e 4e 16 c7 3e 4d fa 83 3e
       0.24920988 0.2732714 0.38884205 0.25776902
000040 1f 2d e9 3e 0e f8 e5 3e 1f ef 89 3e 60 9f a4 3e
       0.45542237 0.44915813 0.26940247 0.32152843
000050 10 da b1 3e 1d cc ac 3e 5b 70 eb 3e 9a cc 94 3e
       0.3473668 0.33749476 0.45984158 0.2906235
000060 4f 3c c0 3e a7 82 0b 3f 37 de d2 3e f7 72 c0 3e
       0.37546012 0.54496235 0.4118516 0.3758771
000070 c5 9b d6 3e 0c f4 b7 3e 59 c6 b2 3e 0f 71 b2 3e
       0.41915718 0.3592838 0.34916952 0.34851882
000080 73 71 bf 3e f5 94 f4 3e 19 49 06 3f ae b5 98 3e
       0.37391242 0.47769895 0.5245529 0.2982611
000090 ee 75 e7 3e 93 7b 5d 3e 2d ef a1 3e 1f 29 75 3e
       0.4520716 0.21629171 0.3162779 0.23941468
0000a0 18 cf 8e 3e fc c5 96 3e df 9c c9 3e 1e 22 b9 3e
       0.27892375 0.29447925 0.39377496 0.36158842
0000b0 de f3 04 3f 8b 0d 9c 3e f1 33 b2 3e 57 f2 84 3e
       0.5193461 0.30479082 0.34805253 0.2596614
0000c0 31 f8 8b 3e 2f 0c c2 3e bf 06 9c 3e 4c 64 aa 3e
       0.27337793 0.3789992 0.30473897 0.33279645
0000d0 50 67 c0 3e d2 dd d0 3e ec ec 7f 3e 24 f3 fa 3e
       0.3757882 0.40794235 0.24992722 0.49013627
0000e0 bc 42 e7 3e e8 fa aa 3e 93 a7 8e 3e bf 3f e5 3e
       0.45168102 0.3339455 0.27862224 0.44775197
0000f0 cb a1 9b 3e ac 18 dc 3e e6 f4 e9 3e 7a 46 ee 3e
       0.30396876 0.42987573 0.45694655 0.46538144

numerical_net.6.running_var f4 [64]
000000 ac 8d b1 3e ee dc 0d 3e c5 e1 9d 3e f2 2b 81 3e
       0.346784 0.13853809 0.3083631 0.2522884
000010 23 6d 5d 3e b8 23 36 3e 4b 28 97 3e f6 1a d4 3e
       0.21623664 0.17787063 0.2952293 0.4142682
000020 a2 b6 09 3f 64 47 82 3e 26 b8 bb 3e 29 3a a8 3e
       0.537943 0.25445092 0.36663932 0.32856873
000030 a9 30 6c 3e eb e7 4d 3e 63 53 c3 3e c7 78 47 3e
       0.23065437 0.20108001 0.38149557 0.19479667
000040 07 c8 04 3f fb e0 dc 3e 02 0f 70 3e 35 85 47 3e
       0.5186772 0.43140396 0.23443225 0.19484408
000050 e9 6a 82 3e be f1 a2 3e e6 87 b2 3e 79 69 48 3e
       0.2547219 0.3182506 0.34869307 0.19571485
000060 db 69 d8 3e 5d 06 1a 3f 45 62 dc 3e af c3 e5 3e
       0.4226826 0.6016596 0.43043724 0.44875857
000070 32 38 8e 3e af 2c d0 3e f8 a9 ef 3e d1 3a ad 3e
       0.2777725 0.4065909 0.46809363 0.33833936
000080 41 c4 15 3f 6e 1f fc 3e 39 45 08 3f 92 50 c6 3e
       0.58502585 0.4924273 0.53230625 0.38733345
000090 ec 35 e5 3e 09 a4 04 3e 78 ac 4e 3e e6 d2 82 3e
       0.44767702 0.129532 0.20182979 0.25551528
0000a0 ad a9 6e 3e 2c 56 9d 3e 8d 13 a3 3e e5 18 d8 3e
       0.23306914 0.30729806 0.31850854 0.42206493
0000b0 22 95 0e 3f 7d 98 68 3e 83 43 98 3e 4b fd 8c 3e
       0.5569631 0.2271442 0.29739007 0.27536997
0000c0 fa 73 5d 3e 4f ef ca 3e 27 7c 80 3e 43 51 0b 3f
       0.21626273 0.39635703 0.2509472 0.5442087
0000d0 62 be a6 3e 90 8c 96 3e 5a e6 6f 3e d9 42 5c 3f
       0.32567126 0.29404116 0.23427716 0.860395
0000e0 61 f8 ea 3e e7 9b 90 3e 63 ed 29 3e e5 74 af 3e
       0.45892623 0.28243944 0.16594462 0.3426887
0000f0 ad 20 7e 3e 82 d5 e3 3e b3 ed 9d 3e 14 e6 2d 3f
       0.24817152 0.4449883 0.30845413 0.67929196

title_net.0.weight f4 [128, 200]
000000 1a 3d 3f bc 32 5f da bb fc bb e5 bb 28 05 71 bb
       -0.011672283 -0.00666418 -0.007010935 -0.0036776755
000010 f1 3d b5 bc 58 c5 d3 3c 1a ed ab bb d5 23 22 3d
       -0.022124263 0.025850937 -0.0052467706 0.039584953
000020 f5 0f 7b bc fe bf 6d 3c 74 bd 66 ba c6 b3 8e 3d
       -0.015323629 0.014511107 -0.00088020344 0.06967883
000030 41 35 60 3d a3 af ef 3c 1f 8a 1d 3d 0b a4 95 3d
       0.054738287 0.029258555 0.0384618 0.07306679
000040 a1 ea b3 bd 0c df 8e 3c 14 b0 9f bd 28 6a 03 3d
       -0.08784986 0.017440341 -0.07797256 0.03208366
000050 25 b3 29 3b 27 e7 a0 3d cb aa ee 3b c9 3c 14 3d
       0.0025894132 0.07856589 0.0072835437 0.03619078
000060 f8 08 96 bd b4 fc 24 bd 15 7d 07 bd a4 42 a6 3d
       -0.073259294 -0.04028006 -0.033078272 0.081181794
000070 b9 6c 6e bd be 1c b2 bd 23 4a 46 3b 6f 79 08 3b
       -0.058209155 -0.086968884 0.0030256591 0.0020824333
000080 f2 29 94 3d 2b 70 92 3d 85 4c ee bc 0b d4 24 bd
       0.07234563 0.071503006 -0.029089222 -0.040241282
000090 e7 fa f1 3c 3d a2 40 3c 3f 65 bb bd ea a9 4d 3d
       0.029538585 0.011757431 -0.091501705 0.05021087
0000a0 4c 68 ba 3d a1 a2 c2 3c 04 e6 bb 3c b1 d0 ce 3c
       0.09101924 0.023759188 0.022936828 0.025245996
0000b0 ed 0e c0 3b 9c bd dd bb 7b 7c 28 3d c6 e8 c0 bd
       0.0058611543 -0.006766988 0.04113434 -0.09419398
0000c0 de 03 cf 3c 59 eb 85 3c d7 cc 83 3d eb d8 ca bd
       0.025270399 0.016347574 0.064355545 -0.09904655
0000d0 06 c0 b2 bb 89 50 87 3c 9f 2e e4 3c 78 29 fd 3b
       -0.00545502 0.016517894 0.027854262 0.0077258907
0000e0 cf 86 04 bd b9 64 f5 3b 07 4a 5d 3d c8 1e 91 3d
       -0.032355126 0.0074888137 0.054025676 0.07085949
0000f0 e9 03 09 3d 45 46 1d bc 49 9c d7 3c 69 78 22 3d
       0.033450995 -0.009599273 0.02631964 0.039665613
000100 a8 fb ee bc 62 29 7f bd 11 05 78 bd 6c cc fd 3c
       -0.029172733 -0.062295325 -0.060551707 0.030981265
000110 fc de 4c 3c 1f 94 15 3c 19 c5 23 3d c7 97 a0 3d
       0.0125043355 0.009129553 0.03998289 0.07841449
000120 69 31 7b bd 03 26 44 3d 57 18 99 bd 0d 41 03 3d
       -0.061326418 0.047887813 -0.074753456 0.03204446
000130 f3 7d ae bd e6 7f e8 3b c5 d1 07 bc 6b b3 6b 3a
       -0.08520117 0.007095325 -0.008289759 0.0008991274
000140 7c 36 a3 3d 16 10 66 3d ac 45 7e 3d 74 db a7 3c
       0.079693764 0.056167684 0.062078163 0.020490386
000150 a8 ff 94 3d 11 b7 03 3d 3e b0 6c bd 81 7d 6f 3d
       0.07275325 0.032157008 -0.057785265 0.0584693
000160 7d 2d 23 3d 46 f8 11 3d 36 71 c5 3d 65 32 fd bc
       0.039838303 0.035637163 0.09640734 -0.030907819
000170 6c 10 b6 3d 66 47 92 3d ab a5 25 bc 3c 5d 17 bd
       0.08889851 0.071425244 -0.010110299 -0.03695415
000180 65 f7 8b 3c 4a 02 9b bc d1 37 71 bd 2c a2 b6 bd
       0.01708574 -0.01892199 -0.05889112 -0.089176506
000190 25 88 84 bc a6 4b f0 3c d1 e1 40 bd 97 90 b4 bc
       -0.0161782 0.029332947 -0.047090355 -0.022041602
0001a0 02 9a 14 3d 34 0f 75 3d fa 5e 7b 3c 56 c0 bb 3c
       0.036279686 0.059828952 0.015342468 0.022918861
0001b0 f2 59 ac bb 13 ba 9e bd c0 20 41 3d d4 08 ff bb
       -0.0052597458 -0.077503346 0.047150373 -0.007783035
0001c0 8b ba d2 3c 2d 5a 90 3c b8 58 94 bd aa 77 c1 bd
       0.025723716 0.017621124 -0.07243484 -0.09446652
0001d0 e7 b7 bb 3d 8c 71 6c 3d e7 40 b2 bd 59 b0 11 bb
       0.09165936 0.057725474 -0.087037854 -0.0022230356
0001e0 6c b5 86 3d 67 81 ad bd c2 10 0d 39 1a ec 53 bd
       0.06577572 -0.08471947 0.0001345305 -0.051738836
0001f0 1f 5d 38 bd ab 5d d7 3c c2 11 3c 3c 48 1d e1 bc
       -0.045010682 0.026289782 0.011478843 -0.027479783
000200 e4 13 1d 3c 2d ce 82 bc 32 5b 64 bd 8d cb 8c ba
       0.009587262 -0.015967453 -0.055751033 -0.0010741815
000210 85 d6 f6 3c 13 36 57 3d 41 4d 56 bd ce 68 10 3d
       0.030131588 0.052541804 -0.05231977 0.0352562
000220 27 09 e5 bc 12 7c c4 3b dc 27 b9 3c fd 58 50 bd
       -0.027958466 0.0059962356 0.022602014 -0.050866116
000230 06 75 ce bc b5 22 02 3d 5c db 44 3d 95 df e8 3c
       -0.025202285 0.03177138 0.04806076 0.028426925
000240 86 6f 8a 3d 3d 1a 4e 3d 93 05 70 bb 87 34 8a bd
       0.06759553 0.05031799 -0.0036624416 -0.067483
000250 65 0f a2 bc f2 dd 81 bd c9 3d 7e 3d e1 13 08 3d
       -0.019782731 -0.06341161 0.06207064 0.033222083
000260 5f bc 5f bd c9 3e e3 bb cc 77 94 3d c4 b9 7a bc
       -0.054623004 -0.006934975 0.07249412 -0.015303079
000270 10 23 14 ba 3f a5 4c bd 49 87 a1 bd cd 26 09 3d
       -0.00056509767 -0.04996228 -0.07887132 0.03348427
000280 6f 8b 45 bd 62 58 0a bd b0 df cf bc fd 8f c8 bc
       -0.048228677 -0.033775695 -0.025375217 -0.024482721
000290 48 d1 1c 3c 38 7c 7b bd 61 7a ca 3d 7a db a6 bd
       0.009571381 -0.06139776 0.09886623 -0.081473306
0002a0 a4 d6 84 bc 52 9f 78 bd f2 86 78 3d 2b ae 66 bd
       -0.01621563 -0.060698815 0.06067557 -0.056318443
0002b0 75 64 ba 3d 2a a6 c9 bc 21 ec d5 3d 83 7d c6 3d
       0.09101192 -0.024615366 0.10445429 0.09691908
0002c0 0e 8c ce 3c f8 76 69 3c 08 a5 87 bd d5 ab 99 bd
       0.025213268 0.014249556 -0.06623274 -0.075034775
0002d0 ed 8a 9a 3c 81 8f 63 bd 6f 1c 83 3d 8b b7 af bd
       0.018865073 -0.055556778 0.06401908 -0.0857993
0002e0 43 30 9a bd 1c e5 12 bd ae bb e1 3b bd aa 1c 3d
       -0.075287364 -0.035863027 0.0068888282 0.038248766
0002f0 f2 56 41 bd 9b 49 fd bc 3c 3f 76 bc 9c 4b cf 3b
       -0.047202058 -0.030918887 -0.015029725 0.006326152
000300 6d 68 04 3d 66 57 00 3d 07 9a 91 bc 70 54 68 3d
       0.03232615 0.03133335 -0.017773641 0.05672115
000310 0a dd e0 bc dd 00 17 3d 0c 04 80 bd f8 e2 83 bd
       -0.02744915 0.036866058 -0.06250772 -0.06439775
000320 7f d9 ef bc f1 44 b2 bd 09 66 02 bd c9 f7 21 bd
       -0.029278515 -0.08704556 -0.03183559 -0.039542947
000330 65 9a 19 bd d9 d6 98 bc 15 b1 78 3d 4a 7c 0b 3b
       -0.037500758 -0.018657135 0.060715754 0.00212838
000340 81 89 d8 3d ee 36 9a 3c d1 50 72 3d 5e ba 62 3b
       0.10573102 0.01882502 0.059159104 0.0034595947
000350 96 46 1c 3d d3 2d b3 bd bc 2c f7 bc 2c 14 ea bc
       0.038153253 -0.08748975 -0.030172698 -0.028574072
000360 ee 55 98 b9 b3 d8 50 3d 6a 6b b5 bd 96 d3 95 3a
       -0.00029055722 0.05098791 -0.08858378 0.0011430855
000370 d3 53 9f 3c 43 e0 92 3d 8a cf 6a bc 4d df 78 3d
       0.01944915 0.07171681 -0.014331708 0.06075983
000380 49 d0 e6 bb 63 08 59 bb 9d 5c 55 3b 4d e8 d7 3c
       -0.0070438725 -0.003311657 0.0032556423 0.026355887
000390 42 31 bc 3c 99 44 91 bd 30 bf 42 3d 31 40 56 bc
       0.022972707 -0.07093162 0.04754561 -0.013076828
0003a0 49 3c 7f bd 0e b9 12 3d 0c 41 ea bc 09 a7 87 3d
       -0.06231335 0.035821013 -0.02859547 0.06623656
0003b0 19 4d 40 bd 56 f3 fe 3c 35 b4 e4 bc 81 db a5 3c
       -0.046948526 0.031121891 -0.02791796 0.02024627
0003c0 e3 70 27 3d f0 d5 2e bc 49 36 16 bd ea a3 ad bd
       0.04087914 -0.010671124 -0.036672864 -0.0847853
0003d0 59 68 76 3c db cd f0 3c a7 08 ae bb 67 b2 00 3d
       0.015039527 0.029395035 -0.00531109 0.031420138
0003e0 26 13 eb 3d ce 11 9a 3a 78 27 8f 3d 43 1b d9 3d
       0.11478262 0.0011754574 0.0698995 0.10600903
0003f0 3b a2 bc bd 76 8c 82 3d 9d 1f 00 bb a1 01 d9 bc
       -0.092106305 0.06374447 -0.0019550093 -0.026490035

title_net.0.bias f4 [128]
000000 5f 40 48 bd 9b bc 1f 3c af f8 3f bd 5e a9 fd 3c
       -0.048889514 0.009749557 -0.046868023 0.03096455
000010 21 21 d9 bc 67 c0 01 3d bc 38 97 3c f6 38 92 3d
       -0.026505055 0.03167763 0.01845967 0.07139771
000020 05 e7 b7 3b b1 7c 05 bc e1 89 ad bb 7f 50 95 3c
       0.0056122565 -0.0081474045 -0.0052959775 0.01822686
000030 0b c4 92 3c 99 7f 4d 3b 75 e5 ab 3d 5b 65 98 3d
       0.017915746 0.0031356572 0.08393375 0.07441207
000040 b3 25 92 3d 8e ea 02 3c 83 99 2c 3d ea 0f af 3c
       0.07136097 0.0079904925 0.042138588 0.021369893
000050 ab 0a 0d 3d 23 ea 76 3d 8e 95 11 bc 23 5c 01 3d
       0.034434002 0.060281884 -0.008885754 0.03158201
000060 a7 fc d3 3c 8d db d5 bc db 45 a2 3d 64 ec 7c 3b
       0.02587731 -0.026105667 0.0792348 0.0038593048
000070 a5 6e 3f 3d 80 f4 a6 3c 95 ae d8 bc 4e 59 1d bd
       0.04673638 0.020380259 -0.026450435 -0.038415246
000080 7d 79 7a 3d 6c a1 8e bb c0 7e 79 bd 2b e3 31 3d
       0.061151017 -0.004352739 -0.060911894 0.043429535
000090 9c 04 54 3d c0 7e 28 3d 9c c2 3a bd 64 37 10 bd
       0.05176221 0.041136503 -0.04559575 -0.035209075
0000a0 57 4b 9f 3d 26 34 e1 3b 50 26 88 3c 2c 69 b8 3d
       0.07778042 0.0068726717 0.016619831 0.09004435
0000b0 ee 51 7c 3c 81 d5 74 3c bf 5c 85 3c 4a 3b 16 bd
       0.015400393 0.014943481 0.016279576 -0.036677636
0000c0 73 1d 8f bd 11 c1 24 3d 5e 82 85 3d 34 4f 05 3d
       -0.06988039 0.040223185 0.06519006 0.032546237
0000d0 87 f5 cf bb 5f 01 6c 3d 8b 0d 91 3d 14 99 d4 bc
       -0.006346408 0.057618495 0.07082661 -0.0259519
0000e0 3d 09 0a 3d 2b 66 7c 3d 3b 4a fa 3c 7a 0f ed bc
       0.033700217 0.061620872 0.030552974 -0.028938044
0000f0 15 75 02 ba 83 24 28 bc b2 dd 2c bd f8 4e 02 bd
       -0.0004976553 -0.010262611 -0.042203613 -0.03181359
000100 a9 f1 54 3d 6b e4 de 3b 39 29 62 bd 4f 09 1c bd
       0.051988278 0.006802132 -0.055215094 -0.038094815
000110 3e 23 b8 3c 7a f8 3b bd 79 f3 3a 3d 14 06 6b 3d
       0.022477742 -0.045891263 0.04564235 0.057378843
000120 be 8f 48 3c 7e d6 03 bc 6d 46 5d 3d 95 be 98 3d
       0.012241302 -0.008046744 0.05402224 0.07458226
000130 fa a7 f4 bc bb 25 28 bd 15 87 14 3c 09 a9 44 3d
       -0.029865254 -0.041051608 0.009065409 0.048012767
000140 45 99 0c 3c c0 a9 95 bc c2 35 95 3d 18 da 4a bd
       0.008581464 -0.01826942 0.07285644 -0.049524397
000150 bb 3e 98 bd 56 6e 43 bc 3c 37 02 bc 38 a0 c6 bc
       -0.0743384 -0.011928162 -0.007947739 -0.02424632
000160 83 d2 86 3b 7d 9f 02 bc b8 b1 25 3d a9 02 7c bc
       0.0041144504 -0.007972595 0.04045269 -0.015381494
000170 91 d3 37 bc 4d e9 c6 bc 18 ac f9 bc 31 46 01 bd
       -0.011219875 -0.024281168 -0.030477569 -0.03156108
000180 69 60 a0 3b 13 73 b6 bc 08 0e 9c 3d 1a 7e 5d bc
       0.0048943055 -0.022271669 0.07619864 -0.0135188345
000190 78 95 9a 3c 08 98 10 3d de 33 07 bd 31 0f b3 bc
       0.0188701 0.03530124 -0.03300845 -0.02185783
0001a0 15 98 bc 3c 89 33 e2 ba 9c 81 75 bc 47 33 3b 3d
       0.023021737 -0.001725779 -0.014984515 0.0457032
0001b0 2b 59 59 3d 26 f4 13 3c 80 aa 19 bc 2d ca da bc
       0.053063553 0.0090303775 -0.009379029 -0.026707733
0001c0 b1 ea 94 3c 4f 41 61 3d 64 f8 90 3d 63 91 74 3d
       0.018178316 0.054993924 0.07078627 0.059708964
0001d0 af f7 44 3d f1 7f 83 bd 8c f5 47 bd e7 51 b9 3c
       0.048087772 -0.06420887 -0.048818156 0.022622062
0001e0 6d 0b b4 bc 36 f7 10 bd 2a 71 95 3d ec 28 19 bd
       -0.021978104 -0.03539201 0.07296975 -0.03739254
0001f0 db 5b 0b 3d 72 d8 60 3d 99 c7 cf 3b 76 32 2e bd
       0.034023147 0.05489392 0.0063409326 -0.042528592

title_net.2.weight f4 [128]
000000 8f ca 6f 3f fa 5b 86 3f fd db 78 3f 98 97 83 3f
       0.93668455 1.0496819 0.97210675 1.0280638
000010 b0 a0 7b 3f e3 cb 7d 3f e0 8e 7e 3f 44 81 7e 3f
       0.98292065 0.9913923 0.9943676 0.99415994
000020 57 7f 83 3f c8 50 81 3f 18 7e 83 3f 07 4e 75 3f
       1.0273236 1.0102777 1.0272856 0.95822185
000030 d7 6e 81 3f 49 d6 7f 3f ab cf 83 3f 04 25 79 3f
       1.0111951 0.9993635 1.029775 0.97322106
000040 4f 17 80 3f 30 ae 75 3f 85 d9 76 3f 15 c0 7d 3f
       1.0007113 0.95968914 0.9642566 0.9912122
000050 d6 5b 7b 3f 37 d0 73 3f e8 ad 72 3f 51 f5 80 3f
       0.98187006 0.95239586 0.9479661 1.0074865
000060 f0 26 85 3f 48 92 7e 3f 47 2a 85 3f ad 10 83 3f
       1.0402508 0.9944196 1.0403527 1.0239464
000070 42 fe 7b 3f f5 0e 71 3f 12 a0 79 3f c5 85 77 3f
       0.9843484 0.9416345 0.9750987 0.9668849
000080 84 6f 76 3f 1b 22 74 3f 69 72 7f 3f d2 ad 74 3f
       0.9626391 0.9536454 0.9978395 0.9557773
000090 c9 23 73 3f f9 58 76 3f 88 71 83 3f 9a 9b 7b 3f
       0.9497648 0.9622951 1.0269022 0.98284304
0000a0 fb b8 81 3f 91 a2 7f 3f 78 42 80 3f d8 e3 81 3f
       1.0134577 0.9985743 1.0020285 1.0147657
0000b0 73 2e 82 3f 71 f4 76 3f d1 4d 80 3f 4f 37 84 3f
       1.0170425 0.9646674 1.0023748 1.0329379
0000c0 b5 3c 73 3f af ac 83 3f 6a b5 76 3f 2f 14 81 3f
       0.95014507 1.0287074 0.96370566 1.0084285
0000d0 ec 3a 86 3f 90 4e 79 3f 13 14 75 3f 42 40 71 3f
       1.0486732 0.973855 0.95733756 0.94238675
0000e0 7e 49 74 3f 22 cb 6f 3f 2a 3e 80 3f 97 9b 80 3f
       0.9542464 0.9366933 1.0018971 1.0047482
0000f0 b4 9a 7d 3f d3 3f 7b 3f 44 ac 83 3f e9 ed 7a 3f
       0.99064183 0.98144263 1.0286946 0.9801927
000100 2e 78 80 3f 98 bb 78 3f ef 73 80 3f 72 d9 75 3f
       1.0036676 0.97161245 1.003538 0.9603492
000110 d8 f6 72 3f aa 82 77 3f 3c 0f 76 3f 90 c0 77 3f
       0.94907904 0.9668375 0.96116996 0.967782
000120 d9 39 86 3f ca 67 72 3f 89 54 7d 3f d2 fc 72 3f
       1.0486404 0.9468962 0.98957115 0.94917023
000130 ca 8f 72 3f 95 4e 7a 3f a3 0e 7e 3f cc a5 84 3f
       0.94750655 0.97776157 0.99241084 1.0363097
000140 4c 9f 77 3f bc 63 80 3f a6 4f 82 3f 1a d8 72 3f
       0.9672744 1.0030437 1.0180557 0.94860995
000150 eb 9e 72 3f d8 c1 72 3f 12 7c 81 3f fe 00 7b 3f
       0.9477374 0.9482703 1.0115988 0.9804839
000160 4a 08 82 3f cc 7d 78 3f 87 c6 85 3f c7 df 79 3f
       1.015878 0.9706695 1.0451211 0.9760708
000170 9d d7 82 3f 5b 02 86 3f be 54 7d 3f d5 cb 73 3f
       1.022205 1.0469469 0.9895743 0.952329
000180 70 0c 84 3f 2e a4 7b 3f d7 82 7e 3f 31 ae 86 3f
       1.0316296 0.98297393 0.99418396 1.0521909
000190 ef 2a 71 3f 22 40 85 3f 47 b1 84 3f f8 bf 82 3f
       0.94206136 1.0410197 1.0366601 1.0214834
0001a0 0e d0 7a 3f bd 73 77 3f 78 cb 80 3f b2 30 7e 3f
       0.97973716 0.9666098 1.0062094 0.99293053
0001b0 8d 1d 80 3f 56 74 6f 3f e4 d4 7c 3f 4d 0b 75 3f
       1.0009018 0.9353689 0.98762345 0.9572037
0001c0 c6 8f 77 3f 31 6e 78 3f ed b6 76 3f c7 62 7a 3f
       0.96703756 0.9704314 0.9637287 0.9780697
0001d0 55 88 7e 3f 47 0c 84 3f da e1 7f 3f 16 51 76 3f
       0.99426776 1.0316247 0.99954 0.9621748
0001e0 d5 26 77 3f 77 d9 76 3f d8 6f 7d 3f 35 d5 85 3f
       0.9654363 0.96425575 0.98998785 1.0455691
0001f0 16 3b 73 3f 28 91 74 3f 94 cb 83 3f 98 cb 78 3f
       0.95012033 0.9553399 1.0296502 0.9718566

title_net.2.bias f4 [128]
000000 62 77 f4 3c 05 3a f7 bc 9a 39 1a bd 82 2b 76 bc
       0.029842082 -0.030179033 -0.03765259 -0.0150250215
000010 bb 25 34 bd 31 0d dc bc 65 d3 57 3c 93 c5 ca bc
       -0.043981295 -0.026861759 0.013172959 -0.024752414
000020 3c d2 e9 bc 5b d3 97 3c ed 26 18 bd 3c b8 aa 3c
       -0.02854263 0.0185334 -0.037146498 0.020839803
000030 b9 c1 a1 3c ad 11 11 bd 10 ef 44 bd 37 28 4d 3d
       0.019745694 -0.035417248 -0.04807955 0.05008718
000040 cb 57 34 3d f2 05 f0 bc 1b 1c 36 3d 70 c7 6e bd
       0.04402904 -0.02929971 0.044460397 -0.058295667
000050 5d b6 7f bd 20 8e 8d bb 58 c4 58 bc 7c 8f 04 bc
       -0.062429775 -0.004319921 -0.013230406 -0.00809085
000060 bc 5c 22 3d f7 48 2a bd 6f c4 3a bd 53 c7 f9 bc
       0.03963922 -0.04157349 -0.04559749 -0.030490553
000070 c8 7e 14 bd 7d c1 f6 3c 74 b7 18 bd 5a 5c d1 bc
       -0.03625372 0.03012156 -0.03728433 -0.025556732
000080 bf 24 0f 3d 2a 96 46 bc c0 e7 ca bc c3 e6 fa 3c
       0.034947153 -0.012120763 -0.02476871 0.030627614
000090 4e 77 83 3b 57 fc ff bc b6 cb 1f 3d af e4 9a ba
       0.004012025 -0.031248255 0.039012633 -0.0011817421
0000a0 e1 09 82 3c 11 23 d1 bc 6a 59 f7 bc 1f ca 16 bd
       0.015873851 -0.025529416 -0.030194003 -0.03681385
0000b0 12 b8 b6 3c 08 40 3b 3d c8 38 aa 3c 9c 21 bb bc
       0.022304568 0.04571536 0.020779029 -0.022843175
0000c0 e1 b1 71 bd 07 19 44 bd 3b d4 3f 3d d8 7a 10 bd
       -0.05900753 -0.04787543 0.046833258 -0.035273403
0000d0 47 db 38 bd cc 7a e2 bc 73 b8 5d bc 59 6f 49 3c
       -0.045130994 -0.027646445 -0.013532746 0.012294614
0000e0 bf 3e 1b 3d 82 1d 2c 3d 4e a9 56 bd cc 6d 09 bd
       0.037901636 0.04202033 -0.052407555 -0.033551976
0000f0 f6 7a f3 3c 4a c2 37 bd 3e 67 e9 3b 55 14 11 3d
       0.029721718 -0.044863023 0.007122903 0.03541978
000100 82 85 40 3d 03 c2 4b 3d 16 b2 5b bd d5 f9 d1 3c
       0.047002323 0.04974557 -0.053636633 0.025631825
000110 c0 7e 21 bd 36 2f 4b bd ee ab 70 3d 10 55 09 bd
       -0.03942752 -0.04960557 0.058757715 -0.033528388
000120 e4 c7 1a bd c6 31 0c 3d 59 e4 1d bd e0 41 c6 bb
       -0.037788287 0.034227155 -0.038547847 -0.0060503334
000130 46 04 7e bd 27 6d 90 bc a0 6d 7c 3d 56 10 32 3d
       -0.062015794 -0.017630173 0.061627984 0.04347261
000140 8c 63 55 bd 6f 66 07 3d cc 0e 42 3d 83 41 78 bd
       -0.05209689 0.033056673 0.047377393 -0.06060935
000150 b5 76 f5 bc b1 a3 53 bd 20 94 c6 bc d7 8b 2a bc
       -0.02996383 -0.05166978 -0.024240553 -0.010409317
000160 e5 2d 16 bd 98 f7 8b bb ed 52 be bc 9c 40 97 3c
       -0.036664862 -0.004271459 -0.023232901 0.018463425
000170 84 33 17 3d 7f 6d 2f bd 11 15 16 3d c5 10 05 bc
       0.036914364 -0.042829033 0.036641184 -0.008121674
000180 a7 09 d9 bc 3b da 99 3a c3 04 2d 3d c1 69 02 bd
       -0.02649386 0.0011738011 0.04224087 -0.031839136
000190 48 08 b4 bc 26 db 25 bd 22 2d f3 bb 8c 04 3f bc
       -0.021976605 -0.0404922 -0.0074211517 -0.011658799
0001a0 e8 9a 1f bd 2a 8f 27 bd 62 bf 43 bd 31 0e 15 bd
       -0.03896609 -0.040908016 -0.04778994 -0.036390487
0001b0 a6 28 7b bd 0c 1c 28 3d cf d5 a1 3c 03 59 4b bd
       -0.061318062 0.041042373 0.019755272 -0.049645435
0001c0 21 78 70 bc 28 8f 84 bc e1 02 18 bc 56 af cb 3c
       -0.014677078 -0.016181543 -0.00927803 0.02486388
0001d0 5a e4 32 3d 38 d9 ff bc cb f3 03 bd f0 2d bb bc
       0.043674804 -0.031231508 -0.03221492 -0.022849053
0001e0 31 27 1a 3d 36 d9 ef 3b 25 2f 46 bd 28 25 0f bd
       0.037635032 0.0073195947 -0.048384804 -0.034947544
0001f0 15 dc a9 3c dd 57 ea bc 43 7d 5b bd f4 12 89 3c
       0.020734826 -0.02860635 -0.053586256 0.01673267
