artifacts/training_runs/run_20250613_114656/best_model.pth (torch, 585269 bytes, 39 tensors)

numerical_net.0.weight f4 [64, 36]
-0.047091465 0.03931425 0.053247813 -0.13461939 0.042822033 -0.024476577 -0.035080962 -0.14145318
-0.14129789 0.1084719 0.082099795 0.14955252 0.16117497 -0.006840188 0.031276505 -0.11149868
0.16962187 -0.091427214 -0.16645305 0.017078316 -0.06322874 0.03081258 -0.029133389 -0.09707656
-0.062115543 0.07414205 0.045875248 -0.13164212 0.053821936 0.10595195 -0.13094269 0.08115835
-0.11308148 0.04517125 -0.106229566 0.03498146 0.058118608 -0.10409372 0.053761464 -0.012810402
0.049043305 -0.045353226 -0.017765407 -0.13647908 -0.112933494 -0.14999256 0.12764487 -0.143319
-0.07635782 -0.09830795 0.029334422 -0.12615801 0.1066858 -0.08696457 0.038779393 0.027470766
0.17871383 -0.118420064 0.008911802 0.04952533 -0.12455347 -0.087883756 -0.03286364 -0.061641883
-0.011946047 0.101708256 -0.027198805 0.0556654 0.061128806 0.08054816 -0.08719267 0.07385286
-0.14619868 0.047669973 -0.029812071 -0.14491001 -0.14713077 0.13649695 -0.07413115 -0.074394524
-0.103625484 -0.07505666 -0.066771805 0.10349558 0.14854911 -0.11823892 0.11434919 0.15688968
-0.07112418 0.012631405 -0.008411875 -0.09424857 0.012584493 -0.082752995 0.03340839 -0.051712316
0.12536615 0.15552734 0.14108387 0.121364534 0.08152521 0.11201694 0.1422658 0.030128876
0.089099646 0.029468363 0.066175155 -0.16212676 0.16126214 0.10705879 0.029966122 -0.15220179
-0.06733115 -0.096380875 0.05496051 -0.058981124 0.05923502 -0.16469644 -0.106692374 0.04884769
-0.07749179 0.02783421 -0.049823727 0.11760876 0.07162828 -0.024062028 -0.14206418 -0.054248143
-0.09612352 -0.059377056 0.050442584 0.09566362 -0.09854291 0.05752324 0.01220687 -0.051324803
-0.01739762 -0.13805206 0.1252111 -0.1306215 -0.021793064 -0.17371777 -0.035035077 -0.08220585
0.007064801 0.033534963 0.14164513 -0.05448205 -0.08144306 -0.07356401 0.002522507 0.17294116
0.031316776 -0.0343071 -0.11229924 0.027880158 -0.10348886 0.013427265 -0.07602304 -0.08789511
-0.0716837 0.013151591 -0.16299336 0.14802524 0.055857882 0.12930393 0.057839043 0.008162104
-0.13530678 -0.11157645 -0.14220636 -0.10016523 -0.07926385 0.054249115 0.050294887 -0.14695005
-0.10861634 0.02386634 0.019692179 0.08852165 -0.06361379 -0.094738245 -0.18161315 0.13190636
-0.12986863 0.021471083 -0.029326191 0.17491394 0.13391617 -0.08746742 -0.04815405 -0.05049042
0.02055673 -0.015512177 -0.03981659 -0.15092614 -0.058225 0.09796101 -0.10069737 -0.07148016
0.05683269 0.14369853 0.059132982 0.10569658 0.13993677 -0.075606026 -0.091166936 0.01696022
-0.12846266 -0.11177455 -0.0363871 -0.015013383 0.0814545 0.05020531 -0.14842092 -0.15876204
0.017978936 -0.012451508 -0.102429315 -0.027583249 0.08967025 -0.060888544 -0.14331898 -0.032979365
0.019913899 0.061530307 -0.028387988 0.057212997 0.047465704 0.002274145 -0.14114876 -0.021101022
0.10058815 0.11115678 -0.15135658 -0.1155096 0.03701944 0.0063852854 0.030598162 0.052177574
-0.047981095 0.10478866 -0.008502491 0.084056154 0.017217904 0.14916576 0.09098016 -0.13993521
-0.13602848 -0.023621514 -0.12140098 0.07345616 0.09826702 -0.054202985 0.047752794 0.09441478
00000000: fbe2 40bd fb07 213d 611a 5a3d aad9 09be
00000010: 2866 2f3d 1a83 c8bc 0eb1 0fbd 1ad9 10be
00000020: 65b0 10be 8426 de3d f023 a83d 4c24 193e
00000030: 0d0b 253e a823 e0bb cb1b 003d 6c59 e4bd
00000040: 5bb1 2d3e 313e bbbd ab72 2abe d3e7 8b3c
00000050: 127e 81bd aa6a fc3c 25a9 eebc 13d0 c6bd
00000060: de6c 7ebd cad7 973d afe7 3b3d 31cd 06be
00000070: 6474 5c3d 56fd d83d d715 06be 5936 a63d
00000080: 4397 e7bd 7d05 393d e38e d9bd b848 0f3d
00000090: c70d 6e3d 172f d5bd fb34 5c3d b8e2 51bc
000000a0: a2e1 483d 4ec4 39bd c288 91bc 2cc1 0bbe
000000b0: ad49 e7bd a697 19be 56b5 023e 37c2 12be
000000c0: 7d61 9cbd ae55 c9bd be4e f03c 912f 01be
000000d0: 167e da3d 7b1a b2bd 24d7 1e3d 5f0a e13c
000000e0: c200 373e 3886 f2bd cf02 123c 13db 4a3d
000000f0: e415 ffbd 66fc b3bd 069c 06bd 337c 7cbd
00000100: 5ab9 43bc 6b4c d03d 07d0 debc 6701 643d
00000110: 3362 7a3d 6ff6 a43d 1292 b2bd 2b40 973d
00000120: 1bb5 15be 9741 433d 7238 f4bc 4a63 14be
00000130: 73a9 16be dbc5 0b3e 13d2 97bd 285c 98bd
00000140: 9939 d4bd 4eb7 99bd a8bf 88bd 7ef5 d33d
00000150: 421d 183e 3f27 f2bd e82f ea3d b0a7 203e
00000160: 8ea9 91bd f4f3 4e3c f6d1 09bc 6505 c1bd
00000170: 302f 4e3c 677a a9bd 3cd7 083d 4bd0 53bd
00000180: fc5f 003e 8f42 1f3e 4a78 103e f88d f83d
00000190: b0f6 a63d 2369 e53d 20ae 113e d5d0 f63c
000001a0: e079 b63d a367 f13c d786 873d 8f04 26be
000001b0: e721 253e a441 db3d 837b f53c c9da 1bbe
000001c0: eae4 89bd 5663 c5bd 461e 613d 3196 71bd
000001d0: 6ca0 723d 2fa6 28be 8881 dabd 8414 483d
000001e0: 04b4 9ebd 9204 e43c f713 4cbd dddc f03d
000001f0: d9b1 923d bb1d c5bc 4679 11be 4d33 5ebd
00000200: 68dc c4bd 5b35 73bd e29c 4e3d 4aeb c33d
00000210: ddd0 c9bd 7d9d 6b3d 53ff 473c f539 52bd
00000220: 7485 8ebc 855d 0dbe 5737 003e a4c1 05be
00000230: 5e87 b2bc 12e3 31be f180 0fbd 8a5b a8bd
00000240: d97f e73b f55b 093d 6c0b 113e 9228 5fbd
00000250: 9ecb a6bd baa8 96bd a550 253b 7d17 313e
00000260: 0546 003d 9a85 0cbd 25fd e5bd ee64 e43c
00000270: f8f1 d3bd 08fe 5b3c f8b1 9bbd 5a02 b4bd
00000280: e7ce 92bd c579 573c bbe7 26be ee93 173e
00000290: 3ccb 643d 4068 043e a2e8 6c3d 58ba 053c
000002a0: dc8d 0abe 3282 e4bd 8b9e 11be 6e23 cdbd
000002b0: 1655 a2bd 5234 5e3d 0302 4e3d 137a 16be
000002c0: 3e72 debd 5883 c33c 7e51 a13c d74a b53d
000002d0: f247 82bd 2006 c2bd ccf8 39be 7612 073e
000002e0: 48fc 04be 20e4 af3c 7b3d f0bc a41c 333e
000002f0: 5221 093e 1e22 b3bd 2e3d 45bd 0bcf 4ebd
00000300: 9666 a83c c926 7ebc b816 23bd 628c 1abe
00000310: 567d 6ebd c89f c83d 6c3a cebd 3164 92bd
00000320: 65c9 683d b525 133e 6d35 723d 7377 d83d
00000330: 964b 0f3e 55d7 9abd bbb5 babd 29f0 8a3c
00000340: b78b 03be 0eea e4bd a40a 15bd b1fa 75bc
00000350: 9ed1 a63d 15a4 4d3d a7fb 17be 8492 22be
00000360: 9048 933c 6901 4cbc 76c6 d1bd 44f6 e1bc
00000370: 09a5 b73d 4466 79bd 36c2 12be 5f15 07bd
00000380: 7922 a33c 3407 7c3d ed8d e8bc 2d58 6a3d
00000390: 666b 423d d209 153b 4d89 10be 0ddc acbc
000003a0: 2901 ce3d 2aa6 e33d 38fd 1abe 4c90 ecbd
000003b0: b2a1 173d a83b d13b ffa8 fa3c 27b8 553d
000003c0: d387 44bd 709b d63d 084e 0bbc a225 ac3d
000003d0: 900c 8d3c e9be 183e ce53 ba3d 2d4b 0fbe
000003e0: 0d4b 0bbe e881 c1bc 14a1 f8bd 2f70 963d
000003f0: 3840 c93d f303 5ebd 6f98 433d 895c c13d

numerical_net.0.bias f4 [64]
-0.15436514 0.028685328 -0.13799854 -0.007040464 0.00051651243 0.058318797 -0.0009536324 -0.075157076
0.021275945 0.07266489 0.003486609 -0.124647096 -0.14550517 0.101642124 0.06138123 0.02280822
-0.004273188 0.10992082 -0.1543893 0.11566961 -0.10008754 0.14900613 -0.049359407 -0.098223045
-0.085685685 -0.0805692 -0.050740555 0.036847964 -0.022919925 0.111949384 -0.063628055 -0.14395837
-0.046487063 0.0497869 -0.041051872 -0.077855825 0.17480588 -0.08155799 -0.11452991 -0.08785688
-0.1599964 -0.011137417 -0.015539786 -0.038774148 0.03242986 -0.019813502 0.13694865 0.1234914
-0.12941042 -0.028225891 -0.1447359 -0.035093624 0.03416298 -0.0970512 0.083398245 -0.13485709
-0.08442599 0.1216295 -0.06644615 -0.06972456 0.033345465 0.107599884 0.077873245 -0.016666483
00000000: e511 1ebe 7efd ea3c 7d4f 0dbe b1b3 e6bb
00000010: 9066 073a b1df 6e3d 30fd 79ba f4eb 99bd
00000020: e44a ae3c 54d1 943d 987f 643b fa46 ffbd
00000030: 4fff 14be bf29 d03d e26a 7b3d 4ed8 ba3c
00000040: 1906 8cbb 2b1e e13d 3b18 1ebe 30e4 ec3d
00000050: b2fa ccbd 1095 183e 172d 4abd 2a29 c9bd
00000060: fa7b afbd 7701 a5bd 54d5 4fbd e4ed 163d
00000070: 91c2 bbbc b845 e53d 6d4f 82bd d369 13be
00000080: 3869 3ebd 59ed 4b3d 0226 28bd e072 9fbd
00000090: 5000 333e e007 a7bd a88e eabd 4fee b3bd
000000a0: 19d6 23be b679 36bc 969a 7ebc a4d1 1ebd
000000b0: 2cd5 043d ed4f a2bc 443c 0c3e 0fe9 fc3d
000000c0: 2a84 04be fc39 e7bc a635 14be 55be 0fbd
000000d0: 7bee 0b3d c8c2 c6bd b3cc aa3d fa17 0abe
000000e0: 89e7 acbd e318 f93d eb14 88bd c0cb 8ebd
000000f0: 4195 083d 545d dc3d 027c 9f3d 2688 88bc

numerical_net.2.weight f4 [64]
0.9834824 0.9832858 0.99178696 1.0134146 0.98027915 0.9816151 1.015843 0.9822007
1.0119255 1.0149587 0.99253255 0.9819505 0.9837423 1.0096976 1.0041769 0.9807446
1.0135474 0.9946513 0.9859566 1.0114661 0.9951836 1.0143344 1.0176551 0.98677063
0.9952045 1.0187811 0.9813423 1.0188103 1.0095259 0.98126864 0.98989534 1.0154043
0.9903884 0.9925024 1.0123506 0.9946046 1.0181031 1.0031421 1.0052145 0.9826131
0.9837949 0.9846365 0.9970745 1.0194472 1.018723 0.9842007 0.98232055 0.99247396
0.98623234 0.99883676 1.0118906 0.9976207 0.99983317 0.9814172 0.98222625 1.0180383
1.0157429 1.0019454 1.0180236 0.98278904 1.0167298 1.0040991 0.9833816 0.992175
00000000: 81c5 7b3f 9eb8 7b3f c0e5 7d3f 92b7 813f
00000010: 93f3 7a3f 214b 7b3f 2507 823f 8171 7b3f
00000020: c686 813f 2bea 813f 9d16 7e3f 1c61 7b3f
00000030: 89d6 7b3f c53d 813f de88 803f 1412 7b3f
00000040: ecbb 813f 78a1 7e3f a767 7c3f b977 813f
00000050: 5ac4 7e3f b6d5 813f 8642 823f 009d 7c3f
00000060: b9c5 7e3f 6b67 823f 4039 7b3f 6068 823f
00000070: 2538 813f 6c34 7b3f c869 7d3f c5f8 813f
00000080: 188a 7d3f a314 7e3f b494 813f 689e 7e3f
00000090: 3451 823f f666 803f deaa 803f 888c 7b3f
000000a0: fcd9 7b3f 2311 7c3f 4640 7f3f 3f7d 823f
000000b0: 8465 823f 94f4 7b3f 5c79 7b3f c612 7e3f
000000c0: b979 7c3f c4b3 7f3f a285 813f 1264 7f3f
000000d0: 11f5 7f3f 283e 7b3f 2e73 7b3f 144f 823f
000000e0: dd03 823f bf3f 803f 994e 823f 1098 7b3f
000000f0: 3424 823f 5286 803f e6be 7b3f 2eff 7d3f

numerical_net.2.bias f4 [64]
-0.018157616 -0.0001737742 0.017934417 0.018234704 -0.013728328 -0.00041490386 -0.012505889 0.0049295723
-0.017275583 -0.010146193 -0.014239063 -0.019909227 -0.019405691 -0.01853921 -0.018693771 -0.0005113251
-0.0026827082 -0.013161034 -0.010810903 0.009213103 0.017806893 0.013323284 0.018895423 0.00051163894
-0.01112583 -0.013641048 -0.008614509 0.018646654 0.008226089 -0.014625577 0.018175924 -0.017509393
0.0038520363 0.0148417335 0.002952878 0.019295713 -0.0029028298 0.018540407 0.013867478 -0.018226126
0.017955657 -0.011086712 0.01847746 -0.016842622 0.0073644356 -0.018883327 0.0011384876 -0.01986568
0.0015628242 -0.0021023806 -0.01811715 -0.002144932 0.01198583 -0.011367941 0.017593516 0.016917786
-0.016186383 0.01740655 -0.018428266 0.012569245 -0.0024665499 0.001103153 0.013260298 0.013181703
00000000: 48bf 94bc 2837 36b9 33eb 923c f260 953c
00000010: c8ec 60bc 7487 d9b9 80e5 4cbc 4088 a13b
00000020: 8685 8dbc 383c 26bc f54a 69bc ad18 a3bc
00000030: aff8 9ebc 8bdf 97bc ae23 99bc 720a 06ba
00000040: 60d0 2fbb 61a1 57bc 3720 31bc 8ef2 163c
00000050: c3df 913c e749 5a3c 93ca 9a3c 821f 063a
00000060: 1d49 36bc b47e 5fbc df23 0dbc dec0 983c
00000070: b8c6 063c 1ea0 6fbc ade5 943c dc6f 8fbc
00000080: 7272 7c3b be2a 733c 1285 413b 0b12 9e3c
00000090: 673d 3ebb 0de2 973c 6b34 633c f54e 95bc
000000a0: be17 933c 0aa5 35bc 0b5e 973c 8af9 89bc
000000b0: 5d51 f13b 35b1 9abc 4e39 953a 5abd a2bc
000000c0: aed7 cc3a 18c8 09bb 6b6a 94bc fd91 0cbb
000000d0: 3760 443c 9a40 3abc 4720 903c 2b97 8a3c
000000e0: 4e99 84bc 2e98 8e3c e0f6 96bc 3cef 4d3c
000000f0: d7a5 21bb ac97 903a b941 593c 12f8 573c

numerical_net.2.running_mean f4 [64]
0.0670149 0.11443723 0.10675876 0.12693667 0.15895277 0.14585489 0.13234584 0.11664656
0.16074386 0.18380317 0.13068688 0.113008685 0.087061994 0.18866113 0.1977635 0.17179438
0.14198792 0.18429624 0.10682336 0.18906155 0.12819287 0.21167246 0.14136216 0.14628457
0.126327 0.11600586 0.14039516 0.16922496 0.15815367 0.14551367 0.1436901 0.084317654
0.14677663 0.1480148 0.14428297 0.10741106 0.22257343 0.09073013 0.08684699 0.10339799
0.12996611 0.12130607 0.16623305 0.09779382 0.16716023 0.18034722 0.1980266 0.19030134
0.1297551 0.15256427 0.09230916 0.098903015 0.17884937 0.15068729 0.14521632 0.14031844
0.11537956 0.19712287 0.14223057 0.117379956 0.1541338 0.18432833 0.19298148 0.13698135
00000000: 1c3f 893d 115e ea3d 56a4 da3d b0fb 013e
00000010: 84c4 223e fc5a 153e ab85 073e 64e4 ee3d
00000020: 0a9a 243e e636 3c3e c8d2 053e 1971 e73d
00000030: 8f4d b23d 6230 413e 8482 4a3e deea 2f3e
00000040: 4865 113e 27b8 3c3e 35c6 da3d 5a99 413e
00000050: fe44 033e aac0 583e 3ec1 103e 9fcb 153e
00000060: dd5b 013e 7b94 ed3d c0c3 0f3e 4f49 2d3e
00000070: 09f3 213e 8901 153e 7f23 133e bcae ac3d
00000080: 9d4c 163e 3191 173e eabe 133e 54fa db3d
00000090: 4aea 633e b8d0 b93d d6dc b13d 53c2 d33d
000000a0: d615 053e 516f f83d ff38 2a3e 2048 c83d
000000b0: 0d2c 2b3e f1ac 383e 7cc7 4a3e 5bde 423e
000000c0: 85de 043e cf39 1c3e 960c bd3d aa8d ca3d
000000d0: 4a24 373e c54d 1a3e 96b3 143e a3af 0f3e
000000e0: 1e4c ec3d 94da 493e e4a4 113e e764 f03d
000000f0: 40d5 1d3e 91c0 3c3e f09c 453e d744 0c3e

numerical_net.2.running_var f4 [64]
0.388461 0.3798621 0.40302426 0.40776193 0.43940097 0.406699 0.40884712 0.40107697
0.45161855 0.47759444 0.40979642 0.41296133 0.38758826 0.43229395 0.45544684 0.44276688
0.4239816 0.43205586 0.41770574 0.4333378 0.4222076 0.5137057 0.43606007 0.45649913
0.42059693 0.41327083 0.4409102 0.45801064 0.43811697 0.40804774 0.42437494 0.38470244
0.42665592 0.42904192 0.421844 0.40573445 0.53923494 0.37848035 0.38901863 0.39396945
0.4268876 0.4135015 0.45479822 0.3787416 0.4357698 0.45259842 0.4446284 0.44316843
0.41313082 0.4237599 0.39002696 0.38809296 0.4372789 0.41881505 0.41208667 0.44148844
0.41397095 0.479222 0.43429533 0.42238444 0.45950124 0.47467554 0.4360727 0.4327654
00000000: 5ce4 c63e 497d c23e 3259 ce3e 2cc6 d03e
00000010: 2af9 e03e da3a d03e 6954 d13e f659 cd3e
00000020: 8c3a e73e 4287 f43e d6d0 d13e ab6f d33e
00000030: f871 c63e a255 dd3e 5430 e93e 57b2 e23e
00000040: 1e14 d93e 6d36 dd3e 87dd d53e 74de dd3e
00000050: 982b d83e 3782 033f 4443 df3e 41ba e93e
00000060: 7b58 d73e 3c98 d33e fbbe e13e 5f80 ea3e
00000070: de50 e03e a2eb d03e ac47 d93e b8f7 c43e
00000080: a572 da3e 62ab db3e f0fb d73e 6dbc cf3e
00000090: 4d0b 0a3f 2dc8 c13e 732d c73e 5db6 c93e
000000a0: 0391 da3e 78b6 d33e 50db e83e 6bea c13e
000000b0: 381d df3e fbba e73e 55a6 e33e f9e6 e23e
000000c0: e285 d33e 0ff7 d83e 9db1 c73e 1fb4 c63e
000000d0: 05e3 df3e ed6e d63e 06fd d23e c60a e23e
000000e0: 00f4 d33e 965c f53e f55b de3e c642 d83e
000000f0: bf43 eb3e ac08 f33e ec44 df3e 6d93 dd3e

numerical_net.4.weight f4 [64, 64]
-0.06694633 -0.10201673 0.09786477 -0.11581895 -0.046495065 -0.0076025818 0.008791427 0.11212113
0.001685192 0.11226149 0.07759269 -0.11584768 -0.08697139 -0.10694408 -0.051247858 0.041227493
-0.033728227 0.03519126 -0.03327738 -0.1050733 -0.018657664 0.08466976 0.048227336 0.028484806
0.117942214 -0.029227318 0.010228956 0.0013410944 0.03810115 0.014323298 -0.043002754 0.09399913
-0.08795998 -0.091533594 0.10944461 0.01878277 0.05242183 -0.09159971 -0.045766853 -0.023010945
-0.060962122 -0.062864766 -0.034279738 -0.058146987 -0.028382588 -0.11731354 0.060501188 0.010274327
-0.06755269 0.036883753 0.095091335 -0.0485211 -0.040751103 -0.013049797 0.034682903 0.05600304
0.12124963 0.081669785 0.071536414 -0.05054456 0.018792495 -0.043372553 0.01515415 0.12246354
-0.0442365 0.10163301 -0.017771557 0.04044557 -0.011120261 -0.011018478 -0.12552215 -0.06279404
-0.07892011 -0.12981185 -0.12011682 0.0044471947 -0.10759278 -0.022591664 0.016743107 -0.047037575
0.10375074 -0.11188606 0.082361415 0.02021621 -0.03194039 -0.00562225 0.07186526 0.0584301
0.014442643 -0.10084734 0.056021485 0.019139891 -0.026854858 -0.110883795 0.13908339 0.058285438
0.032836955 -0.071394354 -0.1363018 0.077097334 0.10151991 0.13057314 -0.053430565 -0.06491582
0.02821895 0.046565417 -0.043337286 -0.045316167 -0.103834264 -0.09150987 0.10160724 -0.12481106
0.1151055 -0.0016651213 -0.036177576 0.028127884 -0.052048936 0.018288605 -0.112854645 -0.016162436
-0.056858465 0.018483639 -0.11573843 0.04640544 -0.0920681 -0.10875234 -0.06356861 -0.06435617
-0.071785435 -0.016809952 0.110308945 -0.12132477 -0.034427702 0.020597525 0.11905479 0.04739025
-0.107997134 -0.05501317 -0.023032535 -0.026834687 0.111010775 -0.0131612355 0.035274696 -0.038850233
-0.08130543 0.04656096 0.041883133 0.083150454 -0.11174703 -0.0087822005 0.11534259 0.016114907
0.111729816 -0.11501942 0.12936686 0.07009242 -0.001926641 -0.10742402 -0.012808898 -0.10667652
-0.0954187 0.10036269 -0.1299306 -0.10934177 0.004296082 -0.073599555 0.07016862 0.061277505
-0.034021087 0.07416624 -0.07879931 -0.037151605 0.013431 0.058091294 -0.034915995 0.118430525
-0.013823436 -0.04520554 0.05602073 -0.118847676 0.053455938 -0.081287906 -0.08810426 0.04946884
0.039241076 -0.029450268 0.043849938 0.037153505 0.06270793 0.10438529 -0.11133811 -0.06416998
0.06550702 -0.0887279 -0.06390136 -0.006905627 -0.043859743 0.09654664 0.09650779 -0.03759176
-0.06438511 0.11643479 -0.10842278 -0.075940326 0.0044906233 -0.048677027 0.02214021 0.103227414
0.123198636 -0.032797527 0.10101789 0.0202265 -0.08859345 0.05020071 -0.024475832 0.03254348
0.054871492 0.10257082 0.0559023 0.025682822 -0.012110167 -0.03739231 0.01945171 -0.06128303
0.11736895 -0.059116334 -0.08038061 0.09400331 0.06263083 0.11656473 -0.071373895 0.08424611
0.052324988 0.044297427 0.11973697 -0.08356623 0.10442479 0.096653156 0.019253502 -0.12746817
0.077701814 -0.055395808 -0.07283854 0.03892582 -0.13745381 0.07705074 -0.014699263 0.093441516
-0.027337309 -0.05162836 -0.07097495 -0.0076343357 -0.06386187 -0.09880403 0.08939636 -1.2536766e-05
00000000: 281b 89bd 26ee d0bd 536d c83d 7c32 edbd
00000010: 9c71 3ebd 141f f9bb eb09 103c c39f e53d
00000020: a9e1 dc3a 5ae9 e53d ebe8 9e3d 8c41 edbd
00000030: 0e1e b2bd 7f05 dbbd 46e9 51bd 29de 283d
00000040: 9c26 0abd b624 103d dd4d 08bd ac30 d7bd
00000050: f5d7 98bc 5767 ad3d 078a 453d f858 e93c
00000060: b08b f13d 216e efbc 5a97 273c a9c7 af3a
00000070: f40f 1c3d 44ac 6a3c a823 30bd 9e82 c03d
00000080: 5d24 b4bd f775 bbbd 7f24 e03d 53de 993c
00000090: 46b8 563d a198 bbbd 0676 3bbd 7381 bcbc
000000a0: 6bb3 79bd 3ebf 80bd e968 0cbd 892b 6ebd
000000b0: 9a82 e8bc 1542 f0bd 18d0 773d a755 283c
000000c0: 1159 8abd 6b13 173d 3fbf c23d 10be 46bd
000000d0: a1ea 26bd d1ce 55bc a90f 0e3d 7263 653d
000000e0: ba51 f83d 7d42 a73d af81 923d d007 4fbd
000000f0: b8f2 993c 6ba7 31bd 1d49 783c 2ace fa3d
00000100: 5531 35bd f824 d03d a895 91bc 41aa 253d
00000110: c131 36bc d986 34bc e188 00be 299a 80bd
00000120: dea0 a1bd 66ed 04be cfff f5bd c6b9 913b
00000130: 9a59 dcbd 2712 b9bc d728 893c 79aa 40bd
00000140: 457b d43d 8524 e5bd 1aad a83d 779c a53c
00000150: edd3 02bd da3a b8bb 182e 933d 6754 6f3d
00000160: d6a0 6c3c 0d89 cebd c976 653d 43cb 9c3c
00000170: b8fe dbbc 0b17 e3bd e06b 0e3e b6bc 6e3d
00000180: 0b80 063d 3437 92bd b392 0bbe 35e5 9d3d
00000190: ace9 cf3d f7b4 053e 02da 5abd 96f2 84bd
000001a0: 6d2b e73c 61bb 3e3d 7082 31bd 729d 39bd
000001b0: 0fa7 d4bd 8769 bbbd 7517 d03d f19c ffbd
000001c0: 6fbc eb3d 3340 daba f02e 14bd 736c e63c
000001d0: 4431 55bd fcd1 953c 5620 e7bd 1667 84bc
000001e0: 6ce4 68bd 006b 973c 4508 edbd a113 3e3d
000001f0: 338e bcbd 8cb9 debd 4230 82bd 2bcd 83bd
00000200: 3e04 93bd 06b5 89bc a8e9 e13d 1f79 f8bd
00000210: 1004 0dbd 24bc a83c ffd2 f33d 471c 423d
00000220: 9a2d ddbd 7d55 61bd baae bcbc 6bd4 dbbc
00000230: 9e59 e33d 39a2 57bc 337c 103d 6c21 1fbd
00000240: 7683 a6bd b5b6 3e3d a68d 2b3d c94a aa3d
00000250: a0db e4bd 38e3 0fbc bc38 ec3d 6903 843c
00000260: 9ad2 e43d 4d8f ebbd bf78 043e 9d8c 8f3d
00000270: 5887 fcba 2001 dcbd 6adc 51bc 3879 dabd
00000280: e16a c3bd f48a cd3d 870c 05be 94ee dfbd
00000290: 26c6 8c3b 5dbb 96bd 91b4 8f3d 1ffe 7a3d
000002a0: b259 0bbd 78e4 973d 8861 a1bd 482c 18bd
000002b0: b20d 5c3c 23f1 6d3d 1304 0fbd b48b f23d
000002c0: b17b 62bc 7229 39bd fe75 653d 6966 f3bd
000002d0: 9df4 5a3d 467a a6bd 0270 b4bd d79f 4a3d
000002e0: 40bb 203d b041 f1bc fe9b 333d 462e 183d
000002f0: 046d 803d f4c7 d53d 3c05 e4bd 8d6b 83bd
00000300: 8b28 863d f9b6 b5bd b7de 82bd 9948 e2bb
00000310: 46a6 33bd 3fba c53d e0a5 c53d d1f9 19bd
00000320: 57dc 83bd 5d75 ee3d c30c debd 9a86 9bbd
00000330: 1426 933b 9061 47bd 635f b53c e568 d33d
00000340: 914f fc3d b356 06bd 78e2 ce3d 0cb2 a53c
00000350: 7c70 b5bd 429f 4d3d 8a81 c8bc 504c 053d
00000360: eec0 603d a610 d23d cff9 643d c864 d23c
00000370: b969 46bc ae28 19bd 3159 9f3c ea03 7bbd
00000380: 225f f03d f823 72bd 979e a4bd cf84 c03d
00000390: 9844 803d 7db9 ee3d 7a2c 92bd 3989 ac3d
000003a0: ba52 563d 3871 353d a838 f53d c624 abbd
000003b0: aadc d53d 17f2 c53d 85b9 9d3c 0487 02be
000003c0: 2122 9f3d b7e6 62bd 5f2c 95bd ae70 1f3d
000003d0: b1c0 0cbe c7cc 9d3d 2dd5 70bc 445e bf3d
000003e0: 7ef2 dfbc 4278 53bd 515b 91bd 7329 fabb
000003f0: 03ca 82bd c459 cabd 7015 b73d 0055 52b7

numerical_net.4.bias f4 [64]
-0.055314656 -0.00016677682 -0.0943021 -0.021973759 -0.011011348 0.0725327 -0.0656165 0.10178412
0.0742169 0.01899565 0.06631635 -0.06409864 -0.04587584 0.06446437 -0.13401426 0.0935986
-0.08984497 0.014361404 0.109975845 -0.035217468 0.1047226 0.0029662428 0.021135563 -0.056969352
0.049362574 -0.10640957 0.060430676 -0.015658552 0.047455784 0.06514032 -0.10082601 -0.08116525
-0.05309213 0.027879382 0.045765977 0.080730796 0.026611403 0.05626697 -0.06433956 -0.050670892
-0.07784213 0.055330634 0.04675485 0.045534525 -0.10132028 -0.029818382 0.08911294 -0.11319921
-0.10796801 0.0058829878 0.072461076 0.13304494 0.09407603 -0.00729128 0.084962465 -0.026929135
0.10716037 -0.07203014 0.13131359 0.089962155 -0.11829399 -0.100811645 -0.11146971 0.07285658
00000000: 9f91 62bd d0e0 2eb9 7621 c1bd 5002 b4bc
00000010: f168 34bc 068c 943d f261 86bd 3174 d03d
00000020: 08ff 973d c49c 9b3c ded0 873d 2646 83bd
00000030: 4ee8 3bbd e505 843d 093b 09be 9fb0 bf3d
00000040: a400 b8bd 184c 6b3c 043b e13d 3140 10bd
00000050: cd78 d63d 4c65 423b 7d24 ad3c b258 69bd
00000060: 6930 4a3d 43ed d9bd 2886 773d 5d46 80bc
00000070: ff60 423d 4a68 853d de7d cebd f739 a6bd
00000080: 2277 59bd 4d63 e43c 1b75 3b3d 3056 a53d
00000090: 2800 da3c 3278 663d 76c4 83bd 488c 4fbd
000000a0: b26b 9fbd 60a2 623d 0382 3f3d 6982 3a3d
000000b0: 0281 cfbd ae45 f4bc d880 b63d fdd4 e7bd
000000c0: 551e ddbd 14c6 c03b 7966 943d ef3c 083e
000000d0: efaa c03d b1eb eebb cd00 ae3d 7d9a dcbc
000000e0: e576 db3d 8a84 93bd 1277 063e 143e b83d
000000f0: 1f44 f2bd 5676 cebd 3b4a e4bd d535 953d

numerical_net.6.weight f4 [64]
0.9821059 1.0159785 0.98065466 0.9961424 1.0108892 1.0151577 0.99940157 0.9964956
0.98102784 1.0134544 1.0179315 0.99950886 1.0083346 1.0163085 0.98104554 0.9802403
0.998822 0.982461 1.0130873 0.98504764 0.981605 0.9828249 0.9820714 0.98275983
0.9983555 1.0154834 0.9894336 1.0105616 1.0053124 1.0023333 0.9823044 0.98584825
1.0065687 0.98851216 0.9802536 1.0017929 0.98294604 0.9884365 1.0047077 0.9839749
1.0069156 0.99132437 0.981187 0.99316615 0.9823165 0.98036015 0.9805227 1.0131388
0.98234826 0.98554456 0.9912214 0.9847358 0.98194504 1.0171622 0.9827663 0.9855892
0.9833931 0.9906819 1.0131023 0.9946825 1.005759 1.0087107 0.9949825 0.9816606
00000000: 4b6b 7b3f 950b 823f 2f0c 7b3f 3003 7f3f
00000010: d164 813f b0f0 813f c8d8 7f3f 561a 7f3f
00000020: a424 7b3f e0b8 813f 944b 823f d0df 7f3f
00000030: 1c11 813f 6616 823f cd25 7b3f 07f1 7a3f
00000040: ccb2 7f3f 9082 7b3f d8ac 813f 152c 7c3f
00000050: 774a 7b3f 6a9a 7b3f 0869 7b3f 2696 7b3f
00000060: 3a94 7f3f 5cfb 813f 854b 7d3f 155a 813f
00000070: 14ae 803f 754c 803f 4d78 7b3f 8d60 7c3f
00000080: 3ed7 803f 220f 7d3f e6f1 7a3f c03a 803f
00000090: 5aa2 7b3f 2d0a 7d3f 439a 803f c7e5 7b3f
000000a0: 9ce2 803f 6fc7 7d3f 122f 7b3f 2340 7e3f
000000b0: 1879 7b3f e2f8 7a3f 8903 7b3f 88ae 813f
000000c0: 2d7b 7b3f a64c 7c3f b0c0 7d3f a517 7c3f
000000d0: c060 7b3f 5f32 823f 9296 7b3f 934f 7c3f
000000e0: a6bf 7b3f 549d 7d3f 56ad 813f 83a3 7e3f
000000f0: b6bc 803f 6f1d 813f 2cb7 7e3f 1c4e 7b3f

numerical_net.6.bias f4 [64]
0.016504563 0.012577968 -0.009020939 -0.010324586 0.009245792 0.019731637 -0.0013473793 -0.019129122
0.00061669166 0.018757837 0.013783363 0.0035831034 0.010797968 -0.015485645 -0.018721059 0.0052524228
-0.017993625 -0.012983788 0.00055415195 -0.01200499 0.012760852 -0.0013418335 0.017792808 -0.01837018
-0.009257508 -0.01368723 -0.0067327917 -0.019662704 0.00518882 0.0063374974 0.007356524 -0.010067316
-0.0032967138 -0.010360183 -0.01910497 -0.019676734 -0.01141157 0.018969394 0.009215354 -0.018657144
-0.0030440944 -0.01669624 -0.010664163 -0.0065444717 0.00955995 -0.006759676 -0.014228198 0.018303705
-0.014643356 -0.011281478 -0.017960925 0.016305218 0.002587493 -0.012195191 -0.013177459 -0.01173834
0.017927164 0.0105485115 0.012809578 -0.0034239762 -0.008332551 0.0049763173 -0.0036002765 0.017372789
00000000: 9434 873c d213 4e3c 8fcc 13bc 7428 29bc
00000010: aa7b 173c 3ea4 a13c 8c9a b0ba adb4 9cbc
00000020: 7aa9 213a 09aa 993c 9dd3 613c 80d2 6a3b
00000030: f6e9 303c 81b7 7dbc e85c 99bc 841c ac3b
00000040: 5e67 93bc f4b9 54bc 8244 113a 94b0 44bc
00000050: e512 513c 76e0 afba 39c2 913c 0f7d 96bc
00000060: ceac 17bc 6740 60bc c09e dcbb ae13 a1bc
00000070: fa06 aa3b c8aa cf3b ff0e f13b 62f1 24bc
00000080: ae0d 58bb c2bd 29bc 0782 9cbc 1a31 a1bc
00000090: 98f7 3abc b465 9b3c fffb 163c ded6 98bc
000000a0: 6e7f 47bb 8ec6 88bc beb8 2ebc 0273 d6bb
000000b0: 56a1 1c3c 4680 ddbb 631d 69bc a7f1 953c
000000c0: b0ea 6fbc f3d5 38bc ca22 93bc 8592 853c
000000d0: ee92 293b 57ce 47bc 45e6 57bc 2b52 40bc
000000e0: fddb 923c aad3 2c3c 44df 513c ca64 60bb
000000f0: 4185 08bc 6010 a33b 9ef2 6bbb 6151 8e3c

numerical_net.6.running_mean f4 [64]
0.14057903 0.17960466 0.1150064 0.18098028 0.18557368 0.19180037 0.11411482 0.18658201
0.1676293 0.16983199 0.18682826 0.15777059 0.14421558 0.19058302 0.102522194 0.17581734
0.13710247 0.164624 0.20996274 0.11651741 0.18464053 0.15798959 0.17583576 0.13633543
0.16130212 0.10909846 0.17523661 0.13351777 0.17663482 0.1563585 0.11877446 0.16474007
0.12743291 0.17457287 0.14453243 0.23324361 0.15903194 0.17053397 0.13990346 0.13545656
0.15502562 0.16714402 0.17212653 0.13719292 0.12830773 0.15671782 0.19579335 0.1310948
0.11748855 0.18742181 0.17602363 0.2030696 0.18291278 0.20342937 0.16830051 0.17410609
0.18370326 0.15116109 0.2070334 0.20154649 0.13408737 0.12728103 0.15162022 0.21822058
00000000: f3f3 0f3e 49ea 373e 7a88 eb3d e552 393e
00000010: 0707 3e3e 5167 443e 08b5 e93d 5b0f 3f3e
00000020: 04a7 2b3e 70e8 2d3e e84f 3f3e 9d8e 213e
00000030: 40ad 133e 3228 433e 28f7 d13d 7609 343e
00000040: 9764 0c3e 3293 283e 7900 573e aea0 ee3d
00000050: 6812 3d3e 06c8 213e 4a0e 343e 849b 0b3e
00000060: 622c 253e 036f df3d 3a71 333e e2b8 083e
00000070: c2df 343e 711c 203e 0640 f33d 9fb1 283e
00000080: c67d 023e 3bc3 323e 4f00 143e 6ad7 6e3e
00000090: 45d9 223e 75a0 2e3e da42 0f3e 20b5 0a3e
000000a0: 09bf 1e3e cd27 2b3e f041 303e 4d7c 0c3e
000000b0: 1a63 033e a37a 203e 0d7e 483e b73d 063e
000000c0: d69d f03d 81eb 3f3e 8a3f 343e 7af1 4f3e
000000d0: 7d4d 3b3e ca4f 503e f856 2c3e de48 323e
000000e0: b51c 3c3e f9c9 1a3e 9000 543e 3462 4e3e
000000f0: 334e 093e f555 023e 5542 1b3e 3775 5f3e

numerical_net.6.running_var f4 [64]
0.45872378 0.44381875 0.4260396 0.48487863 0.5008704 0.4598563 0.40588897 0.44589218
0.43944767 0.46297377 0.47947153 0.4666046 0.41925523 0.4649917 0.40194044 0.43453896
0.40542704 0.4250462 0.47037265 0.41528603 0.4216895 0.4198033 0.45433855 0.5048898
0.4622152 0.44063675 0.4781745 0.45088953 0.45308074 0.40797523 0.3976972 0.5005971
0.4290683 0.46603596 0.40820402 0.5340591 0.4479433 0.44157305 0.454905 0.429691
0.44618598 0.46078256 0.48254213 0.43580714 0.41329455 0.41482863 0.49326408 0.43326482
0.41320893 0.4500215 0.46650782 0.46606845 0.4622294 0.51769036 0.42642382 0.48974055
0.46100253 0.46777153 0.4645661 0.49953756 0.44616395 0.44280523 0.41688198 0.49223816
00000000: d8dd ea3e 363c e33e dd21 da3e 0342 f83e
00000010: 0b39 003f 4972 eb3e aed0 cf3e fb4b e43e
00000020: 49ff e03e e60a ed3e 4b7d f53e cce6 ee3e
00000030: 9fa8 d63e 6413 ee3e 23cb cd3e e47b de3e
00000040: 2294 cf3e a89f d93e afd4 f03e 5fa0 d43e
00000050: b0e7 d73e 75f0 d63e 109f e83e 7540 013f
00000060: 78a7 ec3e 249b e13e 4ad3 f43e feda e63e
00000070: 33fa e73e 21e2 d03e f89e cb3e 2227 003f
00000080: d7ae db3e 449c ee3e 1e00 d13e 19b8 083f
00000090: d358 e53e dd15 e23e 4fe9 e83e 7500 dc3e
000000a0: 7d72 e43e b1eb eb3e c30f f73e 1d22 df3e
000000b0: 589b d33e 6b64 d43e 1c8d fc3e e3d4 dd3e
000000c0: 1f90 d33e 3869 e63e 1dda ee3e 86a0 ee3e
000000d0: 55a9 ec3e 5b87 043f 3954 da3e 46bf fa3e
000000e0: 8608 ec3e c07f ef3e 9cdb ed3e 63c3 ff3e
000000f0: 9a6f e43e 5eb7 e23e 8e71 d53e a406 fc3e

title_net.0.weight f4 [128, 200]
0.005719977 0.012118619 0.0713992 -0.002246783 -0.004906163 -0.038878392 0.018966986 0.061586678
-0.0015921581 -0.013487089 0.049313493 -0.026600864 -0.0014346679 0.030741187 -0.044083953 -0.0570114
0.019877845 0.0030166944 0.04413635 0.0687071 -0.0034504852 -0.004226588 0.0025617606 0.037091725
0.0705212 -0.07771519 0.05641036 0.00832901 -0.052417956 0.06126612 -0.026613303 0.0459815
-0.059232425 -0.043279793 0.05902464 0.035906292 -0.010412319 -0.0676839 -0.06777467 0.0030452216
-0.045436617 -0.053695638 0.057673495 0.06603614 -0.050384086 0.02427672 0.011010809 0.032678105
0.069722205 0.01880966 -0.019900206 -0.040477682 0.057247926 0.0426538 0.044660553 0.02728336
-0.003560733 -0.082768284 0.02318711 -0.06346186 0.08518669 0.016831508 0.06075887 0.062030107
-0.04707172 0.03915085 -0.00025761733 0.028244311 0.049325973 -0.026754204 0.05315432 -0.074785255
-0.013396059 0.030099943 0.0032587836 -0.02961333 -0.07407813 -0.072007634 -0.058366444 -0.0023866715
0.03371629 0.055695537 0.041581657 -0.033287905 -0.01988616 -0.027767066 -0.052941598 -0.021257846
-0.055700976 0.011634734 -0.041563902 0.051447224 -0.04123727 0.004370116 -0.056927502 0.051425744
-0.056862112 -0.06173182 -0.020943793 0.02194955 -0.0087386845 0.049673427 -0.0647626 0.039241966
0.0025679036 -0.045614697 0.03828926 -0.0007988246 0.04856548 -0.043021202 -0.029385107 -0.049529333
-0.017159326 -0.05827801 -0.013598152 0.041949503 -0.04611902 0.010323366 -0.06756473 -0.024061536
-0.015792675 -0.049198937 0.039694376 -0.0037915627 -0.038684975 0.044417776 0.08208938 -0.0069955997
0.04128945 -0.054424606 -0.06833372 -0.020485416 -0.02965537 0.037331685 -0.05229859 -0.06950919
-0.026224839 0.087140575 0.004010559 -0.03187433 0.012371809 -0.007513757 0.077239186 -0.03381429
0.07236736 0.037943073 0.07510742 0.055827927 0.0051117805 0.014716711 0.041033316 0.00044729526
-0.036617067 0.04952614 -0.06483813 -0.008854884 0.04043621 -0.05919885 -0.034845404 0.06622402
-0.049239468 0.033011526 -0.04245901 -0.02298351 -0.051178675 0.0008166785 0.028701598 -0.019330563
0.050906982 0.026046908 0.01620768 -0.055949852 0.047054317 -0.034609973 -0.02573791 0.008401745
-0.07051653 0.030646335 0.059979342 -0.038502324 0.059081394 -0.018741595 0.056014486 0.0056842747
-0.04282064 0.029507143 0.0066044703 -0.04456686 0.0056140134 0.005366223 -0.0732673 0.045157865
-0.013471074 -0.012997306 -0.05654736 0.050224457 -0.037854455 -0.048163146 0.049178615 0.06157155
-0.034192536 -0.053522285 -0.005521806 0.031531822 -0.01905952 -0.019036438 0.06613493 0.08455933
-0.02102365 0.03576428 0.053430263 -0.030145017 0.014588117 0.05362656 0.051590316 0.0442474
0.0023870063 0.046283823 -0.006059765 0.018329294 0.026260287 0.02443801 -0.023054225 -0.019714298
-0.034945842 0.030234896 0.054357674 0.036271915 -0.04349719 -0.008088757 0.018167017 0.031052755
-0.029865168 -0.043704815 0.06290762 0.05612577 0.012475955 0.027190682 0.013620365 0.022550052
-0.010960605 0.054315764 0.07935731 0.033550154 -0.011295941 0.0028252003 0.002688895 0.014643382
0.005417175 0.010553723 0.042923965 0.0030943947 -0.013412257 0.04978092 -0.017036786 0.05269589
00000000: a56e bb3b 2c8d 463c be39 923d c43e 13bb
00000010: e1c3 a0bb f33e 1fbd a760 9b3c 5042 7c3d
00000020: f6af d0ba f4f8 5cbc f2fc 493d 0eea d9bc
00000030: 770b bcba f1d4 fb3c 6091 34bd c984 69bd
00000040: ddd6 a23c bcb3 453b 51c8 343d 4fb6 8c3d
00000050: 8921 62bb 317f 8abb 36e3 273b 7eed 173d
00000060: 6b6d 903d 2429 9fbd 8d0e 673d 6676 083c
00000070: 36b4 56bd 2ff2 7a3d 2404 dabc 1957 3c3d
00000080: b39d 72bd 2746 31bd d2c3 713d 7a12 133d
00000090: 6e98 2abc db9d 8abd 72cd 8abd 5792 473b
000000a0: bf1b 3abd f5ef 5bbd 0b3b 6c3d f53d 873d
000000b0: 8b5f 4ebd f9df c63c ae66 343c 7ad9 053d
000000c0: 84ca 8e3d b716 9a3c c205 a3bc edcb 25bd
000000d0: cd7c 6a3d c0b5 2e3d fced 363d 5a81 df3c
000000e0: 305b 69bb 6b82 a9bd e5f2 bd3c 4bf8 81bd
000000f0: 5c76 ae3d 3be2 893c 4bde 783d 4813 7e3d
00000100: 47ce 40bd a45c 203d d010 87b9 9d60 e73c
00000110: 080a 4a3d a22b dbbc 58b8 593d 0329 99bd
00000120: 257b 5bbc 2894 f63c 5191 553b a797 f2bc
00000130: 46b6 97bd bd78 93bd a711 6fbd b469 1cbb
00000140: 181a 0a3d 0121 643d 8751 2a3d e658 08bd
00000150: 4de8 a2bc c277 e3bc 4ad9 58bd ef24 aebc
00000160: b526 64bd 9d9f 3e3c e93e 2abd 53ba 523d
00000170: 69e8 28bd 3133 8f3b d02c 69bd cda3 523d
00000180: 3fe8 68bd 81da 7cbd 5192 abbc 8bcf b33c
00000190: b32c 0fbc 5d76 4b3d 41a2 84bd 2fbc 203d
000001a0: 464a 283b 7ad6 3abd 33d5 1c3d 3668 51ba
000001b0: 99ec 463d 0037 30bd 09b9 f0bc 45df 4abd
000001c0: b791 8cbc ecb4 6ebd c9ca 5ebc 3ed3 2b3d
000001d0: 4ce7 3cbd 5623 293c 615f 8abd b31c c5bc
000001e0: a45f 81bc d384 49bd 9296 223d de7b 78bb
000001f0: 2374 1ebd 6aef 353d 7a1e a83d 583b e5bb
00000200: 201f 293d 56ec 5ebd 8df2 8bbd 08d1 a7bc
00000210: d2ef f2bc 1ce9 183d 0c37 56bd d65a 8ebd
00000220: 79d5 d6bc c276 b23d 026b 833b a88e 02bd
00000230: 21b3 4a3c f635 f6bb 942f 9e3d da80 0abd
00000240: 5735 943d 326a 1b3d ebd1 993d d3ab 643d
00000250: b980 a73b 5c1e 713c 8d12 283d f482 ea39
00000260: c7fb 15bd ecdb 4a3d dac9 84bd 1314 11bc
00000270: 70a0 253d 7e7a 72bd 0eba 0ebd 76a0 873d
00000280: 53af 49bd 1837 073d 80e9 2dbd ea47 bcbc
00000290: bba0 51bd 5e16 563a 9d1f eb3c 215b 9ebc
000002a0: d783 503d 5360 d53c f8c5 843c ac2b 65bd
000002b0: 07bc 403d 30c3 0dbd 4fd8 d2bc 79a7 093c
000002c0: f86a 90bd 060e fb3c e6ac 753d 9db4 1dbd
000002d0: 55ff 713d f987 99bc 726f 653d 2743 ba3b
000002e0: b264 2fbd f7b8 f13c 506a d83b bd8b 36bd
000002f0: c2f5 b73b 24d7 af3b 2b0d 96bd 74f7 383d
00000300: c8b5 5cbc a7f2 54bc 349e 67bd 29b8 4d3d
00000310: 460d 1bbd b846 45bd 846f 493d 7332 7c3d
00000320: 790d 0cbd 2f3a 5bbd 44f0 b4bb 8327 013d
00000330: b622 9cbc 4ef2 9bbc c071 873d 712d ad3d
00000340: ca39 acbc 917d 123d b1d9 5a3d aff2 f6bc
00000350: ff02 6f3c 86a7 5b3d 5e50 533d c33c 353d
00000360: 526f 1c3b 1b94 3d3d fe90 c6bb 5127 963c
00000370: d01f d73c 3932 c83c 37dc bcbc e17f a1bc
00000380: 5f23 0fbd 2caf f73c 27a6 5e3d dc91 143d
00000390: 1c2a 32bd b586 04bc ffd2 943c 5962 fe3c
000003a0: cca7 f4bc d203 33bd b6d5 803d 23e4 653d
000003b0: f367 4c3c febe de3c f427 5f3c e3ba b83c
000003c0: 1c94 33bc 357a 5e3d 1686 a23d e36b 093d
000003d0: 9c12 39bc ff26 393b 2c38 303b ccea 6f3c
000003e0: 8f82 b13b 86e9 2c3c 0ad1 2f3d 54cb 4a3b
000003f0: 15bf 5bbc 14e7 4b3d bb90 8bbc a5d7 573d

title_net.0.bias f4 [128]
0.015987363 -0.033235162 -0.027986897 -0.0063233953 -0.016888548 -0.032161858 -0.04147366 -0.040825766
0.05510812 0.073986135 -0.024283608 -0.077217594 0.0039097383 -0.010880019 -0.042574737 -0.011555272
0.036299225 0.03649322 -0.029853838 -0.03648654 -0.057665966 0.004873093 0.034841105 -0.006924132
-0.052755702 -0.014845792 0.014445781 -0.031221766 0.04163177 0.07183663 -0.031468883 0.0010171023
-0.051751513 -0.051445965 -0.043176882 -0.0020177006 0.0020148377 -0.05362514 -0.06210331 0.038495656
0.0075997147 0.0075882934 -0.0025716326 0.04890352 -0.045306746 0.010117999 0.0651271 0.07186366
-0.008713996 0.03787625 0.07931942 0.04310297 0.04854163 0.07031112 -0.037905633 -0.022532139
0.032406207 -7.761002e-05 -0.011754865 0.032576676 -0.015462203 0.065129705 0.058651347 -0.028009856
0.029250192 -0.004217345 0.021580782 0.053424362 0.04537447 0.019497233 0.00095703866 -0.06622553
0.064317666 -0.043272432 -0.00430738 -0.07462313 -0.056006175 0.059954602 0.022937518 0.021896971
0.031466454 0.0283963 -0.02857301 -0.016323095 -0.037985433 -0.0011619525 0.009849433 0.0025190962
0.059373505 0.017017528 0.02453983 0.046811674 0.04011035 0.05386109 -0.046765715 -0.004149076
0.006975588 -0.010672779 -0.009891758 -0.07930469 0.067257285 0.047637813 0.044624235 0.055122804
0.028487679 0.0006348904 0.035081092 -0.019074658 -0.027950173 -0.016885042 -0.05711337 -0.058384847
0.05734614 -0.024633646 -0.05733546 0.0059472853 0.028468946 0.06399439 -0.007655431 -0.02718703
-0.05461952 -0.0023142404 0.07484039 -0.047472965 0.051764123 -0.048582114 0.011874256 0.006242208
00000000: eef7 823c 9821 08bd c744 e5bc 7c34 cfbb
00000010: da59 8abc 27bc 03bd 49e0 29bd eb38 27bd
00000020: 0db9 613d 0b86 973d 6bee c6bc 4224 9ebd
00000030: 431d 803b 1b42 32bc d962 2ebd 5352 3dbc
00000040: 7fae 143d ea79 153d 0990 f4bc e972 15bd
00000050: 2633 6cbd 78ae 9f3b 8cb5 0e3d d4e3 e2bb
00000060: 5d16 58bd c43b 73bc ffad 6c3c cac4 ffbc
00000070: 1386 2a3d 151f 933d 84e5 00bd 4a50 853a
00000080: 65f9 53bd 01b9 52bd 3eda 30bd 663b 04bb
00000090: 5e0b 043b 09a6 5bbd 0a60 7ebd 9fad 1d3d
000000a0: 0707 f93b 38a7 f83b d688 28bb 0f4f 483d
000000b0: 9193 39bd f7c5 253c 5b61 853d 412d 933d
000000c0: 26c5 0ebc 2024 1b3d 3872 a23d bd8c 303d
000000d0: 97d3 463d 47ff 8f3d f042 1bbd 5295 b8bc
000000e0: 5fbc 043d 90c2 a2b8 7a97 40bc 1f6f 053d
000000f0: 2e55 7dbc b962 853d 653c 703d ed74 e5bc
00000100: 199e ef3c a731 8abb 2eca b03c 81d3 5a3d
00000110: 95da 393d a9b8 9f3c c7e1 7a3a 40a1 87bd
00000120: fbb8 833d 6f3e 31bd ec24 8dbb 03d4 98bd
00000130: bb66 65bd f592 753d 76e7 bb3c 4761 b33c
00000140: f8e2 003d 5b9f e83c f211 eabc 03b8 85bc
00000150: 9d96 1bbd a84c 98ba 845f 213c 6c17 253b
00000160: a231 733d 5868 8b3c c107 c93c 99bd 3f3d
00000170: c04a 243d 729d 5c3d 688d 3fbd f9f4 87bb
00000180: 7993 e43b e1dc 2ebc 0a11 22bc 7f6a a2bd
00000190: 30be 893d de1f 433d e7c7 363d 73c8 613d
000001a0: fe5e e93c c66e 263a 31b1 0f3d 7542 9cbc
000001b0: c3f7 e4bc 8052 8abc b6ef 69bd f324 6fbd
000001c0: c9e3 6a3d 80cc c9bc 96d8 6abd 72e1 c23b
000001d0: b537 e93c 7e0f 833d 69da fabb 56b7 debc
000001e0: b8b8 5fbd 83aa 17bb eb45 993d 0373 42bd
000001f0: 9e06 543d 0afe 46bd 3d8c 423c 708b cc3b

title_net.2.weight f4 [128]
0.9824966 0.9871108 0.9918221 0.9810161 1.0182194 1.0188138 1.0103188 0.9861545
1.0158025 1.0157251 1.0005054 0.98835313 1.0141318 0.9826844 0.9846516 1.0045325
1.0011045 1.0184476 1.0123705 0.98099667 0.9806868 0.9866171 0.9840251 0.9974932
0.9869473 0.9918149 0.9997577 1.0046592 1.01639 0.9978775 0.98102385 0.9910124
0.9903998 1.0148184 1.0086212 0.98115474 0.9966729 1.0158412 0.99287605 0.9876786
0.99112874 1.0020514 1.003139 0.98713523 0.98907584 1.0134044 0.9823858 0.99629897
0.98188925 0.9874695 0.98581284 1.0170233 0.9951058 0.99633056 1.0194777 1.0163933
1.0199757 0.9883212 0.9913467 0.9801044 1.0133731 0.99216944 0.9857852 0.9828719
0.9815456 0.98564965 0.9805633 0.9806438 0.9853668 1.0083168 1.0189734 0.9827758
0.9827708 0.98909175 0.98676676 0.98684806 0.9901798 0.99888825 0.9803802 1.0146209
1.0179524 1.0174575 0.9815777 1.014066 0.9832684 0.99547714 0.9848868 0.990115
0.9826546 0.9916328 0.99006253 0.9917255 0.9960365 1.0120633 0.9865735 0.9805396
1.0179763 0.98828036 0.9959368 0.9820835 0.985454 0.98903537 1.0117477 1.0123497
1.0116513 0.9813904 1.0087363 1.0019075 0.9831986 0.98843956 0.98074853 0.9834848
1.0189909 0.9925049 0.98282635 1.0184256 1.0120726 0.9885906 0.9935873 0.9807921
1.0115613 0.9817715 0.9871774 0.9918452 0.98159915 1.0034482 0.9893563 1.018414
00000000: e684 7b3f 4bb3 7c3f 0ee8 7d3f df23 7b3f
00000010: 0355 823f 7e68 823f 2052 813f 9f74 7c3f
00000020: d105 823f 4803 823f 9010 803f b604 7d3f
00000030: 12cf 813f 3491 7b3f 2112 7c3f 8594 803f
00000040: 3124 803f 7e5c 823f 5b95 813f 9922 7b3f
00000050: 4a0e 7b3f f092 7c3f 12e9 7b3f b75b 7f3f
00000060: 94a8 7c3f 95e7 7d3f 1ff0 7f3f ac98 803f
00000070: 1119 823f e674 7f3f 6124 7b3f fdb2 7d3f
00000080: d78a 7d3f 92e5 813f 801a 813f f52c 7b3f
00000090: f525 7f3f 1607 823f 202d 7e3f 81d8 7c3f
000000a0: 9dba 7d3f 3843 803f dc66 803f e5b4 7c3f
000000b0: 1334 7d3f 3cb7 813f a37d 7b3f 730d 7f3f
000000c0: 185d 7b3f cdca 7c3f 3b5e 7c3f d22d 823f
000000d0: 41bf 7e3f 850f 7f3f 3f7e 823f 2d19 823f
000000e0: 908e 823f 9e02 7d3f e6c8 7d3f 1fe8 7a3f
000000f0: 36b6 813f d1fe 7d3f 6b5c 7c3f 7e9d 7b3f
00000100: 9346 7b3f 8953 7c3f 3206 7b3f 790b 7b3f
00000110: 0041 7c3f 8610 813f b86d 823f 3297 7b3f
00000120: de96 7b3f 1e35 7d3f bf9c 7c3f 13a2 7c3f
00000130: 6c7c 7d3f 24b7 7f3f 32fa 7a3f 19df 813f
00000140: 444c 823f 0c3c 823f ad48 7b3f eacc 813f
00000150: 7ab7 7b3f 97d7 7e3f 8b21 7c3f 2d78 7d3f
00000160: 408f 7b3f a6db 7d3f bd74 7d3f b9e1 7d3f
00000170: 40fc 7e3f 4a8b 813f 1590 7c3f a504 7b3f
00000180: 0c4d 823f f1ff 7c3f b7f5 7e3f d369 7b3f
00000190: b746 7c3f 6c31 7d3f f380 813f ad94 813f
000001a0: ca7d 813f 673c 7b3f 451e 813f 813e 803f
000001b0: e7b2 7b3f 600a 7d3f 5612 7b3f a9c5 7b3f
000001c0: 4b6e 823f cd14 7e3f 829a 7b3f c55b 823f
000001d0: 988b 813f 4614 7d3f bd5b 7e3f 3115 7b3f
000001e0: d77a 813f 6155 7b3f a8b7 7c3f 91e9 7d3f
000001f0: 154a 7b3f fe70 803f 7446 7d3f 645b 823f

title_net.2.bias f4 [128]
-0.009583961 0.0035050442 0.007738396 -0.013734433 0.002676649 -0.002150077 -0.019761119 0.017739123
0.005024052 0.018807177 -0.0048432765 -0.018937904 0.016518628 0.0004281333 0.01758896 -0.020117076
-0.01039313 0.004524745 0.019438097 0.009986555 0.009108348 -0.01183854 0.015797926 -0.009991096
-0.016456146 -0.014011297 0.0016087518 0.010698506 0.012142249 -0.019314962 0.011887426 -0.020009447
-0.019814875 0.013242461 0.011433446 -0.0145007465 -0.019727979 0.0039142054 -0.00055541017 -0.006574453
0.0005752011 -0.006974721 0.0027909274 -0.011708748 -0.010854817 -0.014158553 -0.019465998 0.004402701
0.007090669 -0.017673701 -0.014269834 0.020003067 0.01792032 0.019987289 -0.010975427 -0.009327037
-0.019982997 0.01148214 -0.020063521 0.0028422559 0.019207248 -0.014083559 0.012068575 -8.761388e-05
0.019904584 0.0070097195 0.019259986 0.009966271 -0.009481785 0.011804418 0.006924593 0.018011846
-0.012675628 -0.019909296 0.017264739 0.017820967 0.013997604 0.019463977 0.005039077 -0.019689878
0.019633127 0.003353789 -0.010027786 -0.0070081004 0.013826933 0.013667698 -0.00054806087 0.011512584
0.014351407 -0.018195946 0.010744913 -0.003661252 -0.02016755 -0.019374978 -0.012830086 0.014572242
-0.002713307 -0.020022081 -0.008078372 -0.0109156035 -0.019959243 -0.018881915 -0.013627802 0.0023261865
0.0022981532 -0.0071395547 -0.018855726 0.0036615795 0.018687658 -0.012250189 0.01208607 -0.0046567246
-0.0032534427 -0.011604801 0.00918105 0.013628717 0.013118447 0.019114219 -0.020110877 0.0098663075
-0.019189533 -0.008582758 0.018981544 -0.018905526 -0.016831046 -0.010026362 -0.019218884 0.019283352
00000000: 0c06 1dbc e2b4 653b 5f92 fd3b 6306 61bc
00000010: b86a 2f3b 4ee8 0cbb 12e2 a1bc a351 913c
00000020: cea0 a43b 8211 9a3c 59b4 9ebb aa23 9bbc
00000030: 1352 873c 1477 e039 b916 903c 91cc a4bc
00000040: f247 2abc 5044 943b a53c 9f3c a69e 233c
00000050: 2e3b 153c 70f6 41bc a76a 813c b2b1 23bc
00000060: 0acf 86bc a48f 65bc c1dc d23a c948 2f3c
00000070: 49f0 463c 693a 9ebc 7ac3 423c daea a3bc
00000080: ce52 a2bc e8f6 583c 5953 3b3c 8a94 6dbc
00000090: 929c a1bc bc42 803b f298 11ba 826e d7bb
000000a0: 18c9 163a 338c e4bb fee7 363b 0cd6 3fbc
000000b0: 67d8 31bc 47f9 67bc 2877 9fbc 8844 903b
000000c0: d858 e83b 70c8 90bc 06cc 69bc 79dd a33c
000000d0: a3cd 923c 62bc a33c 47d2 33bc 6ed0 18bc
000000e0: 62b3 a3bc 961f 3c3c 415c a4bc 2445 3a3b
000000f0: 8558 9d3c babe 66bc 46bb 453c 58bd b7b8
00000100: f00e a33c cab1 e53b 1ec7 9d3c 9249 233c
00000110: 7d59 1bbc 5167 413c b2e7 e23b 948d 933c
00000120: 70ad 4fbc d218 a3bc c86e 8d3c 47fd 913c
00000130: 3556 653c eb72 9f3c d71e a53b ab4c a1bc
00000140: a7d5 a03c 3ecb 5b3b 954b 24bc 35a4 e5bb
00000150: 5c8a 623c 7bee 5f3c beab 0fba 479f 3c3c
00000160: 2a22 6b3c aa0f 95bc 6e0b 303c 9ef1 6fbb
00000170: 6b36 a5bc 46b8 9ebc 4835 52bc 6ac0 6e3c
00000180: bdd1 31bb 5905 a4bc 265b 04bc 5cd7 32bc
00000190: 9181 a3bc 3fae 9abc 2547 5fbc ef72 183b
000001a0: 9d9c 163b edf2 e9bb 5377 9abc 1cf7 6f3b
000001b0: dc16 993c 04b5 48bc a704 463c 7097 98bb
000001c0: b637 55bb 1022 3ebc 1d6c 163c fb4a 5f3c
000001d0: c1ee 563c 6c95 9c3c 91bf a4bc 4ba6 213c
000001e0: 5e33 9dbc b29e 0cbc 2f7f 9b3c c3df 9abc
000001f0: 43e1 89bc 9c45 24bc ec70 9dbc 1ff8 9d3c

title_net.2.running_mean f4 [128]
0.041165084 0.021669276 0.027571429 0.010049453 0.09523354 0.14701034 0.008052739 0.004342715
0.056773562 0.06516897 0.010360966 0.0020354833 0.17225227 0.0067368834 0.011836843 0.007811959
0.09903536 0.068402335 0.17112195 0.049554072 0.020426953 0.0054359017 0.003784255 0.021556227
0.004277951 0.0031105194 0.029565705 0.07780572 0.2370595 0.02151585 0.0015368254 0.014679329
0.001197277 0.08363649 0.03705405 0.0374561 0.008813573 0.068999946 0.14035664 0.033136077
0.023107883 0.040534224 0.044109117 0.010244376 0.12831205 0.12697707 0.04591697 0.029427463
0.02239644 0.07217786 0.17231172 0.09401137 0.068405375 0.17547312 0.033728167 0.048428394
0.016836913 0.098257594 0.0013692842 0.033668656 0.111417726 0.012432002 0.1312021 0.0011214481
0.11173181 0.0013230769 0.018639538 0.06375142 0.06568105 0.10685479 0.06947041 0.0012449708
0.05449665 0.0036982475 0.053819764 0.0021537442 0.017469972 0.14115277 0.08434578 0.06908541
0.10017567 0.074390955 0.0050659697 0.069856554 0.0051492234 0.05315952 0.02291446 0.1931913
0.004477575 0.006162704 0.007020393 0.006318555 0.00815733 0.072521575 0.006145181 0.022425022
0.0687373 0.037647903 0.005272059 0.00512901 0.060597118 0.06741285 0.0625055 0.064498395
0.15235409 0.01843531 0.010162593 0.14017498 0.042945057 0.033504643 0.007024159 0.0048866905
0.041244376 0.026344499 0.0019728276 0.07152263 0.07841558 0.18889157 0.0028568446 0.06674331
0.07337732 0.10434326 0.18257032 0.005236349 0.12965576 0.0055883625 0.0028267882 0.10315114
00000000: b89c 283d c483 b13c 7add e13c 76a6 243c
00000010: cd09 c33d e189 163e a3ef 033c 554d 8e3b
00000020: 658b 683d 4f77 853d 0bc1 293c be65 053b
00000030: e662 303e 13c1 dc3b 51ef 413c 76fb ff3b
00000040: 0dd3 ca3d 8616 8c3d 983a 2f3e 36f9 4a3d
00000050: 6d56 a73c a61f b23b 4301 783b af96 b03c
00000060: 0e2e 8c3b dbd9 4b3b c733 f23c 9b58 9f3d
00000070: babf 723e 0242 b03c 4e6f c93a 9181 703c
00000080: f3ed 9c3a 9c49 ab3d fdc5 173d 916b 193d
00000090: ce66 103c d84f 8d3d a7b9 0f3e b2b9 073d
000000a0: be4c bd3c 3707 263d c3ab 343d 07d8 273c
000000b0: 3c64 033e 4706 023e 6f13 3c3d dd11 f13c
000000c0: bd78 b73c fcd1 933d 7c72 303e 0889 c03d
000000d0: 1e18 8c3d 3aaf 333e 8c26 0a3d da5c 463d
000000e0: 91ed 893c 473b c93d 8e79 b33a 25e8 093d
000000f0: fa2e e43d 99af 4b3c d859 063e 8efd 923a
00000100: a6d3 e43d 186b ad3a f2b1 983c 1b90 823d
00000110: c983 863d afd6 da3d 8146 8e3d 4a2e a33a
00000120: e137 5f3d 4c5e 723b 1d72 5c3d d525 0d3b
00000130: 301d 8f3c 5a8a 103e 7bbd ac3d a77c 8d3d
00000140: e728 cd3d 495a 983d 6f00 a63b f410 8f3d
00000150: d1ba a83b ccbd 593d 1bb7 bb3c f1d3 453e
00000160: 9fb8 923b 82f0 c93b 530b e63b e20b cf3b
00000170: 52a6 053c 3186 943d 845d c93b aeb4 b73c
00000180: 24c6 8c3d b034 1a3d 3cc1 ac3b 4111 a83b
00000190: af34 783d c00f 8a3d e202 803d bc17 843d
000001a0: b602 1c3e a605 973c 0181 263c 088a 0f3e
000001b0: 28e7 2f3d 2a3c 093d eb2a e63b 8820 a03b
000001c0: ddef 283d 6bd0 d73c 8e4a 013b 757a 923d
000001d0: 5998 a03d cb6c 413e e639 3b3b b7b0 883d
000001e0: d946 963d ebb1 d53d b7f3 3a3e ae95 ab3b
000001f0: 7bc4 043e 951e b73b a341 393b e840 d33d

title_net.2.running_var f4 [128]
0.35283375 0.3511006 0.35091615 0.34975767 0.3549242 0.35896057 0.34954116 0.34925207
0.3536553 0.35305056 0.35021853 0.348994 0.35796338 0.3495398 0.35070184 0.3498531
0.35518616 0.35477445 0.36339104 0.3534108 0.35146362 0.34943283 0.34917784 0.35168386
0.34924904 0.3491394 0.3514238 0.35578978 0.36149067 0.3515299 0.3488913 0.35082805
0.34887972 0.3557925 0.351766 0.3516279 0.34957722 0.3550299 0.36010388 0.3515449
0.35131326 0.35323024 0.35316724 0.3498407 0.35572076 0.35617572 0.3532301 0.3529709
0.35150555 0.3541928 0.35643792 0.3588075 0.35459712 0.35763597 0.35277703 0.35407734
0.35086522 0.35436344 0.34894907 0.35157418 0.35797697 0.35033557 0.35651386 0.34882876
0.35480747 0.34892458 0.3506283 0.35388285 0.35622767 0.35739696 0.35454094 0.3489115
0.35362336 0.34926754 0.35320404 0.34891945 0.35035035 0.35720477 0.3531306 0.3546346
0.35681275 0.3553149 0.34936997 0.35531816 0.34928623 0.35344335 0.35048613 0.35861477
0.34934154 0.3495428 0.34949586 0.34976798 0.34986234 0.3541577 0.34962493 0.3510945
0.35449335 0.3528232 0.34966725 0.34925696 0.35561267 0.35384402 0.35344112 0.3555484
0.35739225 0.35077083 0.3500589 0.35862043 0.35243914 0.35225832 0.34980616 0.34944975
0.3523587 0.35191903 0.3489593 0.35547206 0.35455284 0.3573227 0.34918806 0.35444218
0.35501978 0.35499945 0.35545108 0.34931648 0.35432085 0.3493214 0.34910536 0.3575441
00000000: a0a6 b43e 75c3 b33e 48ab b33e 7013 b33e
00000010: a0b8 b53e aec9 b73e 0ff7 b23e 2bd1 b23e
00000020: 4f12 b53e 0bc3 b43e d84f b33e 57af b23e
00000030: fa46 b73e e1f6 b23e 318f b33e f21f b33e
00000040: f6da b53e ffa4 b53e 640e ba3e 43f2 b43e
00000050: 0af3 b33e dce8 b23e 70c7 b23e e80f b43e
00000060: c5d0 b23e 66c2 b23e d2ed b33e 142a b63e
00000070: 4e15 b93e bafb b33e e1a1 b23e bc9f b33e
00000080: 5da0 b23e 6f2a b63e ac1a b43e 9208 b43e
00000090: c9fb b23e 7bc6 b53e 895f b83e b1fd b33e
000000a0: 55df b33e 98da b43e 56d2 b43e 521e b33e
000000b0: 0821 b63e aa5c b63e 93da b43e 9ab8 b43e
000000c0: 89f8 b33e c258 b53e 087f b63e 9eb5 b73e
000000d0: c18d b53e 101c b73e 319f b43e a049 b53e
000000e0: 9ba4 b33e 206f b53e 74a9 b23e 8801 b43e
000000f0: c248 b73e 2f5f b33e fc88 b63e af99 b23e
00000100: 53a9 b53e 3ea6 b23e 8d85 b33e 2230 b53e
00000110: 7963 b63e bcfc b63e 6486 b53e 87a4 b23e
00000120: 1f0e b53e 32d3 b23e 29d7 b43e 92a5 b23e
00000130: 1f61 b33e 8be3 b63e 89cd b43e ab92 b53e
00000140: 29b0 b63e d6eb b53e 9fe0 b23e 43ec b53e
00000150: a5d5 b23e 87f6 b43e eb72 b33e 5b9c b73e
00000160: e5dc b23e 46f7 b23e 1ff1 b23e ca14 b33e
00000170: 2821 b33e 2854 b53e 0a02 b33e a9c2 b33e
00000180: 2780 b53e 3ea5 b43e 9607 b33e cfd1 b23e
00000190: dd12 b63e 0b2b b53e 3cf6 b43e 710a b63e
000001a0: 1efc b63e 3c98 b33e ec3a b33e 199d b73e
000001b0: e772 b43e 345b b43e cb19 b33e 14eb b23e
000001c0: 5c68 b43e bb2e b43e cbaa b23e 6f00 b63e
000001d0: f387 b53e 00f3 b63e c7c8 b23e 7279 b53e
000001e0: 27c5 b53e 7dc2 b53e affd b53e 9cd9 b23e
000001f0: 8b69 b53e 41da b23e f0bd b23e 0510 b73e
