artifacts/training_runs/run_20250613_115315/best_model.pth (torch, 585269 bytes, 39 tensors)

numerical_net.0.weight f4 [64, 36]
00000000: a52a 053d e626 643d aa02 7ebd 126c 65bd
00000010: b51a b7bb 7049 373c 0c03 c93c d00e c1bd
00000020: cdd1 febb 0de6 e5bc 46af 44bd 8243 20be
00000030: c253 1abe fd39 a4bc ab18 013e 1046 953c
00000040: 6dc5 2c3d 010e babd eab9 173e 05ab 83bd
00000050: e128 34bd 433c 103e c86d 333e 9f26 bfbd
00000060: cddd 85bd 99a4 81bc 5206 23be 6cd7 0f3e
00000070: d02b 8a3b 2c77 b5bd bb34 41bd 8bfa f73d
00000080: 337d 7ebd 66a2 fbbd 83bf 053e ba3e f33d
00000090: 4123 193e 018b 9a3d f8df 033e 4a16 84bd
000000a0: f2a8 bfbd a76d bb3d 06cb 9f3d 92d8 03be
000000b0: 98f2 09bd 8a8a e4bd 581f c83b 7c0e 083e
000000c0: f59b 09be 5f5f c03d 20f7 ce3d e863 043e
000000d0: 0e9b 66bb 1b6c e33d 01d5 fdbc aab9 52bd
000000e0: 0c0a 56bd 513b 7b3d d496 b03d c04e db3d
000000f0: 6849 37be ed4e ffbc d7de 44bd 8bfb 0fbe
00000100: 4912 393d 46b8 1bbe 2ec8 5abd 453e 593d
00000110: d0c9 283e c62f c73d e3a9 0b3d 3e3a 76bb
00000120: 6a51 11be c773 94bd 59d7 91bd ec42 eabc
00000130: 517f e1bc 2884 15be f4a0 003e aeac f0bd
00000140: 6cca bc3b 7380 803d ab4e 30bd a0a0 6c3b
00000150: de6c 143e b7d9 8b3d 1ad1 57bd dd5b e1bb
00000160: 41a3 f03d 68df eb3c d71a f53d cbb7 333e
00000170: b481 993d 23fd 84bd 621a 54bc cabb 7b3b
00000180: 267a cbb9 7303 0b3d a2cd 823d 42c2 b9bd
00000190: 68b1 ec3b e2f3 b93d 43d2 c63d 10ae 0fbe
000001a0: 039b 803d 39dd 843c 1489 10be cdb5 af3c
000001b0: ba7d 293d d529 f1bc 9cda 4dbd 8a62 a7bd
000001c0: 1a95 2f3e 1131 e5bd bd47 00be 150e 18be
000001d0: afa9 c8bd 46a8 9c3d f13a 31be 7d85 cabd
000001e0: 022f b4bd 1d54 213e 734e bbbd 5e67 dcbc
000001f0: 1c39 1b3e 3317 1cbe 67c0 0b3e 5414 19be
00000200: f3e3 573d c22f e23c 2d15 c43d 97c3 843d
00000210: 6b40 983d 350d d43d 9b56 1ebe 2ea4 0bbd
00000220: 86a0 2b3e 71b4 c5bd fa45 b0bd e5b1 a3bc
00000230: eedd f4bd 30b5 0b3e 0b00 f1bd 6df1 ba3b
00000240: 4e5b 933b 630d 7c3d fc37 e03d 4353 17bd
00000250: 2e9d bc3d 01c8 e3bd b560 c53d 80d5 113e
00000260: 1990 01be e6bc 86bd f3a4 283d 62ff 013e
00000270: 84f4 69bd 7a5c d1bd cf66 913c 6317 883d
00000280: 2f86 efbd 18da 623d 3700 c73d ad21 96bc
00000290: 09f9 253e e42b 2ebd 818f 6abd 5adc 1a3d
000002a0: 8f82 b2bd e007 23be 1ae9 4abd fd7c 33be
000002b0: abc9 e53d bf11 b5bd c956 8f3c bae1 843d
000002c0: e494 003e 5adf b9bc 84ce 1b3e 703f 373e
000002d0: 883a 12be d382 04be 1eaf 573d f41c a7bb
000002e0: 6896 063d 788a a3bd b94d e9bd d85a 223e
000002f0: 839c df3d 0bfa bebd b970 aa3d c462 00be
00000300: 2138 1d3e 3ab6 ffbd bed7 f9bd abbf f73c
00000310: 9cb3 093e 1ebc 6e3d 6a51 1a3e 3f62 9c3c
00000320: c781 2cbd bebd aebc f76a 80bd 99a1 183d
00000330: 5934 56bd 4825 fcbc 6ac9 af3d 96c6 a93d
00000340: 6b23 d3bd 77bf 093d 48db 5b3d b9bb 513c
00000350: 52b4 01be 0348 63bd 20a0 67bd 38ec 06be
00000360: 26a9 ca3d 5bd7 23bd ad79 debb 3ec4 cc3c
00000370: 2ee3 d23d 0797 cc3d a1a5 133e 5924 c53c
00000380: e6d2 913b 60c7 e63c 9dfa ebbd f48f 27be
00000390: 612e acbd 9b96 ccbc 1d03 96bb a4b0 2ebd
000003a0: d354 b73d aec9 1cbe 51e7 64bd 2572 56bd
000003b0: 0c94 1c3d 7be1 123e bf0f 133e 2c11 fabd
000003c0: 4016 c1bd 9f42 73bd 12a2 75bd e7f7 c53c
000003d0: f6d1 9dbd 0e01 bb3c e9a3 8fbb 4e2e 80bd
000003e0: f368 053e 3f56 ddbd cc3a 2a3e 284a 45bb
000003f0: b22f 6fbd 80db 8c3d d50f fe3d a222 b73d
0.032511372 0.05570116 -0.06201426 -0.056011267 -0.0055879005 0.011186942 0.024537586 -0.094266534
-0.007776475 -0.028063798 -0.048018716 -0.15650752 -0.15071014 -0.020047182 0.12607066 0.018221885
0.042180467 -0.09084702 0.14817014 -0.06429104 -0.043984298 0.14085488 0.17522347 -0.09333538
-0.06536446 -0.015825557 -0.1592038 0.1404702 0.0042166486 -0.08860621 -0.04716943 0.12108334
-0.062131118 -0.122868344 0.13061337 0.118771985 0.14954855 0.07546044 0.12878406 -0.06449564
-0.09358396 0.09151774 0.078023955 -0.12875584 -0.03367862 -0.11159237 0.006107252 0.13286775
-0.13438399 0.093931906 0.10105729 0.12928736 -0.0035187635 0.11104604 -0.030985357 -0.051446594
-0.052255675 0.061335865 0.08622518 0.1070838 -0.17899096 -0.031165564 -0.04806408 -0.140608
0.045183454 -0.15207013 -0.053413562 0.0530379 0.16483235 0.09725909 0.034097563 -0.0037571336
-0.14191213 -0.07248645 -0.071211524 -0.028596364 -0.02752653 -0.14601195 0.12561399 -0.11751686
0.0057614353 0.062745 -0.043043774 0.0036106482 0.14494655 0.06828635 -0.05268965 -0.006877406
0.11749888 0.028793052 0.1196801 0.1755058 0.07495442 -0.064935945 -0.012945743 0.0038411492
-0.00038810185 0.033938836 0.063868776 -0.09070255 0.007223297 0.0907972 0.09708073 -0.14031243
0.06279566 0.016218768 -0.14114791 0.021448994 0.041379668 -0.029438892 -0.05025731 -0.08173092
0.17146721 -0.11190999 -0.12527366 -0.14849122 -0.097979896 0.07649283 -0.1730764 -0.09888742
-0.087980285 0.15754743 -0.091458224 -0.026904758 0.15158504 -0.15243225 0.13647614 -0.14949161
0.052707624 0.027610663 0.095743515 0.06482618 0.07434162 0.103540815 -0.15462725 -0.03409212
0.16760454 -0.09653557 -0.08607097 -0.019982288 -0.11956392 0.13643336 -0.11767586 0.0057050497
0.0044969684 0.061536204 0.10948178 -0.03694464 0.09209667 -0.11122132 0.09637586 0.142416
-0.12652625 -0.06578998 0.041172933 0.12695077 -0.057117954 -0.10222717 0.017749218 0.06645086
-0.11695515 0.05538377 0.09716838 -0.018326605 0.1620828 -0.042522326 -0.057265762 0.0378078
-0.08716308 -0.15920973 -0.04953871 -0.17528148 0.11220106 -0.088412754 0.017497437 0.064883664
0.12556797 -0.02268951 0.15215498 0.17895293 -0.1428014 -0.1294053 0.05265724 -0.005099887
0.032858282 -0.07985395 -0.113917775 0.15854967 0.10918524 -0.09325036 0.083222814 -0.12537676
0.15353443 -0.12485929 -0.12199353 0.030242762 0.13447422 0.05828487 0.1507012 0.019089816
-0.042115953 -0.02133071 -0.06270402 0.037263487 -0.052296016 -0.030779496 0.085833386 0.082898304
-0.1030949 0.03362986 0.05367592 0.012801104 -0.12666443 -0.055488598 -0.05654919 -0.13176048
0.09895544 -0.0400003 -0.006789407 0.02499592 0.10297237 0.09989744 0.14418651 0.024065183
0.00445019 0.028171241 -0.1152241 -0.16363508 -0.084072836 -0.024974158 -0.004578008 -0.042648926
0.08951726 -0.1531131 -0.055884663 -0.05235495 0.038227126 0.14343826 0.14361475 -0.122103065
-0.09428072 -0.059389707 -0.059969015 0.02416606 -0.077060625 0.022827651 -0.0043835533 -0.06258832
0.13028316 -0.10807466 0.16623992 -0.0030104015 -0.058395095 0.06877804 0.124053635 0.089421526

numerical_net.0.bias f4 [64]
00000000: 17e3 983d 16db 67bc d717 f73d f425 babc
00000010: 7f60 cb3c d5b8 3d3d f093 54bd ccd4 9bbd
00000020: 8b40 ef3d 1e69 fbbd 898c a1bd 210a 33be
00000030: 25f3 1ebc 78d3 4dbc 8603 8a3d 5c3e 0a3e
00000040: 2630 26bd f5dd a13c 2d62 d13d 720b 0cbc
00000050: a425 04be 66ab 08bc ef89 0cbe 9461 ce3d
00000060: 9cee 2c3d 3fbc 1c3e 6e7e 343c 29ea a93d
00000070: 464f dd3d ce24 0d3e aa9d b3bd 2289 743d
00000080: 9d16 03be 0a8a 9f3d b618 173e 2103 1abe
00000090: 48f5 c7bb ef31 b3bd 549a 00be 7481 223e
000000a0: 29d8 ea3d 5d72 313d 577f bcbc 15e7 d53d
000000b0: accf 2d3c b0c3 903c 89c2 303e 1431 f63d
000000c0: 7b0b a6bd 2ffc 0ebe d9c6 0cbe d811 b93b
000000d0: d933 123e aaec 1a3d 72a8 143d 43a6 89bd
000000e0: 54c2 cc3c f46f 0dbc e3e8 a8bd 5f75 c63d
000000f0: 8ffb ddbd a896 453c f763 1d3e 7aeb 153e
0.07465189 -0.014151355 0.12065094 -0.022723176 0.024826286 0.046318848 -0.051898897 -0.07608947
0.116822325 -0.12275909 -0.07888133 -0.17484333 -0.009701525 -0.012562625 0.06738953 0.1350035
-0.04057326 0.019759158 0.10223804 -0.008547651 -0.12904984 -0.008341646 -0.13724492 0.10077205
0.042219743 0.15306185 0.011016471 0.08296616 0.10806136 0.13783571 -0.087703064 0.059701093
-0.12801595 0.07790001 0.1475552 -0.15040256 -0.006102238 -0.087497585 -0.12558872 0.15869695
0.114670105 0.043321956 -0.02300994 0.10444466 0.010608595 0.017671436 0.1726171 0.1202108
-0.081076585 -0.13963388 -0.1374773 0.005647879 0.14277591 0.037823357 0.036293454 -0.06721165
0.024995007 -0.008632649 -0.082475446 0.096903555 -0.108389966 0.012059845 0.15370165 0.14640608

numerical_net.2.weight f4 [64]
00000000: 4848 7b3f fbed 7c3f a464 823f 5611 823f
00000010: dbc8 7b3f 3b5c 823f 758f 7b3f c748 813f
00000020: 0ec3 7e3f 1ae9 7f3f f39d 7b3f c366 803f
00000030: cd6f 813f 5dfe 813f 1651 803f ad42 803f
00000040: 6058 813f b5f8 7f3f 5afa 7d3f f575 823f
00000050: a9a2 803f ffd4 7d3f 5602 813f a084 7c3f
00000060: 74c8 813f 0f6f 7f3f 8bf6 7d3f df29 803f
00000070: 321d 7d3f b9b4 7b3f 37c8 813f 494c 7b3f
00000080: 1c08 7f3f dff7 7c3f 482b 803f 7c47 7b3f
00000090: f26b 823f 9a11 823f f900 7c3f ed06 7d3f
000000a0: 0c8e 813f f0a5 813f f6e4 7c3f 23cb 7c3f
000000b0: 96a5 7e3f 08a6 7f3f 50ff 803f 2a06 7f3f
000000c0: f8e2 7c3f 13d8 7c3f 84c9 7c3f 0785 823f
000000d0: efec 7f3f 7e00 7b3f 4f64 813f cc58 823f
000000e0: 49b9 7c3f b24a 823f eed5 7d3f 5716 7c3f
000000f0: bf8b 7b3f 4f38 813f 9733 7c3f e874 7d3f
0.9815717 0.9880063 1.0186963 1.016154 0.98353356 1.0184397 0.98265773 1.0100335
0.9951638 0.9996506 0.98287886 1.003136 1.0112244 1.015575 1.0024745 1.0020348
1.0105095 0.9998887 0.9921013 1.0192248 1.004964 0.9915313 1.0078838 0.9863987
1.0139298 0.99778837 0.9920432 1.0012778 0.98872674 0.98322636 1.0139226 0.98163277
0.9962175 0.9881572 1.0013208 0.9815595 1.0189192 1.0161622 0.98438984 0.9883869
1.0121474 1.0128765 0.98786867 0.9874746 0.99471414 0.9986272 1.0077915 0.9961878
0.98783827 0.98767203 0.9874499 1.0196847 0.99970907 0.98047626 1.0108737 1.0183349
0.9872022 1.0179045 0.99154556 0.9847159 0.9826011 1.0095309 0.9851622 0.9900651

numerical_net.2.bias f4 [64]
00000000: 20f3 07bc 9928 263c 5c3e 9bbc f363 9e3c
00000010: 8710 9c3c ca26 97bc 545a 963c 58c3 88bc
00000020: bbd1 9b3c 235c ffbb 24db 8a3c 0cf9 78bc
00000030: 12a1 43bc c3c9 9e3c 3e11 7c3c 9da7 9f3c
00000040: 10ec 3b3a a42e 8ebc 275a 4c3a 9e02 18bc
00000050: 8bea 4ebb 39e4 08bc 74f2 2d3c 91b6 133c
00000060: b886 96bc 9b90 653b de2c 913c e473 93bc
00000070: 1ac1 e63b 43f3 103c 8849 65bc ff86 92bb
00000080: 4693 34ba b99a 823c 98f6 9bbc 1f03 953c
00000090: 9b52 a93b d0a4 8b3c c9e8 07bc da07 41bc
000000a0: 69a3 94bc 4488 70bc dc7b e83b acd1 833c
000000b0: b4af 243c 706b 963c 9376 b2bb 167a 9dbc
000000c0: 661f 96bc 7a0a 3fba a84b 973c 7c50 ecbb
000000d0: 8e6f 6e3c ba62 5bbc 6494 24bc 629f 9b3c
000000e0: e265 653c bafb 2fbc 6081 3a3c 97d9 80bc
000000f0: ca73 9abc cbec 66bc 7209 323c 3c0e d33a
-0.008297712 0.010141515 -0.018950634 0.019334769 0.01905085 -0.018451113 0.018353619 -0.01669471
0.019020906 -0.007792966 0.016950198 -0.015196096 -0.011940258 0.019383317 0.01538497 0.019489104
0.000716866 -0.017356224 0.0007795416 -0.009277968 -0.0031572904 -0.008355194 0.010616887 0.009015695
-0.018374786 0.0035028819 0.01772159 -0.017999597 0.0070420625 0.008847061 -0.013994582 -0.004471659
-0.00068884005 0.015942918 -0.019038484 0.018189965 0.005167318 0.017046362 -0.008295246 -0.011781657
-0.018144326 -0.014680926 0.0070948433 0.01609119 0.0100516565 0.018361777 -0.005446264 -0.019223254
-0.018325519 -0.0007287633 0.018468693 -0.007211743 0.014552964 -0.013390237 -0.010045145 0.018996898
0.014001342 -0.010741169 0.0113833845 -0.015728755 -0.01885404 -0.014094542 0.01086651 0.0016102265

numerical_net.2.running_mean f4 [64]
00000000: 2d57 373e 952b 203e f052 393e d608 0f3e
00000010: b2be 3b3e 671c 303e 300b e03d 7c82 fe3d
00000020: 6405 443e 7f57 fd3d f095 133e 25cb d03d
00000030: b003 f23d d92a 383e bfa8 5e3e 353a 693e
00000040: a760 c93d f4cb 183e 9e16 1b3e 0e25 1b3e
00000050: 69f6 d73d fbb5 033e b15b a93d 0945 093e
00000060: 5553 183e 7372 3e3e b7e7 0f3e f0cf 363e
00000070: 5719 3b3e c428 363e 90fa ea3d d6f7 033e
00000080: 77c4 d73d 931b 513e 7a1a 5d3e 4c14 c33d
00000090: f23d 263e 18be de3d 992c d43d 8447 683e
000000a0: faca 4b3e 7e7f 213e b3be 2a3e f007 513e
000000b0: ad1d 1f3e c755 103e 3a67 513e d790 2e3e
000000c0: 4941 ed3d 057e bd3d 547a 0b3e cbf7 113e
000000d0: edfb 4c3e 49ec 273e 4ee7 3e3e 49f4 213e
000000e0: 46cf 183e 88fd 0b3e 7729 c63d 8487 133e
000000f0: 2faa e23d 6914 363e d1b0 4b3e d6f8 573e
0.17904349 0.15641625 0.18098044 0.13968214 0.18334463 0.17198335 0.10939634 0.12427232
0.19142681 0.12370204 0.14412665 0.10194997 0.118171096 0.17985095 0.21744059 0.2277611
0.09832888 0.14921552 0.15145347 0.15150854 0.10545046 0.12862389 0.08269442 0.13405241
0.14875539 0.18598346 0.14053236 0.1785276 0.18271385 0.17788988 0.11473572 0.1288751
0.105355196 0.20420675 0.21592131 0.09525356 0.16234568 0.10876101 0.10360069 0.22683531
0.19901648 0.1577129 0.16674308 0.20413184 0.15538664 0.14095221 0.20449534 0.1704744
0.11584718 0.09252552 0.13620883 0.14254682 0.20017977 0.1639873 0.18642923 0.15815844
0.14922819 0.13670933 0.096758775 0.14407164 0.11067616 0.17781223 0.19891669 0.21091017

numerical_net.2.running_var f4 [64]
00000000: 7387 de3e 9a24 df3e 3c5e e13e d9a4 d23e
00000010: 210b f23e 5cf6 df3e c9f8 cb3e a125 ce3e
00000020: b90d df3e a0d0 dc3e 7085 dd3e 1142 cc3e
00000030: bb1b c83e d520 e63e bf92 013f 29c8 e43e
00000040: c05e c63e b43f d93e 6e79 cf3e bfe8 d83e
00000050: d7b5 cf3e 3fa5 d13e eb23 c93e 755d c63e
00000060: 5cf6 d53e ee61 d73e f8fb d73e a2cf df3e
00000070: a65c d93e 4a25 da3e cef8 d53e de59 d13e
00000080: 10af d93e 58cf e43e ac9e e73e 004b c53e
00000090: 09e2 ec3e 04eb c93e a471 c93e 53a3 ed3e
000000a0: f5a3 ea3e 8478 da3e 34b7 023f 4dfb eb3e
000000b0: c120 d63e 90ca d43e 2030 e33e 8cda dc3e
000000c0: f74b d33e c36d cb3e 9224 d63e 745e df3e
000000d0: 7c1b e73e 3c8e d93e e5ec e23e 1b90 da3e
000000e0: 6873 d53e d3cd d63e 41fb c53e 8a48 ce3e
000000f0: fdb4 d23e 401b e53e 0e8d e53e a2da e93e
0.43462715 0.43582612 0.44017208 0.41141394 0.47274116 0.43742645 0.39838246 0.40263084
0.43565157 0.43127918 0.43265867 0.39894155 0.39083657 0.44946924 0.5061454 0.4468396
0.38744164 0.42431414 0.4052233 0.4236507 0.4056842 0.40946385 0.39285216 0.38743177
0.4178952 0.42066902 0.42184424 0.437131 0.42453498 0.42606574 0.41791385 0.40888876
0.42516375 0.4468944 0.45238245 0.38533783 0.462662 0.39437115 0.39344513 0.4641367
0.45828214 0.4267007 0.51060796 0.46090165 0.41821864 0.41560793 0.44372654 0.43135488
0.41268894 0.3973218 0.41824776 0.4362675 0.45138156 0.4249133 0.4432136 0.4268807
0.4168961 0.41953906 0.38668254 0.40289718 0.41153708 0.44747353 0.4483418 0.45674616

numerical_net.4.weight f4 [64, 64]
00000000: 47d7 1d3d 134b 1f3d 4939 cf3d b715 b4bd
00000010: a51f a93d d695 6d3c 656c 913d 2a82 f53a
00000020: 0f84 693d 2304 993d c39e 8dbc 9a36 2ebd
00000030: 1684 703d ec7d 6bba c200 9fbd b893 a23d
00000040: b433 253c da92 c2bd b92e a63d becf 5a3d
00000050: 1732 85bc 406a 433d 1db2 fa3d 1746 abbc
00000060: abf6 54bd 53e5 4a3d ed81 01be 2420 cebd
00000070: 8cac 68bd 60e0 a53c 7124 3b3c 208d 933c
00000080: 4d21 b73d 4058 a13c 25f9 b9bd 9c5f a4bd
00000090: 4080 e4bb 014e 5fbd a633 d3bc 0069 c4bd
000000a0: 1aa2 033e 65d5 e13d 46a6 053e 7424 543d
000000b0: 477e 083e 05a8 6bbd 0159 8abd 4e10 913d
000000c0: bca8 bdbd 7829 6239 b71c c03a f5aa f63d
000000d0: b676 49bd f963 b2bd 65ec f53d 1712 86bd
000000e0: 4b19 003e ec18 1f3d 7c97 cd3b 7470 853d
000000f0: e1ba 1b3d fa10 fe3c 7331 253c 252b 3d3d
00000100: d2dd df3c 6ef8 66bd 5fe9 9f3d 6e7e af3d
00000110: 11e7 b7bd ab67 26bc ca42 08be 8d8d 133c
00000120: 8b1b bebc 4b6a d9bd 1c34 7bbd bbef b3bb
00000130: 9752 0c3c 5fe2 403b 16d9 a63d 10fa cd3c
00000140: 2fae 8a3d 6615 853d 35b2 58bd 632b 5c3d
00000150: aa06 f03d 9286 053e 3498 3d3d bc99 d03c
00000160: bbd0 023e 00ee 48bd bbb2 09be 134f 853d
00000170: 3942 ec3d 7838 e0bd 06bc d93c 2bbe c5bd
00000180: 85e3 89bd b952 07bd 2666 71bd c1e9 32bd
00000190: fe81 10be 6cf7 dfb9 d9c5 ca3d 71eb 47bd
000001a0: d292 323c 63ce 9d3c 72d8 173c 83bd b83d
000001b0: af22 8e3d 8671 973d 1847 01be 85f1 62bd
000001c0: be2d 90bc aba6 8bbd 701b 893c 7c49 c1bd
000001d0: a2df 92bb 137e 9abd e88e 9b3c 319c aa3d
000001e0: 0e61 013e a0e0 003b 164b 2a3c 3f5b cf3d
000001f0: 28d8 f4bc 58ee 7dbb 6a62 b43d cc55 86bd
00000200: e630 4cbd 8df6 87bd d484 d23c 2d7c 65bd
00000210: 59bc 22bb 6945 b3bd beec ccbc 7ce8 11be
00000220: 4fb5 d9bd 65ce 0fbc 06c5 0ebd 9fca e7bd
00000230: bcb0 90bd ef9b b9bd 9921 f43d 02f0 723d
00000240: 79df 83bd d1fe 01be c07d a33b e941 fcbc
00000250: f122 323d faf8 c4bd 7358 dcbc b94b b0bd
00000260: 9704 ad3d a38b 4a3d e9f7 d23d 3e51 1c3b
00000270: 75f8 543d ea46 f53a 2227 a3bc 0eb7 b63b
00000280: 83ef f13d d244 413d 8961 df3c 0617 6f3c
00000290: d98e c23d f2af f6bc a00c 9e3d e794 fdbd
000002a0: f5c9 863d 0260 923d 5add c3bd ea2d 04be
000002b0: b425 99bd d925 6c3c bdb8 56bd 8437 0c3d
000002c0: e654 913c 0dcb 2b3d 79d8 29bd 34e0 1cbd
000002d0: 0a97 6c3c 049b bcbd 3a43 a33c 8855 6bbd
000002e0: 9550 14bd 3c2e 74bd 9477 b23d 4a40 963d
000002f0: a37d a73c 40a6 dd3d 241a 913d 8980 033e
00000300: 32c5 8cbd edd5 d4bc 35f1 cb3d 99ba ee3d
00000310: 728f 233d d249 52bd bbb9 cbbd 3c11 b53c
00000320: 58dc a9bd 1184 753d 91ef 443d 8c88 943b
00000330: 68e4 dd3d 5c12 10bd a45e dcbd 6824 c3bb
00000340: 610f ccbc 134b 9b3c b6bf 743d 0f44 cfbd
00000350: 084f a63d f591 01bd 69a4 683d 3421 c1bd
00000360: a720 033e 9c28 babd 2920 c1bd 68bd ba3b
00000370: c62e 133d 466d 3d3d 2c76 d2b9 94ba 3a3d
00000380: 9ddf cfbd d2fe 4fbd 464c 09bd 00f5 ea3d
00000390: 095d d7bd 204f 94bd f974 11bd 17e6 79bd
000003a0: 7144 d5bd 5b37 103e b56d 6abd eca8 5ebd
000003b0: d797 dabc d92b 16bc 501d 6ebc 249b a0bd
000003c0: a328 8ebd 9fe3 8dbc c5e3 aa3c 5f00 f7bc
000003d0: 5244 bc3c 9346 a3bc c54b 9abd 3dc9 1abd
000003e0: 5996 883d 46b7 053e d19d a5bd 0a56 b8bc
000003f0: 6b8c d83d ef6b b8bd b818 6d3d 0f5a 053d
0.038535383 0.038889956 0.10118348 -0.08793204 0.08257989 0.014501056 0.07100753 0.0018730809
0.057010707 0.07471492 -0.017287618 -0.04253254 0.058719717 -0.00089833024 -0.077638164 0.07938331
0.010083128 -0.09500666 0.081143804 0.053420775 -0.016259236 0.04770875 0.12241004 -0.020907445
-0.051993053 0.049535107 -0.12647219 -0.10064724 -0.05680518 0.020248592 0.0114222625 0.01801163
0.089418985 0.019695401 -0.09080724 -0.080260485 -0.0069732964 -0.05451775 -0.025781464 -0.0959034
0.12854806 0.1102703 0.1305171 0.051792577 0.13329421 -0.057533283 -0.067552574 0.07083188
-0.09260699 0.00021568488 0.0014656995 0.12044326 -0.049185477 -0.087104745 0.12007979 -0.06546419
0.12509649 0.038842127 0.006274162 0.06515589 0.03802002 0.031013954 0.01008259 0.046183724
0.027327452 -0.056389265 0.07808184 0.085690364 -0.08979619 -0.010156552 -0.13306728 0.009005916
-0.023206493 -0.10615977 -0.061328992 -0.0054912246 0.008564613 0.0029431803 0.081468746 0.025143653
0.06771504 0.06498222 -0.052904326 0.053752314 0.11720021 0.13039616 0.04628773 0.025463931
0.12774937 -0.0490551 -0.13447087 0.06509223 0.115360685 -0.109482706 0.026578914 -0.09655412
-0.06732849 -0.033037875 -0.058935307 -0.043679956 -0.14112088 -0.00042718218 0.09901018 -0.04880852
0.0108992625 0.019263452 0.009267913 0.090205215 0.06940209 0.073947 -0.12624776 -0.055406112
-0.017599937 -0.06818899 0.016736716 -0.09437844 -0.0044822255 -0.07543578 0.018989041 0.083305724
0.1263468 0.0019665137 0.010393878 0.10124826 -0.029888228 -0.00387468 0.088078335 -0.06559333
-0.04985132 -0.06638823 0.025698103 -0.056026626 -0.0024831502 -0.08753473 -0.025015231 -0.14248842
-0.10630285 -0.008777236 -0.034855865 -0.11317944 -0.070649594 -0.09062945 0.11920471 0.05931092
-0.064391084 -0.12694861 0.004989356 -0.030793147 0.043490354 -0.09617801 -0.026897645 -0.08608193
0.08448141 0.049449574 0.10301191 0.0023852135 0.05199476 0.0018713151 -0.01991612 0.005576021
0.11813261 0.047184773 0.027268188 0.014592892 0.09499902 -0.030113194 0.07717252 -0.123819165
0.06581489 0.07147218 -0.09563704 -0.1290814 -0.074778944 0.01441332 -0.052422274 0.03423263
0.017740678 0.04194169 -0.04146621 -0.038299754 0.014440307 -0.092092544 0.019929517 -0.057454616
-0.03620966 -0.059614405 0.08714214 0.07336481 0.02044565 0.10822725 0.07085064 0.12842001
-0.068735495 -0.025980914 0.09958116 0.116566844 0.039931722 -0.05133993 -0.09947535 0.022102945
-0.0829398 0.0599404 0.04808003 0.004532879 0.10834581 -0.03517376 -0.10760239 -0.0059552677
-0.024909677 0.018956697 0.059753142 -0.10120403 0.08120543 -0.031633336 0.05679742 -0.09430161
0.12805425 -0.09089777 -0.09429962 0.0056988485 0.03593328 0.04624679 -0.00040142366 0.04558809
-0.10150073 -0.050780125 -0.033520006 0.11472511 -0.10515792 -0.072416544 -0.035511944 -0.061010446
-0.10413445 0.14083616 -0.05723353 -0.054360315 -0.026683731 -0.0091657275 -0.014533356 -0.07842091
-0.069413446 -0.017320452 0.020860562 -0.030151544 0.022981796 -0.019931113 -0.07533983 -0.037789572
0.066693015 0.13058195 -0.08086742 -0.022501964 0.105736576 -0.09004962 0.0578849 0.03255659

numerical_net.4.bias f4 [64]
00000000: 6c37 1dbd 8d1a 63bd c15a 7a3c 6a4e d23c
00000010: e622 d839 01ac 79bd 319e dbbd 3754 f93d
00000020: 225f bd3c dc9a a4bc c838 9dbd 2318 003e
00000030: 0ed3 123d 9d0a 1b3d 974a 903d 99fb 2c3d
00000040: 5069 6f3c 8ef6 24bd eb5c 403d 1768 33bd
00000050: f159 e73c c263 f23d 1617 ae3d 7f63 953c
00000060: ba27 503d d390 5c3c 671e bcbd 1b65 7f3c
00000070: fbd6 df3d f017 b0bd 66fd b53d dcc0 78bd
00000080: c037 f337 625a 733c 5421 b53d 97b6 c73c
00000090: dbe4 3fbd b670 01bd bab5 5fbd 00bc e03d
000000a0: fa8a 033d 6539 e83c d49d ae3d de1a febc
000000b0: dae2 cdbd f25c 2d3d c463 28bd 9a8b 12bd
000000c0: 2a65 c03b 0040 32b8 f527 f53c 879c 9ebd
000000d0: f0fc ea3d 9e85 ed3c 0c03 84bd 931f b6bd
000000e0: 0a15 d2bd 09f5 fb3d 5bd9 033e a959 a03d
000000f0: 3af6 ecbd 61c1 b33d 68ed d13d 1ba3 9a3d
-0.038382933 -0.055445243 0.0152804265 0.025672156 0.00041224732 -0.06095505 -0.10723532 0.12174266
0.023116652 -0.020093374 -0.07676846 0.12509207 0.03584581 0.03785192 0.07045477 0.04223213
0.014612511 -0.040274195 0.046963613 -0.04380044 0.02824113 0.118354335 0.08500497 0.01823592
0.050819136 0.013462263 -0.09185486 0.01558807 0.10929676 -0.08598316 0.088862225 -0.0607308
2.8993818e-05 0.014853092 0.088442475 0.024379058 -0.046849113 -0.03160163 -0.054616667 0.10973358
0.03211496 0.02834768 0.08526197 -0.03101867 -0.10053034 0.042324968 -0.04111077 -0.035777666
0.0058714347 -4.249811e-05 0.02992628 -0.07744699 0.11474025 0.028994378 -0.06445894 -0.08892741
-0.10257919 0.12302596 0.12875883 0.07829601 -0.115704015 0.087771185 0.1025036 0.07550641

numerical_net.6.weight f4 [64]
00000000: ea38 7b3f 0512 7f3f 7c0d 803f a983 813f
00000010: f7cc 7b3f 5e12 803f 5a2f 7b3f c05a 7b3f
00000020: 5766 7c3f 2727 7c3f 00ff 7a3f 7ab4 7b3f
00000030: 8a45 7b3f 1197 7b3f 472d 7f3f 6e91 7d3f
00000040: 082d 813f 3e4b 7d3f d3f6 7a3f cc17 803f
00000050: 19f3 7a3f 7ad1 813f 941b 7b3f 4ca7 7b3f
00000060: 3461 7b3f a431 7b3f 5567 7f3f 38cf 813f
00000070: 1606 813f 359b 803f babd 813f 900c 7b3f
00000080: f7b5 813f 6abf 813f 14e7 7b3f dad1 7a3f
00000090: d21c 813f efd6 7e3f a678 7b3f e22f 823f
000000a0: 293a 7c3f 0433 823f 81e4 7d3f f9db 813f
000000b0: fd7b 7c3f b506 7b3f f36f 823f 9b14 7f3f
000000c0: a927 803f 974b 7b3f e7b2 813f 05bd 7f3f
000000d0: 0c7e 7c3f 4deb 7a3f e879 7d3f 8c5a 803f
000000e0: 1197 803f 08d1 803f 158b 7e3f 4a07 7b3f
000000f0: e3f6 7e3f 9f35 7b3f 6c0b 813f 5654 7b3f
0.9813372 0.9963687 1.0004115 1.0118304 0.98359627 1.0005605 0.9811913 0.9818535
0.9859366 0.9849724 0.9804535 0.9832226 0.98152983 0.98277384 0.9967846 0.99050033
1.0091867 0.98942935 0.98032874 1.0007262 0.9802719 1.0142052 0.98088956 0.9830215
0.98195195 0.9812262 0.9976705 1.0141363 1.0079982 1.0047365 1.0136025 0.98066044
1.0133656 1.013654 0.9839947 0.9797646 1.008692 0.9954671 0.9823097 1.0170863
0.98526245 1.0171819 0.99176794 1.0145255 0.9862669 0.9805711 1.0190414 0.99640816
1.0012103 0.98162216 1.0132722 0.99897796 0.9862983 0.9801529 0.9901414 1.0027633
1.0046102 1.0063791 0.9943097 0.98058 0.9959547 0.98128694 1.0081611 0.9817556

numerical_net.6.bias f4 [64]
00000000: 74d6 61bc 79f2 a1bc 32d1 9bbc 346a 9bbc
00000010: fd68 0bbc 6ad9 d6bb e107 613c 3288 9b3c
00000020: 7a1b a03c a280 9b3c ece1 e93b 7393 9abc
00000030: e4f7 5ebc f7ee 9cbc aa95 28bc 77e2 3ebc
00000040: 5052 39bc 3d11 413c 4e4c 823c 0333 4d3c
00000050: 286e 073c 5553 9a3c ac23 9cbc bf66 3dbc
00000060: 1554 9bbc 66b5 9cbc 9b59 e03b 6fc2 b43b
00000070: 6207 d8bb 82a2 82bc a329 99bc 467b 9c3c
00000080: aadc 3bbc ec7a 99bc ee23 e63b b682 81ba
00000090: c712 9fbc 9ff8 493c 1218 5fbb 0193 71bc
000000a0: add6 4cbc 1737 71bc 4079 903c 2f4d 84bc
000000b0: b087 8ab9 cd25 31bc df1b 5ebc cd75 633c
000000c0: cae2 69bc fe93 ab3a aa9c c63b d7e1 943c
000000d0: c762 533c 4e5f 9dbc 8cfa 483c b28f 48bc
000000e0: 1669 95bc 39c6 98ba 5721 e93b 7b11 41bc
000000f0: 1297 95bc d1dd 8d3c 50b1 b5b9 118e dabb
-0.01378404 -0.01976894 -0.01902065 -0.01897154 -0.008508918 -0.0065566795 0.013734789 0.018985841
0.019544352 0.018982235 0.0071375277 -0.018869137 -0.013608906 -0.019156916 -0.010289589 -0.011650673
-0.011311129 0.011783895 0.015905526 0.012524369 0.008266009 0.018838564 -0.019059978 -0.011560141
-0.018960992 -0.019129466 0.0068466193 0.0055163424 -0.006592677 -0.01594663 -0.018696612 0.01910175
-0.011466185 -0.018735372 0.007023326 -0.0009880874 -0.019418133 0.012327342 -0.0034041447 -0.014744521
-0.012502355 -0.014722607 0.017635942 -0.016150085 -0.00026422506 -0.010812235 -0.01355645 0.013883066
-0.014275262 0.001309037 0.0060611563 0.018174095 0.012901968 -0.019210484 0.012266766 -0.012241291
-0.018238585 -0.0011655755 0.00711457 -0.011783953 -0.018260513 0.017317684 -0.00034655118 -0.0066697677

numerical_net.6.running_mean f4 [64]
00000000: 77aa 0b3e 1ff4 fb3d 8a8a 363e 32d2 163e
00000010: 34a0 2f3e c2c7 e83d 53c5 253e 988b 523e
00000020: 0a70 313e 2c76 3e3e 6005 e83d d771 3d3e
00000030: 0427 113e 545d 373e efa6 453e 0004 2b3e
00000040: 5e91 143e 0318 053e e54e 3d3e e6ce 633e
00000050: 81d7 723e 15dc 563e b0c5 2d3e 7a01 543e
00000060: 69d9 1d3e 5273 333e 80a7 0c3e 168f 3b3e
00000070: 0291 6f3e 928d ef3d 5f3d 483e 55b7 0e3e
00000080: 5e8f 153e 7ccf 193e 73be 433e ae44 253e
00000090: 3bb2 153e ebcf 1f3e e202 1b3e 8b2f 4f3e
000000a0: 6b15 1c3e f8c1 713e ad7b 473e a259 2b3e
000000b0: fc23 233e c64a 1d3e 108b 5b3e 128c 013e
000000c0: a8ff 4d3e 77f4 183e 3c57 2c3e 6515 383e
000000d0: c368 4f3e ffb0 2d3e bb58 193e 53b8 f83d
000000e0: 3cd6 ea3d 5dc6 493e b887 5a3e 638e 393e
000000f0: dc2e ee3d 260f 423e 1b20 5f3e a98e 3a3e
0.13639246 0.12302422 0.17826286 0.1472862 0.17150956 0.11366226 0.16188554 0.20561063
0.17327896 0.18599766 0.1132915 0.18500458 0.1417504 0.17906696 0.19301961 0.16700745
0.14508578 0.12997441 0.18487127 0.22246894 0.2371502 0.20982392 0.16969943 0.20703688
0.15414967 0.1752446 0.13735771 0.18316302 0.2339516 0.11696924 0.19554661 0.13937123
0.14605471 0.15020555 0.1911562 0.1613948 0.14618771 0.15606658 0.15137818 0.2023298
0.15242545 0.2360915 0.19480772 0.16733411 0.15931696 0.15360555 0.21439767 0.12651089
0.20117056 0.14937006 0.16830152 0.17976911 0.20254807 0.1696205 0.14975254 0.12144532
0.11466643 0.19704576 0.21340835 0.18120722 0.116300315 0.18951091 0.21789591 0.18218483

numerical_net.6.running_var f4 [64]
00000000: 4693 df3e 04f6 d03e f57b e43e 482e d83e
00000010: f284 dd3e 2e0b d03e d15f eb3e c0cc dd3e
00000020: 793a e53e 8833 fe3e 6b2b ca3e 011e e63e
00000030: 1f33 dc3e 3f4b e93e 9758 f33e 480c e03e
00000040: 25db d93e edf2 d53e 5459 e73e 3137 043f
00000050: d3b9 fc3e 0065 ed3e 9daf de3e 8c15 f53e
00000060: 85fe d83e 4964 e53e 2374 dc3e 5812 f43e
00000070: bc55 f93e 10b2 d13e 2486 df3e 5319 de3e
00000080: d560 dd3e 40d9 e73e bec0 ea3e 308a ed3e
00000090: 0b37 d93e b585 dc3e 3001 ea3e 82e3 e83e
000000a0: 3c80 d43e 705d fc3e b943 e63e 977c ef3e
000000b0: 0f3e dd3e 66d5 dc3e b0fc fb3e 4276 d83e
000000c0: 7640 ee3e 8ad9 d43e 374e eb3e a614 023f
000000d0: aead e13e b1f5 ed3e 4c74 d43e 11b3 d63e
000000e0: 7c2d cf3e 188d e43e b12b f03e 441f e63e
000000f0: 07f8 d13e 1bbd e73e ca15 f53e 2d87 e73e
0.43667048 0.40812695 0.44625822 0.4222281 0.43265492 0.4063353 0.4597154 0.43320274
0.44771174 0.4964869 0.3948625 0.44944766 0.43007752 0.4556522 0.47528526 0.4375937
0.42550007 0.417869 0.4518534 0.51646715 0.49360523 0.4636612 0.43493357 0.47868
0.42381683 0.44803074 0.43057355 0.47670245 0.48698223 0.40956163 0.4365703 0.43378696
0.4323794 0.45282936 0.45850176 0.4639449 0.42424807 0.4307076 0.4570403 0.45486075
0.41504085 0.49290037 0.44973543 0.46774742 0.4321141 0.4313156 0.49216223 0.42277724
0.46533555 0.4157222 0.4595811 0.50812757 0.4407782 0.4647651 0.41494977 0.41933492
0.4046439 0.44638896 0.46908334 0.4494573 0.41009542 0.45261464 0.47868186 0.45220318

title_net.0.weight f4 [128, 200]
00000000: f07d 3bbd 77bc 34bb 3ed4 efbc 7a09 073d
00000010: 75d7 3a3c 5a22 edbc 8a8a 873d dd82 7f3d
00000020: 5436 fdbc 2ca6 b53c 2e83 043d 3745 053d
00000030: c394 e83c 1c7d 223b 8a83 99bc 0349 3cbc
00000040: 815f 363c 4639 fd3c 43c8 363d 5ee0 643d
00000050: a0d4 98bb 7ae1 eb3c d8a7 1d3d 4756 7b3c
00000060: 7d06 71bd 4751 3b3c f63a 16bc 397d a33c
00000070: 0b83 563d 1e03 b5bc b297 a5bc cb6a 883d
00000080: 999d 4c3d 898a 303d d289 70bc 52f4 ccbc
00000090: 9539 323d 7bb7 2bbb 7159 82bd ca04 6b3d
000000a0: 8067 f6bc 3f50 15bd bb8c 9b3d 1f81 f83c
000000b0: 6b49 ebbc 7ad7 6f3d 675f a53c 66c0 03bd
000000c0: b86c 8fbd 5fbf c9bc 7cab fcbc 5f67 1ebd
000000d0: eadc a73b 507d babc 2ac1 01ba 7cbb 1f3d
000000e0: 740d 23bc 1318 2dbd bb8b fd3c d486 26bd
000000f0: 1641 8e3d c224 85bd d546 adbc 5f11 8c3c
00000100: 0df7 953d d88b 8a3c fd94 233d 605b 93bd
00000110: 0150 523d bbf5 02bc 662d e73c beb6 bfbc
00000120: 9b70 863c 34ec 55bd 6fa2 e23c dc41 283d
00000130: 6b96 0fbd 7e79 97bd 1fcf 20bc 82c0 1dbd
00000140: 85e6 84bd 620c 623d 7303 893d 23ab 38bd
00000150: 49a3 07bd 0de8 c1bc eac6 32bd 72a5 6abc
00000160: 6064 24bd e73f 573d 3dff 89bc 3a47 533c
00000170: dbb3 58bd be50 8c3c 9794 0c3d f416 f2bb
00000180: 8459 35bd b960 f23c e123 efbc 8217 bfbb
00000190: bf67 f2bb f1a6 3fbd dd80 3e3d 27eb a83d
000001a0: 2599 473d 929d 48bd 257f 95ba e4d3 0f3d
000001b0: 04f8 1cbc 3a56 0dbd 5264 8bbd 5e0a 7f3c
000001c0: cb8e 893d 3cda 2ebd 5e47 d4bb 2ae5 f1bc
000001d0: a287 8b3d 2c30 24bd 29e6 d5bb 14ca 803d
000001e0: da8b 0dbd 8630 3bbd 4eb7 d23b 2386 c3bc
000001f0: 8936 37bd db02 d93c b856 9cbb bfe9 11bd
00000200: c84a 0b3d e867 9b3d da8c 573c 7b76 863d
00000210: 2d33 47bd 46be 6c3c 0585 743d 70cf 1e3d
00000220: 8fd3 abbd 2f9c 203d d5d7 8d3d 4bba 773d
00000230: 45f9 bfbc 636c 113c 271c 97bd 8a9e 4fbc
00000240: 55b0 743d 078e a13c e2ed 12bd dc8b 913d
00000250: efe5 a1bc 0027 07bd 5f1d 59bd def3 6f3c
00000260: edd9 6f3d 5b04 4abb 4d23 15bd 822f 203d
00000270: d869 dd3c 16ae dc3c eae5 50bc e038 4a3d
00000280: f3b2 a93d 2668 7b3d 28af fe3c 8e99 213d
00000290: f513 5e3d f134 b23c e232 cabc 8bf4 203d
000002a0: a1cf 973d 0ff0 82bc 5a13 dfbc 8e00 bf3c
000002b0: 3e2c 2fbc 826b e4bc bb06 27bd 43d3 ad3d
000002c0: 37e4 22bc 05a8 513d a489 3b3c e3c6 473d
000002d0: 66cb f93c 7150 2c3d a6f8 513d c21b 34bd
000002e0: 095f 403d 7013 e53c 1ffd e9bc 6819 1a3c
000002f0: 57b0 80bd 9abc c3bc b10f 08bc 0cb1 beba
00000300: 426f 133d b985 6f3d 43d1 803d adcf 93bd
00000310: b842 073d a2a7 15bc 32af cfbb 1acb d1bc
00000320: 1987 e33c f876 eb3b 375e 84bd 8391 4a3d
00000330: 903a 2d3b edbd 173d bbde 183d 18bd 8c3d
00000340: f3a4 acbd 32a9 a2bc 3e5f b23b b1d8 d83c
00000350: 5cfa 50bd 32c0 8b3d 2ea4 85bd 37da 65bc
00000360: b04e 6cbd ba22 aa3c 2fd2 4bbd 0be8 a03d
00000370: 95fc c3bc afcd 24bd 2317 e8bb 8e31 dd3c
00000380: bd2a 933c 0154 8fba 8309 b7bc d4f4 75bd
00000390: 51fd 323d 2ac1 3fbc f078 6ebd dcd6 723c
000003a0: 588c 4b3d 2534 a93d 8eba 5e3d d45b 1fbd
000003b0: 0631 6f3d 90ed 91bc fb2e 59bd 17f8 0a3d
000003c0: 820f abbc 2816 6f3d f010 84bb d5c9 2bbd
000003d0: 6657 9e3c ab2a 973d 0285 933d b121 34bc
000003e0: 17a7 b8bd 4100 1a3d 36da 6bbd 48ac 823c
000003f0: b64e 31bd 84b7 2bbd f7b1 6e3d 7404 633d
-0.0457744 -0.0027578154 -0.02927601 0.032968022 0.011403908 -0.028947044 0.06618221 0.06238066
-0.030909695 0.022173963 0.032351665 0.03253671 0.028391248 0.002479381 -0.01873948 -0.011492017
0.011131168 0.0309111 0.04462458 0.055878036 -0.0046640188 0.028794039 0.038490146 0.015340394
-0.05884408 0.011432952 -0.009169331 0.019957172 0.052371066 -0.022096213 -0.020213936 0.06660994
0.049954984 0.043100867 -0.014681296 -0.025018845 0.043511946 -0.0026201892 -0.06364716 0.057377614
-0.03007865 -0.03645348 0.075952016 0.030335007 -0.028721532 0.058555104 0.020187093 -0.032165907
-0.07003158 -0.024627386 -0.030843489 -0.0386728 0.0051227706 -0.022764832 -0.0004949743 0.03899716
-0.009951938 -0.042259287 0.030950418 -0.040655926 0.06946008 -0.065011516 -0.02115194 0.017098127
0.07322512 0.016912386 0.03993701 -0.07195163 0.05134583 -0.007993157 0.02821989 -0.023402568
0.016411116 -0.052227214 0.027665345 0.041078433 -0.03505556 -0.0739622 -0.0098150065 -0.038513668
-0.064892806 0.05518759 0.06690111 -0.045085084 -0.033114705 -0.02367022 -0.04364673 -0.014321672
-0.040134788 0.052551176 -0.01684534 0.0128954 -0.0529059 0.017128345 0.034321394 -0.00738799
-0.044274822 0.029587137 -0.029191913 -0.00583166 -0.0073976214 -0.046790067 0.046509612 0.08247977
0.048730034 -0.048978396 -0.001140569 0.035114184 -0.009580616 -0.03450606 -0.06806244 0.015566437
0.06716689 -0.042688593 -0.006478234 -0.02952822 0.06812979 -0.040085003 -0.0065276814 0.06288543
-0.0345572 -0.045700572 0.006430543 -0.023867672 -0.044729743 0.02649062 -0.00477108 -0.03562331
0.034006864 0.07588178 0.01315614 0.06565567 -0.04863279 0.014449662 0.05969717 0.038772047
-0.08389961 0.03921145 0.06925932 0.060480397 -0.02343429 0.008875939 -0.073784165 -0.012672076
0.059738476 0.019721044 -0.035871394 0.07106754 -0.019762961 -0.032996178 -0.053006526 0.014645545
0.05855744 -0.003082535 -0.03641062 0.039107807 0.02702801 0.02693848 -0.012750128 0.049370646
0.08286085 0.06137862 0.03108938 0.03945308 0.05421825 0.02175376 -0.024682466 0.039295714
0.07412649 -0.01598361 -0.027230907 0.023315694 -0.0106917005 -0.027883295 -0.040777903 0.084875606
-0.009942106 0.051185627 0.01144639 0.048773658 0.030492496 0.042068902 0.05126252 -0.043971784
0.046965633 0.02796337 -0.02856308 0.009405471 -0.06283634 -0.023893643 -0.008304522 -0.0014548614
0.035994776 0.058477137 0.062899135 -0.072173454 0.033022612 -0.009134205 -0.0063380236 -0.025609542
0.02777438 0.007185813 -0.064632826 0.049455177 0.002643261 0.03704636 0.037321787 0.06872004
-0.08429899 -0.01985607 0.0054434827 0.026470514 -0.05102001 0.06823768 -0.065254554 -0.014029077
-0.05769223 0.020768512 -0.049760994 0.07856759 -0.023924151 -0.040235218 -0.0070828362 0.027001169
0.017964715 -0.0010935069 -0.022343403 -0.06004794 0.043698613 -0.011703769 -0.058220804 0.014821734
0.04969439 0.08261899 0.05437713 -0.038905933 0.05839636 -0.017813474 -0.05302332 0.033928003
-0.020881418 0.05837074 -0.0040303394 -0.04194053 0.019328784 0.07381185 0.072031036 -0.010994361
-0.09016245 0.0375979 -0.05758115 0.01595129 -0.043287955 -0.04192306 0.05827519 0.05542417

title_net.0.bias f4 [128]
00000000: 06a8 003c be54 4f3d c8c7 6f3d c876 7d3c
00000010: a338 843d 0cae 9f3d a5fd aa3d 1bca 513a
00000020: 7237 5a3d 3c5c c23c 2e26 0d3d e5e4 823c
00000030: c0d0 0a3d aa3d bcba c257 b83b c437 7d3d
00000040: c169 7e3c 114d 923b 9a9c e33c e610 cf3a
00000050: c73b 7a3b f29f 69bd 5425 8c3d 85cc 6f3d
00000060: 8693 a13d 984d af3c 7a26 3ebc 0d6d b7bc
00000070: ad0e 91bd 2c7e f23b ded0 49bd 006b d43c
00000080: 8cf7 3abd 09c6 753d c437 6a3b a314 8b3d
00000090: 5e38 2a3d 10a1 febb 3c67 873d 0b08 52bd
000000a0: dac2 2f3d 29d8 193c 18e0 a93d fd8b e7bc
000000b0: 7ec4 e13c 2ab5 523d cacf a73c 9bd4 22bd
000000c0: 2f0a 1a3d fee4 cebc fb0c ca3c 7b96 dc3c
000000d0: 6d69 5f3d aec0 a53c dee4 3f3d e9c4 22bd
000000e0: ec37 69ba 2706 cd3c c80b 05bd f7cb 813d
000000f0: 1b03 593c 310c be3c 1846 103d 16e8 963d
00000100: 58fa 413d 045e 483b 020a f23c 2d64 50bc
00000110: 6099 b2bc e19c 90bd c859 6abd aca7 6ebd
00000120: 8b8a 9b3b 39ff ea3c 03cf febc 93ee 04bd
00000130: 7290 a0bb 3b37 2bbd d98b fabc e234 c53b
00000140: ad44 17bd 5856 14bd 7689 773d d08a 87bd
00000150: dbb2 5bbc 7e8f a9bc c66a acba b303 3e3d
00000160: 4086 28bc 71f0 7c3c c677 65bd 99d1 80bd
00000170: 00d3 1e3d ce3e b0bb 7d85 893d 2b21 273d
00000180: b1b1 17bd 99a6 253d 5da1 5bbc 0f53 55bd
00000190: acf5 733d b300 3abd 8d0c 84bd 3443 ccbc
000001a0: 3365 6c3d d090 ec3c fba3 08bd e272 71bd
000001b0: fcb9 fb3c 1ae3 523d 0bd4 ea3c a935 42bc
000001c0: 2c6c f8bc f16d 39bd cfd9 653c b3c7 9cbd
000001d0: ea1e b7ba 906a 193d 53cc 813d 68f2 d23b
000001e0: 8a24 1cbd fc09 a33d af63 e03c 6142 0fbd
000001f0: c6db 2fbd 332f 853b b2e2 543d 224b 66bc
0.00785256 0.050617926 0.058540136 0.015470214 0.06456115 0.07796869 0.0834916 0.00080028333
0.053275533 0.023725621 0.03446024 0.015978286 0.033890486 -0.0014361639 0.005625696 0.06182076
0.015528143 0.0044647534 0.027784634 0.0015797883 0.0038182603 -0.0570373 0.06843057 0.058544654
0.07889466 0.021399304 -0.011605853 -0.022390867 -0.07082877 0.0074002948 -0.049271457 0.025929928
-0.045646235 0.060003314 0.0035738805 0.067910455 0.041557662 -0.007770665 0.06611487 -0.0512772
0.042910434 0.0093899155 0.082946956 -0.028264994 0.027559515 0.051442303 0.020484824 -0.039753538
0.037607368 -0.025255676 0.024664393 0.026927223 0.0545439 0.020233478 0.046849124 -0.03973857
-0.00088965776 0.025027348 -0.03248194 0.06337731 0.013245369 0.023199173 0.035223097 0.07368486
0.047357887 0.0030573616 0.029545788 -0.012719196 -0.02180165 -0.07061172 -0.05721453 -0.058265373
0.00474674 0.028686153 -0.03110457 -0.032454085 -0.0049000317 -0.04180072 -0.030584263 0.006018267
-0.03693073 -0.036215156 0.060433827 -0.06618273 -0.013409342 -0.020698305 -0.001315438 0.046390247
-0.010285914 0.015438185 -0.056022428 -0.062899776 0.038775444 -0.0053785807 0.06714914 0.040803116
-0.037034694 0.040442083 -0.013405171 -0.052081164 0.059560463 -0.045410823 -0.06447706 -0.024934389
0.0577137 0.028877646 -0.03335951 -0.05894745 0.030728333 0.051486112 0.028665563 -0.011853614
-0.030325018 -0.045270864 0.01402898 -0.07655277 -0.0013971005 0.03745514 0.063378 0.0064375885
-0.038120784 0.07960889 0.027391283 -0.034975413 -0.0429342 0.0040644645 0.051974006 -0.014055999

title_net.2.weight f4 [128]
00000000: 7930 803f 75ea 7e3f 3079 803f b666 7c3f
00000010: 3d75 813f ae64 7b3f d04c 823f 3ef7 813f
00000020: be49 7e3f 3848 7b3f c9c2 813f dea5 7d3f
00000030: f37f 803f d135 803f 9dfc 803f d1f9 813f
00000040: 5bb1 7c3f c938 813f 72da 813f bad1 7e3f
00000050: bb7b 7e3f 9229 813f 2075 813f 5fba 803f
00000060: e70c 803f eb48 7b3f 398c 823f 77f4 7a3f
00000070: de98 7c3f 426b 823f 7390 7b3f 4ce8 7a3f
00000080: 737a 7b3f 15c7 813f 880f 7d3f 715b 7c3f
00000090: 1c6f 7b3f 00c3 7b3f ed07 7b3f 6782 7c3f
000000a0: 774c 7b3f 3e0e 7d3f a240 823f 6a49 803f
000000b0: 2673 823f d344 813f d8a8 7d3f 32bf 7d3f
000000c0: 1a6b 803f 779d 813f af13 7c3f 2b94 7d3f
000000d0: 17f8 7a3f b0f5 813f 4203 7c3f 8aeb 813f
000000e0: 5ca1 7e3f 1ae8 7a3f a825 823f 55fa 813f
000000f0: 1734 7b3f 3d0b 7d3f bc85 823f cba4 803f
00000100: 4137 7e3f aa8f 7c3f b92d 803f 9d66 7c3f
00000110: b9e9 7d3f 2977 823f e337 7b3f af37 7c3f
00000120: 2a33 7b3f 3120 7f3f 00e5 7b3f 9e30 7b3f
00000130: 378d 7b3f 3cc3 7e3f 7de6 7a3f baef 813f
00000140: cf10 7d3f a703 7c3f 19ef 7a3f d904 803f
00000150: b33d 823f 8617 813f c7dd 803f cf8e 823f
00000160: 0a7e 7c3f 33d0 7b3f dac0 7c3f 5c9f 813f
00000170: 1a10 813f 3e21 813f 1f25 7c3f 6124 7b3f
00000180: 4ea9 7d3f 02c1 813f f51e 7b3f 10b7 7c3f
00000190: 573a 7f3f 5608 803f 50d3 803f d682 823f
000001a0: 2fc5 7b3f 2c8a 823f f29b 813f 6b46 7b3f
000001b0: fc89 813f 3d01 813f 4375 823f 42a6 7c3f
000001c0: e392 7c3f b909 7f3f 157c 803f 6bec 7d3f
000001d0: a157 803f 5620 823f b19a 813f f835 823f
000001e0: a0a5 7f3f b78a 813f f43a 7b3f fe64 7b3f
000001f0: c538 7e3f 3018 7b3f 2533 813f 5b51 7f3f
1.0014793 0.99576503 1.0036983 0.98594224 1.0113903 0.982005 1.0179691 1.0153577
0.9933127 0.9815707 1.0137569 0.9908122 1.0039047 1.0016423 1.0077091 1.0154363
0.9870812 1.0095454 1.0144789 0.9953877 0.9940755 1.0090811 1.0113869 1.0056876
1.0003937 0.9815814 1.0199043 0.98029274 0.98670757 1.0188982 0.98267287 0.98010707
0.9823372 1.013888 0.98851824 0.9857703 0.98216414 0.9834442 0.9805897 0.9863648
0.9816355 0.98849857 1.0175974 1.0022404 1.019139 1.0099128 0.9908576 0.99119866
1.0032685 1.012618 0.98467535 0.9905421 0.98034805 1.0153103 0.9844247 1.0150006
0.99464965 0.9801041 1.0167742 1.015452 0.9812636 0.98845273 1.0197062 1.0050291
0.9930306 0.98656714 1.0013953 0.98594075 0.9918476 1.0192615 0.9813215 0.98522466
0.98124945 0.99658495 0.983963 0.9812106 0.9826235 0.99516654 0.9800795 1.0151284
0.9885377 0.98443073 0.98021084 1.0001479 1.0175079 1.0085304 1.0067681 1.0199832
0.9862982 0.9836456 0.9873177 1.0126758 1.0083039 1.008827 0.9849414 0.98102385
0.99086463 1.0137026 0.9809411 0.9871683 0.99698395 1.0002544 1.0064487 1.0196178
0.98347753 1.0198417 1.0125716 0.98154324 1.0120234 1.0078503 1.0192035 0.9869119
0.9866163 0.9962421 1.0037867 0.9918887 1.0026742 1.0166118 1.0125333 1.017272
0.998621 1.0120457 0.9813683 0.98200977 0.99305373 0.9808378 1.0093733 0.99733514

title_net.2.bias f4 [128]
00000000: 2ab2 863c b643 48ba 1d56 0b3c b13e a3bc
00000010: cc43 4dbc 813b bc3b 83f0 2a3c cbc4 34bc
00000020: 4813 6bbc a772 99bc 0be9 98bc 4035 d53b
00000030: 41ef 02bc 52d9 3cbc 784c 4abb 0c50 203c
00000040: 032b cebb ce70 9cbc eeb2 35bb 0027 9abc
00000050: 4a82 cebb ebb0 93bc f243 9e3c dde9 58bc
00000060: e837 1d3c 24b1 adbb fde4 94bc c4c5 883c
00000070: 0499 033c 7923 03bc 94a1 fd3b 324e cfbb
00000080: 6284 9bbc 9eaa 7d3c 727f 903c 53e2 843c
00000090: 180a 673a 53ce 453c 81e8 943c 1557 96ba
000000a0: c070 9c3c 9fd3 943c 4694 523c 2482 c43b
000000b0: b039 a1bc 3d46 323c 8410 0fbc 7278 29bc
000000c0: 35cb 993c 2c20 97bc beba 6ebb be9c f93b
000000d0: 0f48 743c 88df a5bc da0a 913c 5d52 d1ba
000000e0: 106f 05bc 7c43 ae3b 89c1 76bc 1e5a 97bc
000000f0: 7e9c 50bb fe20 0b3c 7e6e 0bbc c604 28bb
00000100: 6b0b 45bc 1473 9ebc c839 883b 5192 233c
00000110: 68a4 a43c 4f0b 64bc ff13 963c 397d 383c
00000120: 6f87 9e3c 4fdf 95bc 005a 9e3b 67f9 0bbc
00000130: 8c1b 19bb 3883 6dbb 0cc2 9e3c 8458 27bc
00000140: f93c 63bc aa8e a0bc ae2e 413b 8aa4 933c
00000150: 604f 64bc 3694 193c c1d2 8e3c dfb0 383c
00000160: ee33 233c d1d5 c2bb 3528 4abc 6477 ca3b
00000170: b036 9dbc 3b32 053c 9901 9abc 820d 78ba
00000180: 0764 e73a fdf4 58bc 48b5 04bc 6e28 62bb
00000190: 72ad b1bb ff1d 043b acb9 33bc a54a e03b
000001a0: e5ba 0abc 047f 7d3b 3ccc 9dbc 19cf 00bb
000001b0: f938 413c 4abf 68bc 10ad 74bb 8569 2dbb
000001c0: 7ff9 50bc 9eeb dd3b 54c2 903c 8d50 a0bc
000001d0: 1967 a1bc 3d3f e53b 5627 13bc f95f 883c
000001e0: 8501 3c3c 3bfb 293c ee11 4b3c 9cda 36ba
000001f0: 27d2 92bc 47c3 a3bc 54c7 b2bb b97f a13a
0.016442377 -0.0007639484 0.008504418 -0.019927355 -0.012528371 0.005744398 0.010433319 -0.011033247
-0.014347859 -0.018731428 -0.018665811 0.006506592 -0.007991613 -0.011526423 -0.0030868333 0.00978471
-0.0062917485 -0.019096758 -0.0027725059 -0.018817425 -0.0063021528 -0.018028697 0.019319508 -0.013239351
0.009595849 -0.005300658 -0.018175596 0.016695864 0.008032087 -0.008004063 0.007740209 -0.0063264603
-0.018984023 0.015482573 0.017638896 0.016221201 0.0008813455 0.012073117 0.018177273 -0.0011470044
0.019096732 0.018167315 0.012852734 0.0059969593 -0.019680828 0.010881004 -0.008731965 -0.010343658
0.018773654 -0.018447958 -0.0036427225 0.007617562 0.014909758 -0.02024819 0.01770537 -0.0015969981
-0.008144155 0.0053181034 -0.015060791 -0.018475588 -0.0031831558 0.008491753 -0.00851023 -0.002563761
-0.012026648 -0.019341983 0.0041572787 0.009983615 0.020097926 -0.013918712 0.018320082 0.011260324
0.01935169 -0.018294958 0.004832506 -0.008543349 -0.0023362366 -0.0036241543 0.019379638 -0.010213975
-0.0138695175 -0.019599278 0.0029477286 0.018022794 -0.01393494 0.009373715 0.01743448 0.011272638
0.0099611115 -0.005945899 -0.012338688 0.0061787833 -0.019191116 0.008129652 -0.01879959 -0.0009462462
0.0017653712 -0.0132420035 -0.008099861 -0.0034508961 -0.0054222876 0.002015948 -0.010969561 0.006844836
-0.008467411 0.0038680444 -0.019262426 -0.001965469 0.0117933685 -0.014205763 -0.0037334599 -0.00264606
-0.012754797 0.0067724725 0.017670788 -0.01956966 -0.019702481 0.006996064 -0.008981546 0.016647326
0.011474972 0.010374839 0.0123944115 -0.00069753244 -0.017922474 -0.019990576 -0.0054558907 0.001232139

title_net.2.running_mean f4 [128]
00000000: 4079 cb3c cf8b 823c 2da0 273d e8dc af3d
00000010: eb07 273e 0de0 013d 9048 073d b3d9 e83c
00000020: a4f3 043d 6308 d93d 98ff 1d3d 8a5d f03d
00000030: 2acf 553d 164b f43b 8471 8c3c 2e2b 713d
00000040: ccf7 8b3d 45f5 023c b335 4b3c a09c f63b
00000050: 862b b03d 9de6 813d c8a7 ab3d ebd2 ae3d
00000060: 9b42 f33d 8aea b43d 1db8 e13d e96f c13b
00000070: 47fa 533c a909 643e a924 1f3c e5b2 a63c
00000080: 9ed0 ab3c 1384 123e a694 613d be0a 943d
00000090: 6a42 073e 0fe0 8d3d ce46 e63c bd05 753c
000000a0: dc84 083d 8840 8b3d 9370 ca3d f9b7 b63c
000000b0: 3160 b83c 7885 513d 43ac 143e 7d4a 4c3c
000000c0: 61f5 3b3e fcd9 143d de5f 7e3b 94b1 423c
000000d0: 3401 b73c 5121 e43b 7010 e03b 15fe c13c
000000e0: 8d39 143c 4cb0 ba3d 4a6e 0f3d e9d3 a53b
000000f0: f931 6e3b 7692 043e 72ca 163e c597 a03c
00000100: e11e bd3c a233 c03b e2ae 103e 244e 403b
00000110: a906 393e 6d25 bd3d 3a31 fa3b 07b0 023c
00000120: 3c85 af3c 6970 843d 2c7a 253c b259 8e3b
00000130: 0a72 1d3c 44c8 e53c 5fcf f73c 4ebf 7c3e
00000140: 7014 0f3b 63c6 eb3a 0eac ed3d 64ab b53d
00000150: e6d9 863c 2d45 1a3d d4aa 923d f667 443e
00000160: 2fa8 673b 7cef bf3c 1968 d13a e1c5 1d3c
00000170: c6e6 a13c e933 0e3e e13c cb3c bbf9 3e3c
00000180: d74e da3c 5f79 073e 5632 8a3d fff0 ec3b
00000190: 95bf e23d f53f fc3c a877 633c 8910 e13d
000001a0: 91da 323d f84c 0a3d 1a83 a63c b898 0b3c
000001b0: 7fbb 473d 3c51 b63b 3b2d 153e 4cb4 913c
000001c0: 054b 8c3d c09e 683c d115 ed3d ee94 8e3c
000001d0: 4057 a53b b651 7a3d c3c7 fc3c b115 f83c
000001e0: 47c8 1d3d 0bde 633e 51ee d33c 8132 543b
000001f0: 8e68 8a3c 2a16 303c 2000 083d 92d7 483c
0.02483809 0.015935807 0.04092424 0.085870564 0.16311614 0.031707812 0.033028185 0.02842412
0.032458916 0.10597303 0.03857383 0.11736591 0.05219952 0.00745524 0.017143972 0.05887907
0.06834373 0.007993047 0.01240294 0.0075259954 0.086020514 0.06342814 0.08381611 0.08536323
0.11877938 0.08833797 0.11021445 0.0059032333 0.012938089 0.2226931 0.00971333 0.020348975
0.0209735 0.14308195 0.055073403 0.072286114 0.13208929 0.069275014 0.028109934 0.014954981
0.03332983 0.06799418 0.09884753 0.022304522 0.022506805 0.051152676 0.14518838 0.012468931
0.18355323 0.0363407 0.0038814466 0.011883158 0.02233944 0.0069619794 0.006837897 0.023680726
0.009046924 0.09115657 0.03501729 0.005060662 0.0036345704 0.12946495 0.14725664 0.01960362
0.023086013 0.00586553 0.14129212 0.002934345 0.18068947 0.09235654 0.007635263 0.0079765385
0.021425836 0.06466753 0.010099929 0.0043441886 0.009609709 0.028049596 0.03025025 0.24682352
0.002183225 0.0017988201 0.116050825 0.08870581 0.016461324 0.037663627 0.07161489 0.19180283
0.0035348048 0.023429625 0.0015976458 0.009629698 0.019763362 0.1388699 0.024809303 0.01165622
0.026648922 0.13229893 0.06747882 0.0072308774 0.110716976 0.030792216 0.013883509 0.10989482
0.043665472 0.03376481 0.020326186 0.008520298 0.048762795 0.005563883 0.14568035 0.017786168
0.06850246 0.014198005 0.11576427 0.017405 0.0050458014 0.061113082 0.030856973 0.03028378
0.038521077 0.22252671 0.025870474 0.0032378735 0.016895559 0.010747472 0.033203244 0.012258427

title_net.2.running_var f4 [128]
00000000: 8fe7 b33e 880e b43e 82a1 b43e 14d1 b53e
00000010: e6de b53e 410b b43e 723d b43e 9def b43e
00000020: 902f b43e b57f b53e 63df b43e 5768 b63e
00000030: f98a b43e c624 b33e 775e b33e 26b6 b53e
00000040: 126e b53e e01a b33e 7c2e b33e 2f03 b33e
00000050: 57eb b53e 76d8 b43e a137 b63e bcd6 b53e
00000060: 935f b63e 4cc3 b53e 0be9 b73e 97d2 b23e
00000070: 3b49 b33e 2f6b ba3e f429 b33e c67b b33e
00000080: ef6d b33e 20c2 b53e 0cbc b43e 328c b53e
00000090: f5d2 b53e cfca b43e 2bba b33e b44b b33e
000000a0: 4be3 b43e 3b12 b53e c713 b63e f0b3 b33e
000000b0: 5c5a b33e a01c b53e ff20 b63e e974 b33e
000000c0: 1d33 b83e b94c b43e 04d9 b23e dd48 b33e
000000d0: 3e94 b33e d1f6 b23e b9e5 b23e 6251 b43e
000000e0: e406 b33e d71d b53e 9877 b43e fc03 b33e
000000f0: c4c6 b23e 6975 b53e 85c5 b73e e5b8 b33e
00000100: a1c8 b33e 92fc b23e 703d b63e 7ebc b23e
00000110: 6f9f b73e cddc b63e 89fe b23e 23f9 b23e
00000120: ca84 b33e e8cf b43e 1d12 b33e 7dc2 b23e
00000130: 6116 b33e 1049 b43e d7f6 b33e 6c8b b83e
00000140: 3cae b23e 68aa b23e b76c b63e 963f b63e
00000150: 6de4 b33e 187b b43e 7b7e b53e ba37 b93e
00000160: 7dcc b23e bdb8 b33e f19e b23e c410 b33e
00000170: e743 b43e 9da8 b63e 755a b43e 4934 b33e
00000180: 39a4 b33e d15a b73e 39ba b53e 25f9 b23e
00000190: 8041 b63e c545 b43e cfbc b33e db72 b63e
000001a0: 3c47 b53e 5916 b43e df20 b43e 18f5 b23e
000001b0: 8be9 b43e 5af7 b23e 63b0 b73e 9b5f b33e
000001c0: 5769 b53e 8139 b33e ddc2 b53e 8b45 b33e
000001d0: 9be8 b23e 3687 b53e 1776 b43e afff b33e
000001e0: 8a46 b43e c586 b73e 0a8e b33e 00b3 b23e
000001f0: c168 b33e be3f b33e 3b83 b43e db62 b33e
0.35137603 0.35167336 0.3527947 0.35511076 0.3552162 0.35164836 0.3520313 0.3533906
0.35192537 0.35448995 0.3532668 0.3562648 0.35262278 0.34988993 0.35033008 0.3549053
0.3543554 0.34981441 0.34996402 0.34963366 0.35531113 0.35321397 0.35589316 0.35515392
0.35619792 0.35500562 0.35919985 0.34926292 0.35016808 0.364099 0.34992945 0.3505537
0.3504481 0.35499668 0.35299718 0.35458523 0.3551251 0.3531098 0.35102972 0.35018694
0.3532966 0.3536547 0.35561964 0.3509822 0.35029876 0.35373402 0.3557205 0.35050133
0.35976496 0.35214785 0.34931195 0.35016528 0.35074037 0.3495393 0.3494089 0.3521834
0.34966195 0.35374328 0.35247493 0.34963977 0.3491727 0.3544114 0.35892883 0.35102
0.35114005 0.3495832 0.35593748 0.34909433 0.35863826 0.35715333 0.3495982 0.349557
0.35062248 0.3531487 0.34974757 0.34914008 0.3497801 0.35211992 0.3514926 0.3604387
0.34898555 0.34895635 0.35629818 0.35595387 0.35135213 0.35250163 0.3544806 0.36175328
0.34921637 0.35101882 0.34886888 0.3497373 0.35208055 0.35675517 0.35225263 0.35000828
0.3508623 0.35811475 0.3549364 0.34955707 0.35596848 0.3520948 0.35104987 0.35634503
0.3540591 0.351733 0.3518133 0.34952617 0.3533443 0.3495434 0.3587676 0.3503388
0.3543193 0.3500481 0.3550023 0.35013995 0.3494309 0.3545472 0.35246345 0.3515601
0.35210067 0.35845008 0.35069305 0.3490219 0.35040858 0.3500957 0.3525637 0.35036358
