artifacts/training_runs/run_20250613_135654/best_model.pth (torch, 585269 bytes, 39 tensors)

numerical_net.0.weight f4 [64, 36]
-0.104374364 -0.017981835 -0.03721537 -0.05520287 0.1901656 0.05130787 -0.066905014 0.09415398
-0.1475721 0.061627183 0.050737664 -0.038053654 0.06400125 0.0067540794 -0.112153426 -0.09609291
-0.11245733 0.103483886 0.01223337 0.16106382 -0.14891617 -0.16338903 -0.035049167 -0.14190193
-0.025408765 0.16578023 -0.07934415 0.11101226 0.045451775 0.065628804 -0.01643552 -0.01631311
-0.058118526 0.066287346 -0.15959473 0.09883584 -0.10071616 -0.030823236 0.13920261 -0.047205627
-0.22924975 -0.023258062 -0.0048869895 0.11355675 0.025382489 -0.025414178 0.05183884 0.09164153
-0.2485315 -0.043201763 0.047800098 -0.03184192 -0.07810626 0.064114206 -0.07520016 0.17586654
0.12154405 -0.01086346 -0.03493518 -0.070175536 -0.03134543 0.13831142 0.025783863 -0.0790508
0.04347659 -0.006943374 0.03045936 0.21551877 0.086919956 -0.13894303 0.014421848 -0.032660026
-0.09654842 -0.17556676 0.0008974974 0.010867462 -0.10100695 -0.0429556 -0.01515141 -0.10762685
-0.040639136 0.023924509 -0.104685396 0.027070222 -0.07639152 0.13361488 0.025898721 -0.046068292
-0.120119564 0.084888674 0.17806445 0.06196613 -0.01641102 -0.113585465 0.09548386 -0.09649684
0.097464934 -0.06742674 0.017348273 0.07354615 -0.008770919 0.02070891 0.017032145 0.049770046
-0.002594176 0.0016905775 0.24531847 0.19385684 0.030714044 -0.06568739 0.018096786 0.07954489
-0.22995766 0.024060432 -0.002430157 0.10229265 -0.07500374 0.066371754 -0.09346913 -0.053298283
0.046429016 0.020443358 0.08820991 -0.061071754 0.10243701 0.116948664 -0.1565745 -0.21118185
-0.094988056 0.022608055 -0.2950236 -0.06443404 -0.04016644 -0.107865274 -0.03669659 0.046178684
0.13335271 0.025169732 0.090814315 0.14709075 0.097380236 0.07681945 0.18327206 0.17499405
0.09454881 0.11827231 0.124835 0.25767386 0.007807687 -0.030302959 0.048669584 -0.12206465
0.12835515 -0.12940873 0.06171711 -0.023357864 -0.09756312 -0.0808537 -0.009937635 -0.0440154
0.082497165 0.18077555 -0.039548434 -0.015461887 0.08784527 0.080403574 -0.23892088 0.032910936
0.07518431 0.017125988 -0.01776234 -0.043401964 -0.08072052 -0.090601675 -0.044562977 -0.0851398
0.0405074 -0.065133944 0.09976283 0.10711686 0.034587104 -0.15177903 -0.100202635 -0.041188113
-0.13109443 0.08492531 0.064787716 -0.010879617 0.05352029 0.048590448 0.07817132 0.011568266
-0.14755076 -0.03062274 0.1286776 0.13260868 -0.03735076 0.1401526 0.030345691 0.06214647
-0.09754791 -0.09386994 -0.050116707 0.15161063 0.11674226 0.030495698 0.03498157 -0.05190716
-0.04090743 -0.14803162 -0.06889467 -0.06504438 -0.12895343 0.083875984 0.25640047 0.120509095
-0.05045786 -0.15698327 -0.13584425 0.036529236 -0.027956855 -0.14129727 0.071966164 -0.008287139
0.061746363 0.039043255 0.0992497 -0.026146457 0.1207834 -0.06634445 -0.02838936 0.0715055
-0.087176204 0.06761055 0.05331627 -0.0044051567 -0.008999387 0.13057739 -0.1063978 -0.070817746
0.06410318 0.0744133 0.01104663 0.12915032 0.09555237 0.111605495 0.10056326 -0.03563204
-0.02163063 0.029593216 0.24942037 0.09496333 0.11538191 -0.060108546 0.02247183 -0.023621444
00000000: 3ac2 d5bd a44e 93bc 256f 18bd 681c 62bd
00000010: c5ba 423e 3328 523d 7f05 89bd cdd3 c03d
00000020: 241d 17be c96c 7c3d 4cd2 4f3d 26de 1bbd
00000030: 1613 833d 5351 dd3b b2b0 e5bd 5ccc c4bd
00000040: 0750 e6bd 5cef d33d 796e 483c eaed 243e
00000050: 7b7d 18be 744f 27be b78f 0fbd bd4e 11be
00000060: 0b26 d0bc 4bc2 293e 307f a2bd 655a e33d
00000070: a42b 3a3d 6568 863d c9a3 86bc 12a3 85bc
00000080: b10d 6ebd a9c1 873d cd6c 23be 726a ca3d
00000090: 4644 cebd 0381 fcbc 218b 0e3e b05a 41bd
000000a0: 72c0 6abe b187 bebc 0a23 a0bb 7190 e83d
000000b0: f0ee cf3c 6531 d0bc f754 543d 8eae bb3d
000000c0: 0b7f 7ebe 55f4 30bd 09ca 433d ac6c 02bd
000000d0: 2df6 9fbd 4f4e 833d 8b02 9abd 5c16 343e
000000e0: 16ec f83d a7fc 31bc 3118 0fbd 31b8 8fbd
000000f0: 1164 00bd 82a1 0d3e ae38 d33c 63e5 a1bd
00000100: 8214 323d 3e85 e3bb e885 f93c f4b0 5c3e
00000110: 1703 b23d 1547 0ebe 9d49 6c3c 85c6 05bd
00000120: 2ebb c5bd c6c7 33be 0846 6b3a 700d 323c
00000130: bbdc cebd 36f2 2fbd 9f3d 78bc 776b dcbd
00000140: 3975 26bd 55fd c33c 4c65 d6bd 5fc2 dd3c
00000150: 2873 9cbd 57d2 083e 8e29 d43c 1bb2 3cbd
00000160: 3f01 f6bd 1dda ad3d 8756 363e 32d0 7d3d
00000170: 6770 86bc 7f9f e8bd 0b8d c33d 23a0 c5bd
00000180: b29b c73d 0817 8abd f71d 8e3c 5d9f 963d
00000190: e7b3 0fbc bba5 a93c ff86 8b3c addb 4b3d
000001a0: 0d03 2abb 5e96 dd3a c434 7b3e 6882 463e
000001b0: 059c fb3c 1c87 86bd b63f 943c 6ee8 a23d
000001c0: 057a 6bbe 621a c53c 4543 1fbb cf7e d13d
000001d0: 909b 99bd eaed 873d be6c bfbd 4d4f 5abd
000001e0: 5a2c 3e3d d478 a73c 66a7 b43d 6026 7abd
000001f0: 7fca d13d c882 ef3d 1155 20be 0e40 58be
00000200: 1989 c2bd 8734 b93c 550d 97be fef5 83bd
00000210: 9185 24bd 78e8 dcbd 2a4f 16bd dc25 3d3d
00000220: 9d8d 083e c130 ce3c dbfc b93d f59e 163e
00000230: 4a6f c73d 8453 9d3d acab 3b3e a431 333e
00000240: cea2 c13d c138 f23d 7ea9 ff3d d4ed 833e
00000250: a0d7 ff3b e93d f8bc c259 473d 08fd f9bd
00000260: 886f 033e b983 04be 15cb 7c3d fe58 bfbc
00000270: 2ccf c7bd a096 a5bd 76d1 22bc 7e49 34bd
00000280: 46f4 a83d 3a1d 393e 8afd 21bd db53 7dbc
00000290: 39e8 b33d a1aa a43d ada7 74be 9ecd 063d
000002a0: 3bfa 993d cd4b 8c3c 5482 91bc 42c6 31bd
000002b0: cd50 a5bd 5f8d b9bd ab87 36bd c75d aebd
000002c0: 16eb 253d f264 85bd 7450 cc3d 1660 db3d
000002d0: 35ab 0d3d f66b 1bbe 0a37 cdbd deb4 28bd
000002e0: 9e3d 06be 52ed ad3d 6caf 843d 6c40 32bc
000002f0: 1738 5b3d c706 473d 4918 a03d d388 3d3c
00000300: 8c17 17be 8adc fabc 10c4 033e 92ca 073e
00000310: 1cfd 18bd 2a84 0f3e 8797 f83c 4c8d 7e3d
00000320: 33c7 c7bd e23e c0bd 2d47 4dbd d13f 1b3e
00000330: 9116 ef3d 1dd2 f93c d648 0f3d 9a9c 54bd
00000340: 8d8e 27bd 9a95 17be a618 8dbd fd35 85bd
00000350: 5e0c 04be 2cc7 ab3d ec46 833e 79cd f63d
00000360: e7ac 4ebd 39c0 20be c11a 0bbe ae9f 153d
00000370: c605 e5bc 3bb0 10be ff62 933d c8c6 07bc
00000380: c1e9 7c3d d2eb 1f3d 6d43 cb3d 1831 d6bc
00000390: 4a5d f73d 99df 87bd ce90 e8bc 7a71 923d
000003a0: 7089 b2bd 6677 8a3d 2962 5a3d 2259 90bb
000003b0: 2a72 13bc 14b6 053e 17e7 d9bd e508 91bd
000003c0: 8748 833d 0066 983d edfc 343c fb3f 043e
000003d0: f6b0 c33d 6c91 e43d 1cf4 cd3d e7f2 11bd
000003e0: b832 b1bc 796d f23c 0e68 7f3e 227c c23d
000003f0: 5a4d ec3d 6134 76bd d816 b83c c281 c1bc

numerical_net.0.bias f4 [64]
0.04960803 -0.14441548 -0.113296576 0.17056453 0.040779456 0.17359951 -0.15115479 -0.068543695
0.17290504 -0.060015544 0.116924554 0.0023702048 0.043737274 -0.07812527 0.17513539 0.012890139
0.086266264 0.035213288 0.16544701 0.029203525 -0.14152968 -0.018651525 0.1260051 0.013334437
-0.10390911 0.067528434 -0.25479922 -0.04939338 -0.06805548 0.07184061 0.09230647 0.14855047
-0.029482588 0.19738872 -0.16504285 0.043948967 0.09491256 -0.12540798 -0.19626029 -0.08288415
-0.05033422 0.017216079 0.20540777 -0.045349613 0.13079481 -0.06640653 0.03696604 -0.19847149
0.10175998 0.13064237 0.1566313 0.074587226 -0.19670385 0.2895547 0.009498669 -0.116533384
0.04280165 -0.018686125 0.051951636 -0.035344556 0.12908566 -0.1825014 0.023114271 -0.021592187
00000000: ca31 4b3d a7e1 13be 0908 e8bd 78a8 2e3e
00000010: 5c08 273d 12c4 313e 52c8 1abe a360 8cbd
00000020: 050e 313e dcd2 75bd 2476 ef3d 7055 1b3b
00000030: db25 333d 2400 a0bd b156 333e 2931 533c
00000040: 5eac b03d cf3b 103d f16a 293e 3b3c ef3c
00000050: 28ed 10be 15cb 98bc 7b07 013e af78 5a3c
00000060: 4dce d4bd 594c 8a3d 0b75 82be b650 4abd
00000070: ac60 8bbd 2b21 933d 2d0b bd3d 9d1d 183e
00000080: 7885 f1bc 4520 4a3e fe00 29be d503 343d
00000090: 8461 c23d f36a 00be 75f8 48be 2abf a9bd
000000a0: 412b 4ebd bc08 8d3c 6a56 523e 84c0 39bd
000000b0: 13ef 053e 2600 88bd b469 173d 1c3c 4bbe
000000c0: 8967 d03d 1dc7 053e f563 203e 30c1 983d
000000d0: bc6c 49be 8340 943e 4ea0 1b3c 0ea9 eebd
000000e0: c850 2f3d a513 99bc 3dcb 543d 74c5 10bd
000000f0: 082f 043e a6e1 3abe 245a bd3c 19e2 b0bc

numerical_net.2.weight f4 [64]
1.0017482 0.9054503 0.9913341 0.97202194 0.9485516 0.9646978 0.9869967 0.9766043
0.99900544 0.9865948 0.95254964 0.9651807 0.9631529 0.99270695 1.0359879 0.99308753
1.018427 0.97438157 0.95795006 0.99156773 0.96176416 0.98504525 0.9694753 0.98029613
0.95467746 1.0067378 0.97387254 1.0006102 1.0044215 1.0165632 0.93075186 0.9656786
0.9626616 1.01738 0.9430777 1.0777942 1.0117072 0.979273 0.94358957 0.9328673
0.9742677 0.93037754 0.9924659 1.0044613 1.0103085 0.98305917 0.97940814 0.99808556
0.98600477 0.99261385 1.0230427 0.9932664 1.0281339 0.9786189 0.9622853 1.0009998
0.9690949 0.983969 0.9940377 1.0280722 1.0002189 0.9492283 0.9655267 0.9416737
00000000: 4939 803f 97cb 673f 12c8 7d3f 6ed6 783f
00000010: 47d4 723f 6ff6 763f d1ab 7c3f bd02 7a3f
00000020: d2be 7f3f 7a91 7c3f 4bda 733f 1516 773f
00000030: 3091 763f 0b22 7e3f 409b 843f fc3a 7e3f
00000040: d15b 823f 1271 793f 373c 753f 62d7 7d3f
00000050: 2d36 763f ed2b 7c3f 892f 783f b0f4 7a3f
00000060: be65 743f c9dc 803f b64f 793f ff13 803f
00000070: e290 803f be1e 823f c145 6e3f b636 773f
00000080: fe70 763f 8239 823f 8a6d 713f 29f5 893f
00000090: 9f7f 813f a3b1 7a3f 168f 713f 64d0 6e3f
000000a0: 9c69 793f 392d 6e3f 3f12 7e3f 3092 803f
000000b0: ca51 813f c4a9 7b3f 7eba 7a3f 8982 7f3f
000000c0: cf6a 7c3f f11b 7e3f 10f3 823f b546 7e3f
000000d0: e499 833f c586 7a3f 5458 763f c320 803f
000000e0: 9a16 783f 64e5 7b3f 4179 7e3f df97 833f
000000f0: 2c07 803f a000 733f c22c 773f 8711 713f

numerical_net.2.bias f4 [64]
-0.011168211 0.030789213 -0.038318094 -0.027707143 0.0069670156 -0.028796025 0.0037227506 0.02014256
0.0066029895 0.021337286 -0.043029394 -0.06134138 0.022157248 0.02192687 -0.024991393 0.012138633
0.013079087 -0.027304642 0.04773487 -0.0051489896 -0.007910342 0.008081192 0.020976277 0.006033815
0.021596087 -0.026814438 -0.04355384 0.003081314 -0.03626121 0.049865887 -0.02290163 -0.057971075
-0.024173738 -0.06739939 -0.055115037 0.018657409 -0.032827467 -0.029524941 -0.023885496 0.051287867
0.016470011 0.04870906 0.014620734 0.025014972 0.014431421 -0.014643859 0.016327554 0.010825297
0.014231303 0.011185491 -0.05442771 -0.013933068 -0.039133396 0.009305378 0.02647221 -0.014501716
-0.011405121 0.06316485 0.002142498 0.012925961 -0.052549344 -0.030963901 -0.017210836 -0.073846005
00000000: dffa 36bc a939 fc3c 6ff3 1cbd 17fa e2bc
00000010: 904b e43b a4e5 ebbc 64f9 733b 0302 a53c
00000020: e45d d83b 88cb ae3c 973f 30bd 1941 7bbd
00000030: 1e83 b53c fb9f b33c c0ba ccbc 1ee1 463c
00000040: ab49 563c fcad dfbc a485 433d dbb8 a8bb
00000050: 619a 01bc fa66 043c 71d6 ab3c 4fb7 c53b
00000060: 47ea b03c f4a9 dbbc 8365 32bd dfef 493b
00000070: a286 14bd 2c40 4c3d 339c bbbc 1473 6dbd
00000080: 0108 c6bc b108 8abd 4ec0 61bd 6cd7 983c
00000090: 1876 06bd 4ade f1bc 84ab c3bc 3a13 523d
000000a0: 1eec 863c 2783 473d ce8b 6f3c 33ec cc3c
000000b0: c471 6c3c ccec 6fbc 5dc1 853c 965c 313c
000000c0: 692a 693c 5a43 373c 97ef 5ebd 8647 64bc
000000d0: 574a 20bd 9675 183c 40dc d83c 9b98 6dbc
000000e0: 8bdc 3abc 935c 813d 2769 0c3b 69c7 533c
000000f0: fb3d 57bd 02a8 fdbc bdfd 8cbc 933c 97bd

numerical_net.2.running_mean f4 [64]
0.2665664 0.16333358 0.18851686 0.37551087 0.22624089 0.27820414 0.15521969 0.19738765
0.3053405 0.26568478 0.30323476 0.236144 0.3014603 0.21946095 0.34634054 0.31662616
0.2861784 0.28890967 0.35083482 0.3215358 0.25235745 0.24522184 0.3058398 0.27031583
0.22371706 0.3253453 0.13350186 0.24171694 0.20655872 0.23048654 0.30128798 0.34770194
0.19957584 0.32607 0.07983962 0.23335765 0.27247024 0.1850649 0.15203303 0.18390107
0.25611967 0.20756291 0.4086689 0.23737326 0.2790458 0.18067616 0.28032166 0.20503649
0.2798262 0.35847673 0.277702 0.4180951 0.115007825 0.39180794 0.28555483 0.17774817
0.37642708 0.28614488 0.29591155 0.226922 0.303732 0.13768466 0.2858791 0.1826332
00000000: 647b 883e eb40 273e 900a 413e f642 c03e
00000010: b1ab 673e c670 8e3e e9f1 1e3e fd1f 4a3e
00000020: 9755 9c3e d607 883e 9641 9b3e bccf 713e
00000030: 0159 9a3e 5fba 603e 8c53 b13e d31c a23e
00000040: fa85 923e f8eb 933e 9fa0 b33e 57a0 a43e
00000050: ff34 813e 6f1b 7b3e 0997 9c3e d666 8a3e
00000060: 1616 653e a993 a63e b6b4 083e a584 773e
00000070: 2184 533e aa04 6c3e 6b42 9a3e fd05 b23e
00000080: 9c5d 4c3e a6f2 a63e f482 a33d 4ff5 6e3e
00000090: 3881 8b3e a781 3d3e 8cae 1b3e 9050 3c3e
000000a0: 1e22 833e 5f8b 543e 0d3d d13e fa11 733e
000000b0: 17df 8e3e 2c03 393e 5286 8f3e 16f5 513e
000000c0: 6145 8f3e 438a b73e f52e 8e3e 9010 d63e
000000d0: 3989 eb3d 0d9b c83e 3e34 923e 9e03 363e
000000e0: 0dbb c03e 9581 923e b881 973e 3e5e 683e
000000f0: c382 9b3e 35fd 0c3e bf5e 923e 3304 3b3e

numerical_net.2.running_var f4 [64]
0.12989593 0.088505276 0.105632536 0.16237701 0.09386798 0.09865111 0.07610861 0.08578403
0.14815249 0.1318466 0.14851505 0.106422104 0.1832546 0.10408837 0.13243052 0.22820549
0.12314209 0.17039557 0.13993974 0.29835254 0.186179 0.095968015 0.09652181 0.16841725
0.119617745 0.16314037 0.07854374 0.1575934 0.117425345 0.099727884 0.16274396 0.23251384
0.09595252 0.18173052 0.033609997 0.13416208 0.123281926 0.08323171 0.095612556 0.1101889
0.18389726 0.10248942 0.15976046 0.1337825 0.118348785 0.09639257 0.13638066 0.17462745
0.12064834 0.13389842 0.14950068 0.2791713 0.049966756 0.20182632 0.13275027 0.10211265
0.16558646 0.118996754 0.12943193 0.117677905 0.16653857 0.07412553 0.1797842 0.11333878
00000000: 7003 053e 4142 b53d df55 d83d 2946 263e
00000010: db3d c03d 9809 ca3d d5de 9b3d 8aaf af3d
00000020: 49b5 173e cc02 073e 5414 183e d5f3 d93d
00000030: 18a7 3b3e 492c d53d de9b 073e b3ae 693e
00000040: ec31 fc3d 2d7c 2e3e 5d4c 0f3e aac1 983e
00000050: b5a5 3e3e e18a c43d 3aad c53d 9275 2c3e
00000060: 26fa f43d 450e 273e 8adb a03d 2a60 213e
00000070: b37c f03d 223e cc3d 5aa6 263e 1c18 6e3e
00000080: c182 c43d 9117 3a3e a3aa 093d c961 093e
00000090: 3c7b fc3d 6375 aa3d 84d0 c33d b8aa e13d
000000a0: 904f 3c3e f9e5 d13d 3f98 233e 48fe 083e
000000b0: d960 f23d 7869 c53d 5fa7 0b3e 8ad1 323e
000000c0: 7a16 f73d ab1c 093e b516 193e 8aef 8e3e
000000d0: f1a9 4c3d 8fab 4e3e b0ef 073e 7020 d13d
000000e0: 7f8f 293e 92b4 f33d ce89 043e 1d01 f13d
000000f0: 1689 2a3e 20cf 973d 5919 383e 2a1e e83d

numerical_net.4.weight f4 [64, 64]
0.07811299 0.030397002 -0.041312795 -0.18709798 -0.095673405 -0.055612408 -0.028112803 -0.05175262
-0.007260395 -0.0385264 0.09361002 0.036315694 0.030853812 -0.16502671 0.06757295 0.0061425352
-0.029302102 -0.109797806 0.14402415 -0.015552595 -0.03423482 0.014121273 -0.04994115 -0.090383224
-0.05047899 0.027762484 -0.088866875 0.105716534 -0.0563302 -0.021892408 0.08482675 -0.094671644
-0.03985864 -0.15377568 0.047338832 0.16275945 0.07937347 0.06438508 0.16300416 0.06924722
-0.06588489 -0.017310096 -0.14093468 0.011500034 -0.052492324 -0.061158407 0.04789532 0.022070728
0.0057897675 -0.040830944 0.033459365 0.084238164 -0.011434719 0.053988375 0.0044005215 0.08064195
-0.05572039 -0.15148385 0.06730933 -0.0044731176 -0.069702305 0.042417165 -0.09476108 0.121361524
-0.100965075 -0.07837852 -0.1680661 0.0062761866 0.060280867 0.060650572 -0.07355533 -0.016420653
-0.015333388 0.05173163 -0.0056116143 0.10906219 -0.08427242 -0.12363784 -0.095477514 0.07515428
0.15042907 -0.06987802 -0.012162353 0.07486011 -0.028927641 -0.010059723 0.0541859 -0.05559883
0.08754856 -0.15000601 -0.087791845 -0.09685223 -0.024786923 0.026905594 -0.0001533126 0.05702014
0.06636531 -0.02953867 -0.066957414 -0.07363688 0.09659243 -0.081949264 0.06622987 0.013246962
-0.07106886 -0.120536104 -0.05698227 0.14281273 0.0747192 -0.12565146 0.018438231 -0.060493972
-0.07541428 -0.0090928385 -0.118995026 -0.11053221 -0.034401543 -0.09902304 0.047951993 0.06352063
0.005344733 -0.14012264 -0.14290711 0.08959877 0.078874424 0.06182884 0.097416386 0.08236232
-0.12226733 -0.06229915 -0.09086731 0.08287378 0.08214543 -0.035385877 -0.0010878248 -0.028443849
-0.100391306 -0.06789028 0.088598885 -0.07201021 0.01051291 0.093461215 0.04860145 0.12110254
0.09701631 -0.14915995 -0.041335173 0.0059353225 0.1561826 0.087213166 0.019890327 0.06480881
-0.030080138 -0.050342392 0.057788678 -0.01606348 -0.14063315 0.08074507 -0.10493041 0.060525574
-0.028888175 -0.025008375 -0.028022422 -0.094289444 0.012079077 0.02554255 0.12747666 0.08992326
0.074339084 -0.0058285473 0.035996027 -0.019329378 0.022907076 0.11567206 -0.115420066 -0.072740234
0.1056218 -0.012232629 0.05553474 0.05380138 -0.15731178 -0.046270024 -0.030672029 0.034854505
-0.015786912 -0.082850136 0.016694773 -0.03970486 -0.048465867 -0.07525535 -0.06976289 -0.08228088
-0.02135621 -0.0867545 0.05579594 0.028490847 -0.09162925 0.10650771 0.021841694 0.159606
-0.09438515 -0.038459506 0.09368723 0.008932489 -0.07094137 0.1260108 0.033646137 -0.07475415
0.11718623 -0.02809951 0.07996747 -0.12917215 -0.07880606 -0.02919498 0.07049286 0.104809135
-0.022684405 0.07765643 -0.009968289 -0.124362834 0.051244583 0.06616846 -0.098128185 -0.010600957
-0.013371689 0.15221114 0.0027639866 -0.07278315 -0.15201668 -0.078779794 0.1345243 -0.099074736
0.01138739 0.099496596 0.13342337 0.042923115 -0.07372717 -0.015690116 -0.10388257 -0.0018206856
0.13274367 0.10128111 0.15179236 -0.07846673 -0.02219275 -0.02060913 0.05574171 -0.13001573
0.024475068 0.019659564 -0.04088217 -0.098388806 -0.102092415 -0.12768061 0.057922173 0.048753567
00000000: b4f9 9f3d 2203 f93c 9b37 29bd 9d96 3fbe
00000010: 6bf0 c3bd d6c9 63bd d24c e6bc 8efa 53bd
00000020: 9ce8 edbb dccd 1dbd 9cb6 bf3d c4bf 143d
00000030: 22c1 fc3c c3fc 28be b063 8a3d 5247 c93b
00000040: f60a f0bc acdd e0bd 117b 133e 50d0 7ebc
00000050: d039 0cbd e95c 673c 178f 4cbd d71a b9bd
00000060: 0fc3 4ebd 266e e33c d6ff b5bd e981 d83d
00000070: 7fba 66bd b557 b3bc a6b9 ad3d 35e3 c1bd
00000080: d042 23bd 5f77 1dbe 5de6 413d 6aaa 263e
00000090: 8f8e a23d 53dc 833d 90ea 263e 7dd1 8d3d
000000a0: a8ee 86bd e7cd 8dbc 2e51 10be a36a 3c3c
000000b0: 3102 57bd 3d81 7abd e22d 443d accd b43c
000000c0: 17b8 bd3b 593e 27bd b00c 093d 0f85 ac3d
000000d0: b058 3bbc ea22 5d3d 4032 903b 9b27 a53d
000000e0: 103b 64bd 951e 1bbe 79d9 893d 3b93 92bb
000000f0: 15c0 8ebd 9fbd 2d3d 1912 c2bd 648c f83d
00000100: c7c6 cebd eb84 a0bd 8519 2cbe 78a8 cd3b
00000110: 12e9 763d bc6c 783d 2da4 96bd 9b84 86bc
00000120: e438 7bbc 8ce4 533d a2e1 b7bb ff5b df3d
00000130: 0597 acbd d635 fdbd b789 c3bd 7dea 993d
00000140: 140a 1a3e 351c 8fbd 9b44 47bc 4250 993d
00000150: a9f9 ecbc 89d1 24bc 09f2 5d3d 99bb 63bd
00000160: a94c b33d 2d9b 19be 36cc b3bd 765a c6bd
00000170: f20d cbbc 1f69 dc3c 8ac2 20b9 f38d 693d
00000180: 89ea 873d 15fb f1bc f820 89bd efce 96bd
00000190: 40d2 c53d 04d5 a7bd 87a3 873d c909 593c
000001a0: 8d8c 91bd a2db f6bd 3e66 69bd 803d 123e
000001b0: 6106 993d c7aa 00be c60b 973c 87c8 77bd
000001c0: cd72 9abd 21fa 14bc aab3 f3bd b65e e2bd
000001d0: a2e8 0cbd 97cc cabd 4f69 443d 1b17 823d
000001e0: df22 af3b 4f7c 0fbe 3e56 12be 8f7f b73d
000001f0: ea88 a13d 3d40 7d3d 3e82 c73d 93ad a83d
00000200: 4b67 fabd 652d 7fbd a418 babd bab9 a93d
00000210: dd3b a83d c8f0 10bd 5895 8eba 1303 e9bc
00000220: f599 cdbd 0f0a 8bbd 5573 b53d 177a 93bd
00000230: 573e 2c3c 9868 bf3d 5012 473d 9c04 f83d
00000240: 7db0 c63d 63bd 18be 124f 29bd 187d c23b
00000250: 55ee 1f3e d19c b23d 0af1 a23c 7bba 843d
00000260: 9f6a f6bc d333 4ebd d2b3 6c3d 8f97 83bc
00000270: 2302 10be ac5d a53d c1e5 d6bd aae9 773d
00000280: e5a6 ecbc 5dde ccbc 478f e5bc d31a c1bd
00000290: 52e7 453c 9c3e d13c 3e89 023e b029 b83d
000002a0: 173f 983d 66fd bebb 9270 133d a558 9ebc
000002b0: 9fa7 bb3c 79e5 ec3d 5b61 ecbd d5f8 94bd
000002c0: 3e50 d83d 5d6b 48bc 6578 633d d65e 5c3d
000002d0: 5716 21be a385 3dbd e843 fbbc 99c3 0e3d
000002e0: 8e53 81bc 55ad a9bd 7ac3 883c 90a1 22bd
000002f0: 2584 46bd 7a1f 9abd d9df 8ebd e182 a8bd
00000300: 38f3 aebc 58ac b1bd 498a 643d a365 e93c
00000310: 1ea8 bbbd b720 da3d 5aed b23c c16f 233e
00000320: 004d c1bd b787 1dbd 17df bf3d 9359 123c
00000330: b649 91bd fa08 013e 88d0 093d b418 99bd
00000340: 56ff ef3d f230 e6bc fcc5 a33d b445 04be
00000350: 1265 a1bd 502a efbc 905e 903d 2ca6 d63d
00000360: a5d4 b9bc 560a 9f3d 0952 23bc f1b1 febd
00000370: d7e5 513d 5483 873d 6ef7 c8bd a3af 2dbc
00000380: ee14 5bbc 3ddd 1b3e 0024 353b 550f 95bd
00000390: 43aa 1bbe 4d57 a1bd bdc0 093e b2e7 cabd
000003a0: 2d92 3a3c dfc4 cb3d 23a0 083e 26d0 2f3d
000003b0: 45fe 96bd 8f88 80bc 63c0 d4bd 12a4 eeba
000003c0: f5ed 073e 786c cf3d 756f 1b3e 2ab3 a0bd
000003d0: 92cd b5bc 7ad4 a8bc 6b51 643d d822 05be
000003e0: f07f c83c 180d a13c 1074 27bd 1280 c9bd
000003f0: d415 d1bd b5be 02be cd3f 6d3d d2b1 473d

numerical_net.4.bias f4 [64]
-0.05136538 -0.020071689 0.058554877 -0.030515458 -0.0015901413 0.10216602 0.033392705 0.07601792
-0.0061995178 0.15127909 -0.06947144 0.12999476 0.10224626 -0.0032403928 0.00716889 -0.020118631
0.07374725 0.11081966 0.10516391 0.042864133 0.08708271 0.11506776 -0.050981082 -0.035957176
0.1599505 -0.07835433 0.026212256 0.065369695 -0.06892841 -0.08894132 0.07620464 0.037406597
-0.026686663 0.16414821 0.07534154 -0.03606151 0.04445335 -0.004994905 0.030241871 0.095983095
-0.15970318 0.103522375 0.13582857 -0.019070668 0.075360596 0.081171796 -0.09686011 -0.113093115
-0.07846896 -0.116201304 0.12680921 -0.030466178 0.13489951 0.003378505 -0.077105686 0.05728646
0.009721697 -0.14529434 -0.077313475 0.10530661 0.058578342 0.08529499 -0.05852147 0.120842546
00000000: 8164 52bd 626d a4bc 3dd7 6f3d 8efb f9bc
00000010: 4a6c d0ba 6b3c d13d cac6 083d 49af 9b3d
00000020: 5325 cbbb e8e8 1a3e 0b47 8ebd 591d 053e
00000030: 7d66 d13d c55c 54bb 02e9 ea3b d4cf a4bc
00000040: cc08 973d 6bf5 e23d 2d60 d73d 4d92 2f3d
00000050: 6b58 b23d a5a8 eb3d 8ad1 50bd d547 13bd
00000060: 10ca 233e 3c78 a0bd 16bb d63c 8ce0 853d
00000070: 572a 8dbd de26 b6bd 2e11 9c3d a937 193d
00000080: fd9d dabc 7816 283e aa4c 9a3d 3cb5 13bd
00000090: b714 363d 4dac a3bb cdbd f73c c992 c43d
000000a0: 3b89 23be 8a03 d43d a516 0b3e 173a 9cbc
000000b0: a856 9a3d 663d a63d 985e c6bd 5d9d e7bd
000000c0: 56b4 a0bd f3fa edbd 46da 013e 3594 f9bc
000000d0: 1923 0a3e e869 5d3b 96e9 9dbd 35a5 6a3d
000000e0: c147 1f3c 0ac8 14be 8756 9ebd feaa d73d
000000f0: d8ef 6f3d 24af ae3d 35b4 6fbd 4c7c f73d

numerical_net.6.weight f4 [64]
0.9364145 0.92276895 0.97256905 0.9841417 0.9613136 0.9968857 0.9952779 0.94379556
0.9261129 1.0190814 0.9585418 0.9397027 0.9114301 0.91081053 0.96671677 0.9757448
0.95474184 1.014443 1.0050571 0.92790335 0.9951812 0.94223213 0.94814557 0.9701016
1.0285586 1.0170213 0.96679944 0.9803026 1.0504469 0.99399215 0.94335485 0.9262986
0.9708696 0.9535504 0.9917157 0.98193824 1.0209647 0.9344108 0.95256746 1.0588775
0.9964171 1.036774 0.9518132 0.99523145 0.92404205 0.90341437 0.9397758 0.9522825
0.9823073 0.98531836 1.0282766 1.0022128 0.94505745 0.96483946 0.9462187 0.94055635
0.9687544 0.9566093 0.9827108 0.9539984 0.93102455 0.98271036 0.92769074 0.92111343
00000000: dcb8 6f3f 963a 6c3f 49fa 783f b6f0 7b3f
00000010: a618 763f e733 7f3f 88ca 7e3f 969c 713f
00000020: bc15 6d3f 4271 823f ff62 753f 5b90 703f
00000030: 7c53 693f e12a 693f c07a 773f 69ca 793f
00000040: f669 743f 45d9 813f b6a5 803f 138b 6d3f
00000050: 32c4 7e3f 2036 713f abb9 723f 9458 783f
00000060: cfa7 833f c12d 823f 2b80 773f 1cf5 7a3f
00000070: 0b75 863f 4576 7e3f b47f 713f e821 6d3f
00000080: e98a 783f e11b 743f 15e1 7d3f 4e60 7b3f
00000090: f9ae 823f 8c35 6f3f 76db 733f 4c89 873f
000000a0: 3115 7f3f 03b5 843f 08aa 733f 7dc7 7e3f
000000b0: 058e 6c3f 2a46 673f 2695 703f c9c8 733f
000000c0: 7e78 7b3f d33d 7c3f 919e 833f 8248 803f
000000d0: 49ef 713f b8ff 763f 643b 723f 4dc8 703f
000000e0: 4a00 783f 59e4 743f ef92 7b3f 3d39 743f
000000f0: a057 6e3f e892 7b3f 247d 6d3f 17ce 6b3f

numerical_net.6.bias f4 [64]
0.017596522 -0.017316222 -0.006530401 0.028390918 0.0031161213 0.029129596 -0.025251161 0.025113411
-0.0044624535 0.025637863 -0.009461304 0.034721963 -0.0026646617 0.045343995 0.017718527 0.005239869
-0.016340848 -0.034232907 0.03629709 -0.020738402 -0.055081487 -0.016888741 -0.030957798 0.036279805
-0.024662852 -0.004581293 -0.027116248 0.005846908 -0.029186364 -0.029201858 0.014643031 0.03778225
0.033942014 -0.025028862 0.003910173 -0.020599497 -0.014864557 -0.0030909798 0.047884375 -0.011443984
-0.04222083 -0.017308403 -0.04082767 -0.044187177 -0.011876184 0.03700456 -0.023364715 -0.050705407
-0.021507373 -0.014715143 0.018467959 -0.037152402 0.019151889 -0.017868744 0.015161061 -0.035296794
-0.031080727 -0.015650887 0.015783465 -0.046806574 -0.038490828 -0.009555988 -0.004772188 0.024000993
00000000: 9526 903c c0da 8dbc f9fc d5bb 1294 e83c
00000010: d737 4c3b 31a1 ee3c 86db cebc a4ba cd3c
00000020: c639 92bb 7f06 d23c 9603 1bbc 9e38 0e3d
00000030: 9ba1 2ebb a0ba 393d 7226 913c 35b3 ab3b
00000040: 3edd 85bc ce37 0cbd 42ac 143d 95e3 a9bc
00000050: 209d 61bd 425a 8abc 359b fdbc 229a 143d
00000060: c009 cabc ac1e 96bb e522 debc 6b97 bf3b
00000070: 3e18 efbc bc38 efbc 53e9 6f3c 90c1 1a3d
00000080: c806 0b3d 5409 cdbc e920 803b 47c0 a8bc
00000090: 798a 73bc 0992 4abb 6822 443d 8c7f 3bbc
000000a0: c0ef 2cbd 5aca 8dbc ea3a 27bd 9dfd 34bd
000000b0: 5394 42bc 1892 173d 5c67 bfbc 79b0 4fbd
000000c0: 3b30 b0bc c817 71bc 1e4a 973c 1e2d 18bd
000000d0: 6ce4 9c3c 7961 92bc 1966 783c 5f93 10bd
000000e0: 029d febc 4a36 80bc 534c 813c 40b8 3fbd
000000f0: 8fa8 1dbd b890 1cbc 0460 9cbb bb9d c43c

numerical_net.6.running_mean f4 [64]
0.28764802 0.35158753 0.37756267 0.4445018 0.4449822 0.42164043 0.46581388 0.44986364
0.34336334 0.5661835 0.5696031 0.42095274 0.38388762 0.32999903 0.2791094 0.37230632
0.42738083 0.5478627 0.3935719 0.332217 0.42422596 0.45060006 0.27860644 0.4278328
0.59240836 0.4620423 0.33204168 0.5703689 0.3448574 0.39095995 0.38159394 0.3861979
0.3432317 0.49817154 0.50226694 0.39482504 0.41602656 0.33259782 0.42782357 0.5556339
0.20421106 0.55167884 0.41522914 0.41701508 0.40151364 0.2894391 0.20481598 0.38274932
0.34376097 0.31220874 0.61698115 0.5469293 0.46490884 0.40159807 0.3435529 0.50151426
0.28149003 0.25827196 0.3979712 0.48498383 0.3943656 0.484074 0.32298368 0.3735002
00000000: 9a46 933e 4803 b43e e54f c13e bd95 e33e
00000010: b5d4 e33e 41e1 d73e 287f ee3e 8754 e63e
00000020: 52cd af3e 67f1 103f 82d1 113f 1e87 d73e
00000030: eb8c c43e a2f5 a83e 6de7 8e3e ef9e be3e
00000040: a9d1 da3e bb40 0c3f 4282 c93e 5918 aa3e
00000050: 2534 d93e 0db5 e63e 81a5 8e3e e70c db3e
00000060: 13a8 173f cf90 ec3e 5e01 aa3e b203 123f
00000070: 2691 b03e e72b c83e 4860 c33e bbbb c53e
00000080: 11bc af3e 5710 ff3e 9194 003f 8226 ca3e
00000090: 6f01 d53e 434a aa3e b10b db3e 063e 0e3f
000000a0: b41c 513e d33a 0d3f ea98 d43e 0083 d53e
000000b0: 3293 cd3e 5d31 943e 48bb 513e b8f7 c33e
000000c0: 7001 b03e d3d9 9f3e 7af2 1d3f 8f03 0c3f
000000d0: 8808 ee3e 439e cd3e 2ae6 af3e 3d63 003f
000000e0: 761f 903e 393c 843e e2c2 cb3e cd4f f83e
000000f0: 4aea c93e 8cd8 f73e 1e5e a53e 6b3b bf3e

numerical_net.6.running_var f4 [64]
0.21914563 0.24570738 0.26174766 0.5194964 0.5745369 0.6855215 0.52114385 0.3878509
0.37241766 0.63381875 0.7110474 0.28129393 0.18827489 0.19480035 0.1751964 0.31930897
0.44679716 0.73876745 0.31001914 0.2876364 0.5806146 0.43803498 0.23096418 0.49679986
0.6376136 0.5462033 0.3267517 0.7809497 0.46702123 0.39579415 0.3860432 0.48451748
0.24337175 0.2720443 0.66886574 0.46867675 0.31709388 0.3103203 0.40143126 0.5312727
0.1938966 0.7247717 0.4067903 0.6261929 0.23495625 0.20121133 0.114506476 0.33115962
0.35661876 0.28113174 0.64778185 0.69280374 0.35666206 0.39389148 0.3371549 0.5254385
0.17049646 0.26158777 0.42823938 0.4218439 0.4084616 0.5678614 0.3972947 0.25088271
00000000: b667 603e b79a 7b3e ca03 863e b7fd 043f
00000010: da14 133f 567e 2f3f af69 053f 6594 c63e
00000020: 87ad be3e f241 223f 3407 363f c205 903e
00000030: 22cb 403e be79 473e af66 333e 777c a33e
00000040: 99c2 e43e dd1f 3d3f d4ba 9e3e 1445 933e
00000050: 29a3 143f 1f46 e03e e081 6c3e 8d5c fe3e
00000060: a53a 233f fbd3 0b3f 004c a73e 52ec 473f
00000070: 681d ef3e 88a5 ca3e 74a7 c53e ad12 f83e
00000080: 7236 793e 6449 8b3e c93a 2b3f 66f6 ef3e
00000090: 215a a23e 4de2 9e3e 6688 cd3e 7d01 083f
000000a0: d58c 463e a38a 393f d146 d03e 2e4e 203f
000000b0: 5f98 703e 580a 4e3e 5f82 ea3d c18d a93e
000000c0: bc96 b63e 80f0 8f3e 08d5 253f 965b 313f
000000d0: 699c b63e 25ac c93e 919f ac3e 2383 063f
000000e0: a096 2e3e d5ee 853e 3142 db3e ecfb d73e
000000f0: e121 d13e 5d5f 113f 366a cb3e b373 803e

title_net.0.weight f4 [128, 200]
-0.004807409 0.040111497 -0.036367726 0.028724315 -0.119135834 -0.020854618 -0.038291577 -0.05406563
0.09079958 0.13507855 0.072438374 0.040195353 -0.05639484 -0.0830817 0.026937172 0.07342741
-0.051774483 0.08552448 -0.030388914 -0.10162719 -0.010498851 0.077285536 -0.028631618 0.0047041834
0.060834274 -0.02815403 0.024801198 0.042660892 0.027611732 -0.007779148 0.06862568 -0.10052693
-0.0050614504 -0.0014573366 -0.053392813 0.06611027 -3.736608e-05 -0.0644597 -0.059009384 0.014683996
0.0073751886 0.025449688 0.024768911 -0.03874678 0.03283665 0.048947155 0.07377125 0.08014353
-0.014844046 0.030626265 0.11587833 0.06470836 -0.014721174 0.12660064 0.013386595 -0.017544333
0.0046651615 0.02571402 0.087203585 -0.010933679 -0.033355854 0.119757794 -0.0002324775 0.019851742
0.012028679 0.06114576 0.08283275 0.032638647 -0.033941627 -0.071031384 0.011449566 -0.0859794
-0.024137959 -0.0051368736 0.06359482 -0.026153866 -0.07558621 0.014223541 -0.043749668 0.01294316
0.11543856 -0.017774517 -0.099078566 0.08056516 -0.009355888 0.044104025 0.0015706352 -0.021330401
-0.007356826 -0.006470063 -0.06530357 0.0073573897 0.08783337 -0.088081695 -0.07708693 -0.01781385
0.02917001 0.0020129592 0.041981015 -0.036492363 -0.029153896 0.004869065 0.065716855 -0.044795074
-0.07654115 0.0625555 0.008251828 -0.008831974 0.021776944 -0.015539348 0.063285954 -0.061817195
-0.021739122 0.0002040359 0.07259961 -0.08276166 -0.06787324 -0.0041486635 -0.055846963 -0.001301476
0.03199734 0.06635187 -0.025323676 -0.07129265 0.08068922 0.0067978934 -0.05861435 -0.02068029
0.024217796 -0.046762288 -0.019737411 -0.03015095 0.0096544465 -0.030779919 -0.03373593 0.1157634
0.038334064 -0.05709476 -0.1012317 0.07542522 -0.033224504 0.0407192 -0.010497105 -0.009679382
0.09800927 -0.035208404 0.050801784 0.012028385 0.0047766194 0.06463857 -0.05043334 -0.0014725886
0.046528 0.03675057 0.10200305 -0.058673043 -0.020310156 -0.032758035 0.012485413 0.0030541886
-0.038931783 0.084977135 0.09321344 0.020048352 -0.028416723 0.018687647 0.040126845 -0.072769426
-0.11747976 -0.029178834 0.048471607 0.07962698 -0.010161205 -0.07150854 0.028294235 0.05346012
0.037091848 -0.045016184 -0.056405578 -0.0118540265 0.018708494 0.05762311 0.011131873 -0.10064631
-0.0495413 0.06912725 0.06803271 0.074565105 0.071112424 0.007712332 0.10642253 0.005670345
-0.020998057 -0.06396224 -0.09272807 0.0497459 0.010969526 0.0004928629 -0.020157157 0.0056728553
0.025885748 -0.036437094 -0.035562143 0.0674973 -0.028715026 0.034543365 0.051558055 0.036621086
0.07766175 0.13515589 -0.06328029 0.06821206 0.053115956 -0.0499744 0.056536146 -0.028238684
-0.06425901 0.04856596 0.025723802 -0.04560838 0.10035203 0.048949324 0.014287213 0.031396877
-0.05120313 0.05374005 -0.048855733 -0.04455763 -0.001690813 0.008913868 0.055479567 -0.11218229
0.06384487 0.025929874 -0.03406099 0.032495208 -0.028180564 0.063283354 -0.037390575 0.09815088
0.0793023 0.048362687 0.017757585 0.054206286 0.011689098 -0.04474262 -0.049076997 -0.013026318
-0.0058400054 0.06962961 0.008409405 -0.07163101 -0.083608314 0.08700704 0.024471296 -0.06371364
00000000: 7887 9dbb f44b 243d 53f6 14bd 414f eb3c
00000010: 7dfd f3bd 4ed7 aabc a1d7 1cbd ec73 5dbd
00000020: 21f5 b93d 0852 0a3e 925a 943d e2a3 243d
00000030: 47fe 66bd bd26 aabd 58ab dc3c 1c61 963d
00000040: 7b11 54bd 7527 af3d 2cf2 f8bc eb21 d0bd
00000050: 5f03 2cbc e147 9e3d db8c eabc 8d25 9a3b
00000060: 5c2d 793d 48a3 e6bc e22b cb3c 30bd 2e3d
00000070: 0032 e23c 39e8 febb 9f8b 8c3d 10e1 cdbd
00000080: 86da a5bb 1a04 bfba 6cb2 5abd d264 873d
00000090: 86b9 1cb8 7203 84bd d3b3 71bd 2595 703c
000000a0: 91ab f13b dd7b d03c 2ce8 ca3c f2b4 1ebd
000000b0: b97f 063d d07c 483d 6215 973d 4b22 a43d
000000c0: 7134 73bc efe3 fa3c 9e51 ed3d d185 843d
000000d0: 1431 71bc 99a3 013e 7353 5b3c 22b9 8fbc
000000e0: 36de 983b 35a6 d23c cb97 b23d 2c23 33bc
000000f0: 26a0 08bd 9343 f53d 34c5 73b9 1fa0 a23c
00000100: f013 453c fa73 7a3d 38a4 a93d 1ab0 053d
00000110: 6006 0bbd e778 91bd f696 3b3c f815 b0bd
00000120: f8bc c5bc 3853 a8bb 003e 823d a240 d6bc
00000130: f1cc 9abd db09 693c da32 33bd 8c0f 543c
00000140: 0d6b ec3d dd9b 91bc b4e9 cabd 59ff a43d
00000150: 7049 19bc 6ca6 343d c6dd cd3a 18bd aebc
00000160: 8811 f1bb d202 d4bb e1bd 85bd 4216 f13b
00000170: fbe1 b33d 2d64 b4bd c1df 9dbd 5aee 91bc
00000180: f2f5 ee3c daeb 033b 49f4 2b3d 0479 15bd
00000190: 27d4 eebc ad8c 9f3b 8f96 863d 0a7b 37bd
000001a0: 9bc1 9cbd 191d 803d ad32 073c fcb3 10bc
000001b0: 9065 b23c c098 7ebc 119c 813d 0734 7dbd
000001c0: 3e16 b2bc 78f2 5539 1baf 943d f27e a9bd
000001d0: 2001 8bbd 83f1 87bb c9bf 64bd 4a96 aaba
000001e0: a50f 033d 7de3 873d 9973 cfbc e201 92bd
000001f0: 6440 a53d ddc0 de3b 9a15 70bd b669 a9bc
00000200: 6664 c63c d089 3fbd 5ab0 a1bc 20ff f6bc
00000210: af2d 1e3c 2b26 fcbc b02e 0abd 5d15 ed3d
00000220: 2e04 1d3d 32dc 69bd 9152 cfbd 8a78 9a3d
00000230: 6b16 08bd 2dc9 263d 0dfc 2bbc 4596 1ebc
00000240: 16b9 c83d b036 10bd 8815 503d b412 453c
00000250: 3085 9c3b 3a61 843d 3193 4ebd e003 c1ba
00000260: 2594 3e3d c487 163d fae6 d03d 2553 70bd
00000270: 7c61 a6bc 4a2d 06bd 9e8f 4c3c c828 483b
00000280: ef76 1fbd 7e08 ae3d b0e6 be3d 713c a43c
00000290: 30ca e8bc d616 993c 0c5c 243d 2308 95bd
000002a0: 3a99 f0bd 7308 efbc 2a8a 463d 7813 a33d
000002b0: 2f7b 26bc 1273 92bd 50c9 e73c 00f9 5a3d
000002c0: 9fed 173d e462 38bd 8909 67bd 6437 42bc
000002d0: 8e42 993c 3606 6c3d 7662 363c a71f cebd
000002e0: d1eb 4abd 9692 8d3d bc54 8b3d 97b5 983d
000002f0: 64a3 913d bbb7 fc3b 0ef4 d93d 4dce b93b
00000300: 1e04 acbc a3fe 82bd 37e8 bdbd 5bc2 4b3d
00000310: 87b9 333c 7833 013a 9f20 a5bc 5ce3 b93b
00000320: 590e d43c 103f 15bd 9ca9 11bd 063c 8a3d
00000330: c63b ebbc 587d 0d3d 8a2e 533d feff 153d
00000340: 200d 9f3d 4e66 0a3e 1999 81bd c4b2 8b3d
00000350: 1e90 593d f5b1 4cbd 7292 673d d054 e7bc
00000360: 3a9a 83bd 1aed 463d b9ba d23c dacf 3abd
00000370: 5d85 cd3d 167f 483d ea14 6a3c 039a 003d
00000380: 60ba 51bd 871e 5c3d f31c 48bd 1082 36bd
00000390: 459e ddba 790b 123c 8b3e 633d d4bf e5bd
000003a0: 19c1 823d e36a d43c 8983 0bbd b219 053d
000003b0: edda e6bc b49a 813d dc26 19bd 5403 c93d
000003c0: 3f69 a23d f417 463d 5b78 913c 6907 5e3d
000003d0: a183 3f3c 0a44 37bd f604 49bd 566c 55bc
000003e0: 845d bfbb f899 8e3d 9ac7 093c 47b3 92bd
000003f0: d63a abbd bf30 b23d 0778 c83c 4c7c 82bd

title_net.0.bias f4 [128]
-0.056955762 -0.017610261 -0.007882255 -0.04543322 0.024854494 0.049984053 -0.021549484 0.0327645
0.0025632142 -0.05089848 0.009504419 0.00993301 -0.022563491 0.08718415 0.010683947 -0.059071496
0.03806978 0.045000922 -0.08948915 -0.04323495 -0.016942691 0.034388583 0.066864185 -0.058580715
0.018157627 -0.0802164 -0.08360917 0.06298846 0.013486336 0.035379995 0.061207592 0.0069264756
0.038226653 0.049398165 -0.008843795 0.059438355 0.07367936 0.08429272 0.04526583 0.06154108
0.07710264 0.014577125 0.071030475 -0.0125413155 0.03758897 0.044498295 -0.0061829733 0.042445183
0.060947523 0.02551322 0.0061594984 0.03103297 0.01612085 0.06287393 0.06898967 -0.021736972
-0.052412946 0.048544783 0.060091022 -0.036644235 0.023598634 0.059141 0.062423874 -0.10381255
-0.065841734 0.044156585 0.0018792817 -0.010684746 -0.012399253 0.036886536 0.035286464 0.033845283
0.018207476 0.011899161 0.05398836 -0.036507446 -0.18351455 0.05129076 0.017746331 -0.18329376
-0.04466446 -0.007454781 -0.071941346 0.04075758 -0.05391625 0.01546738 -0.05250272 -0.07007739
0.053312156 -0.028791802 -0.11306373 -0.011245442 0.027841173 0.06408669 0.045155462 -0.08861897
0.038301617 0.019808115 -0.050659474 0.032954425 0.052945014 0.078263916 -0.0398561 0.03537407
0.06558957 0.025476672 0.059572864 0.0042961244 0.00598795 -0.04161255 0.033494633 -0.0131880855
-0.073996626 -0.038996764 -0.04999358 0.052776303 -0.08626598 0.01503967 0.053333234 -0.012610707
0.07292588 0.040561743 0.013864372 0.020443551 0.060554232 0.06400891 0.047640447 -0.04922976
00000000: 724a 69bd 6543 90bc 9324 01bc 2f18 3abd
00000010: a79b cb3c 14bc 4c3d 8b88 b0bc 1134 063d
00000020: 99fb 273b ed7a 50bd 6cb8 1b3c 10be 223c
00000030: 12d7 b8bc 9b8d b23d b90b 2f3c f4f4 71bd
00000040: 0fef 1b3d e352 383d 1646 b7bd 2217 31bd
00000050: 66cb 8abc 0bdb 0c3d 17f0 883d 55f2 6fbd
00000060: 4ebf 943c 7f48 a4bd 493b abbd 1800 813d
00000070: cbf5 5c3c 9dea 103d d0b4 7a3d 7df7 e23b
00000080: 8d93 1c3d bb55 4a3d 91e5 10bc a275 733d
00000090: 34e5 963d a9a1 ac3d aa68 393d 8012 7c3d
000000a0: fde7 9d3d e5d4 6e3c 6d78 913d 177a 4dbc
000000b0: e4f6 193d d843 363d 8a9a cabb 00db 2d3d
000000c0: 1ca4 793d 1a01 d13c 9ed5 c93b db38 fe3c
000000d0: df0f 843c 0cc4 803d 754a 8d3d bc11 b2bc
000000e0: f5ae 56bd e5d6 463d 0122 763d 4418 16bd
000000f0: ec51 c13c d53d 723d 2db0 7f3d ad9b d4bd
00000100: 08d8 86bd 89dd 343d 3b52 f63a 130f 2fbc
00000110: 3d26 4bbc 5616 173d 8a88 103d 5aa1 0a3d
00000120: d827 953c b3f4 423c e622 5d3d d588 15bd
00000130: 3deb 3bbe 4316 523d c160 913c 5cb1 3bbe
00000140: 15f2 36bd 3c47 f4bb fc55 93bd 6cf1 263d
00000150: 49d7 5cbd e56a 7d3c 180d 57bd bc84 8fbd
00000160: d95d 5a3d c9dc ebbc f58d e7bd cd3e 38bc
00000170: 2c13 e43c e23f 833d eff4 383d dd7d b5bd
00000180: 28e2 1c3d a144 a23c 4f80 4fbd 38fb 063d
00000190: dfdc 583d d548 a03d 2640 23bd 67e4 103d
000001a0: d353 863d 74b4 d03c ad02 743d 81c6 8c3b
000001b0: 9136 c43b ec71 2abd ab31 093d d712 58bc
000001c0: 8b8b 97bd 12bb 1fbd 11c6 4cbd f72b 583d
000001d0: 38ac b0bd f368 763c f373 5a3d 249d 4ebc
000001e0: 2a5a 953d 1224 263d 6427 633c 3c79 a73c
000001f0: b707 783d 1a17 833d a122 433d 25a5 49bd

title_net.2.weight f4 [128]
1.0134729 0.9608319 0.95544 0.9394445 0.9852498 1.001688 1.0057155 1.0049284
0.9980739 0.95698786 0.94465744 1.0317297 0.9421358 0.9999259 0.99936223 0.9935302
1.0411401 0.9539082 1.0507079 1.0777428 0.9407894 0.94365656 0.97324777 0.98042685
0.91535485 1.0778705 0.95553076 0.97084725 0.9723759 0.9886998 1.0045902 0.9855454
0.9410984 0.95825666 1.0087107 0.9167348 0.929317 0.9175195 1.0023303 1.0010009
0.9490408 1.0027426 0.9509625 0.9742928 1.0224555 0.9184646 0.99813855 1.0092319
0.9473992 1.013737 0.94515795 0.98519254 1.0180817 0.94329304 0.9703766 0.96447057
0.99100864 1.0479031 0.9790403 1.0276315 0.98165953 0.97001153 1.0339103 1.062026
0.96029544 0.9722163 0.9456269 0.940374 1.0068599 0.94720477 0.98793924 0.9477694
0.9901061 0.98672974 1.0324261 0.99279433 1.0402397 1.029272 0.9838843 1.0466201
1.0354811 1.002958 1.0124053 0.9552051 0.9357667 1.017704 0.94647235 0.98303676
0.95471716 0.9894612 1.0069058 0.9589534 0.9435381 1.0257714 0.96229386 0.9600297
0.9802564 0.9890822 0.9593997 0.9025406 0.9805088 0.98418945 0.9242124 0.9412885
1.0005817 0.9816085 0.9703089 0.99898976 1.0117785 0.9828803 0.9686595 0.9637189
1.0155481 1.004263 0.9712751 0.9837009 0.9453632 0.9206111 0.9837123 0.9849238
0.9768149 0.9288498 0.9988713 1.0055693 0.9675558 0.8990234 1.0037358 1.013304
00000000: 7bb9 813f 14f9 753f b797 743f 6f7f 703f
00000010: 5539 7c3f 5037 803f 49bb 803f 7ea1 803f
00000020: c581 7f3f 28fd 743f 12d5 713f b80f 843f
00000030: d02f 713f 25fb 7f3f 34d6 7f3f ff57 7e3f
00000040: 1444 853f 5433 743f 997d 863f 7af3 893f
00000050: 93d7 703f 7a93 713f c426 793f 41fd 7a3f
00000060: b254 6a3f a9f7 893f aa9d 743f 7289 783f
00000070: a1ed 783f 6e1b 7d3f 6996 803f b44c 7c3f
00000080: d3eb 703f 4f50 753f 6f1d 813f 22af 6a3f
00000090: b8e7 6d3f 8fe2 6a3f 5c4c 803f cc20 803f
000000a0: 56f4 723f df59 803f 4772 733f 416b 793f
000000b0: d2df 823f 7f20 6b3f 0286 7f3f 832e 813f
000000c0: c188 723f 22c2 813f dff5 713f 9435 7c3f
000000d0: 8050 823f a77b 713f 9a6a 783f 8be7 763f
000000e0: beb2 7d3f b021 863f 63a2 7a3f 6e89 833f
000000f0: 0a4e 7b3f ad52 783f 2c57 843f 78f0 873f
00000100: ecd5 753f 2be3 783f 9b14 723f 5abc 703f
00000110: c9e0 803f 037c 723f 96e9 7c3f 04a1 723f
00000120: 9877 7d3f 529a 7c3f 8a26 843f c527 7e3f
00000130: 9326 853f 2fbf 833f d7df 7b3f a6f7 853f
00000140: a58a 843f ee60 803f 7f96 813f 5288 743f
00000150: 688e 6f3f 2044 823f 034c 723f 4ca8 7b3f
00000160: 5868 743f 544d 7d3f 4ae2 803f f87d 753f
00000170: b78b 713f 7a4c 833f e458 763f 82c4 753f
00000180: 15f2 7a3f 7e34 7d3f 389b 753f e70c 673f
00000190: a002 7b3f d7f3 7b3f 2f99 6c3f 48f8 703f
000001a0: 1013 803f b24a 7b3f 2a66 783f cbbd 7f3f
000001b0: f581 813f 0b9e 7b3f 12fa 773f 48b6 763f
000001c0: 7bfd 813f b18b 803f 7ca5 783f d2d3 7b3f
000001d0: 5303 723f 2bad 6b3f 92d4 7b3f f723 7c3f
000001e0: 8b10 7a3f 1ac9 6d3f 08b6 7f3f 7fb6 803f
000001f0: bdb1 773f 6626 663f 6a7a 803f f2b3 813f

title_net.2.bias f4 [128]
0.055630587 -0.011161318 0.009481042 0.042785645 -0.052220885 -0.020015627 0.009782724 -0.016886609
-0.044654243 -0.04286564 0.02375812 0.043582022 -0.009483737 -0.042204995 -0.0039036975 -0.010087271
0.028052514 -0.048011594 -0.03336804 -0.032442182 0.049181696 0.0025542371 -0.01979596 0.018372443
-0.018453246 -0.05375947 -0.020238364 0.031152518 -0.046564847 -0.030375652 -0.033724744 0.010452366
0.022879267 0.023959847 0.04213238 -0.00024193228 -0.006858051 0.03226579 0.018167626 0.0070593297
-0.024870325 -0.03892909 0.024111686 -0.036356352 -0.010654919 -0.0028676086 -0.049920674 -0.0015318672
-0.045352302 0.0043671476 -0.015989913 -0.039430577 -0.019106278 0.006620976 -0.019622289 0.00575858
0.009074245 -0.028872484 -0.054112166 0.013862802 -0.023130668 0.020737555 -0.00074801233 0.067323565
-0.013048736 0.009887618 -0.026057687 -0.014494106 -0.036868654 -0.036531724 -0.03761513 0.06452182
-0.042074963 0.040086042 0.0047555426 0.06279619 -0.04342632 0.031885307 0.00953155 -0.009282018
-0.028110692 0.0128675075 0.009560047 0.042789258 0.001683602 0.030337319 -0.016331388 -0.035950538
0.006022786 0.03528174 0.004332665 -0.031770628 -0.037592 -0.035543434 0.018856442 -0.014288254
0.040347286 0.024482405 0.014081882 -0.0059140045 -0.03213921 -0.027127065 0.0014526891 -0.029730698
-0.04462849 0.021395758 -0.030396387 0.019888531 -0.01756385 -0.04459493 -0.0013544504 -0.04837594
0.04675355 0.048567068 -0.044014376 0.015781485 -0.03542602 -0.01356297 -0.023581065 -0.034077764
0.05897566 -0.017691545 0.05373095 -0.05312295 0.040459193 0.014051432 -0.0011632673 0.017499603
00000000: e6dc 633d f6dd 36bc 5f56 1b3c 0040 2f3d
00000010: 91e5 55bd d0f7 a3bc b847 203c c955 8abc
00000020: 5ee7 36bd e293 2fbd 64a0 c23c 1083 323d
00000030: ad61 1bbc 25df 2cbd 2dd5 7fbb 1545 25bc
00000040: 63ce e53c cea7 44bd edac 08bd 18e2 04bd
00000050: bf72 493d fd64 273b 232b a2bc ce81 963c
00000060: 432b 97bc e432 5cbd edca a5bc 9133 ff3c
00000070: c8ba 3ebd 5cd6 f8bc f522 0abd 6740 2b3c
00000080: 4d6d bb3c 7147 c43c 0193 2c3d 34af 7db9
00000090: 80b9 e0bb 2229 043d 46d4 943c f351 e73b
000000a0: dabc cbbc 1c74 1fbd df85 c53c 66ea 14bd
000000b0: f891 2ebc 7dee 3bbb 9f79 4cbd efc8 c8ba
000000c0: 56c3 39bd 4a1a 8f3b 47fd 82bc f581 21bd
000000d0: c584 9cbc c6f4 d83b ecbe a0bc 78b2 bc3b
000000e0: 24ac 143c fd85 ecbc b8a4 5dbd ce20 633c
000000f0: 877c bdbc cee1 a93c 4216 44ba f0e0 893d
00000100: 5eca 55bc adff 213c ee76 d5bc b078 6dbc
00000110: 9603 17bd 4aa2 15bd 5312 1abd 0424 843d
00000120: cc56 2cbd 4331 243d 62d4 9b3b 4a9b 803d
00000130: ccdf 31bd 2b9a 023d 382a 1c3c 9b13 18bc
00000140: 6548 e6bc 3dd2 523c bea1 1c3c ca43 2f3d
00000150: 4fac dc3a f885 f83c 67c9 85bc df40 13bd
00000160: ca5a c53b 9683 103d 07f9 8d3b eb21 02bd
00000170: 12fa 19bd fe95 11bd d378 9a3c 4819 6abc
00000180: 3243 253d 538f c83c b2b7 663c 44ca c1bb
00000190: 67a4 03bd 9439 debc 2868 be3a cb8d f3bc
000001a0: 5dcc 36bd 2846 af3c d801 f9bc 46ed a23c
000001b0: 10e2 8fbc 2ca9 36bd d087 b1ba da25 46bd
000001c0: a780 3f3d 43ee 463d 6b48 34bd 2c48 813c
000001d0: e01a 11bd 3837 5ebc 142d c1bc 2095 0bbd
000001e0: 7690 713d dced 90bc fc14 5c3d 7397 59bd
000001f0: 8ab8 253d fa37 663c c678 98ba 545b 8f3c

title_net.2.running_mean f4 [128]
0.26073468 0.30923715 0.15315995 0.3233205 0.26592538 0.03598773 0.29028052 0.058715925
0.07229806 0.06763171 0.09899612 0.4693803 0.24929972 0.0028511079 0.010028122 0.031056238
0.451435 0.12214417 0.017511163 0.051877476 0.3722338 0.078803 0.12642927 0.0077965977
0.43080673 0.014713106 0.24561128 0.2844573 0.017127957 0.10680544 0.0027825239 0.2979283
0.23569076 0.0018654228 0.5674389 0.18301329 0.05162828 0.44652218 0.37436646 0.29303905
0.15059334 0.025368359 0.6436695 0.13764043 0.20709363 0.014675768 0.13396306 0.36621982
0.2985449 0.4166265 0.32752183 0.4872809 0.036120083 0.3669589 0.345873 0.546371
0.6033927 0.01818053 0.1544334 0.21094021 0.13046901 0.56297886 0.42062902 0.032608107
0.08869135 0.45121732 0.053716972 0.07664402 0.011496456 0.17120874 0.030326253 0.31207472
0.05726949 0.54441166 0.4461878 0.20919147 0.0008658255 0.32905942 0.20595232 0.0008951336
0.005118199 0.29201844 0.008057108 0.26583663 0.0017111705 0.052380167 0.0021268728 0.00097012625
0.33389062 0.08679197 0.080764584 0.11725121 0.003999867 0.04014321 0.4802532 0.060604062
0.45623314 0.48020738 0.10732022 0.5510017 0.2594728 0.30553642 0.22000283 0.30835986
0.04959401 0.37541744 0.015539621 0.30043784 0.051191498 0.04100824 0.33282268 0.025731562
0.014297408 0.6023089 0.012859396 0.38434386 0.00080977235 0.21598142 0.46703246 0.0104068
0.25182393 0.092489354 0.4311497 0.05949521 0.4514093 0.47724184 0.32619697 0.3127369
00000000: 047f 853e 5554 9e3e f6d5 1c3e 448a a53e
00000010: 5f27 883e df67 133d a69f 943e 1c80 703d
00000020: 0111 943d 7e82 8a3d 7abe ca3d 9d52 f03e
00000030: 6d48 7f3e a7d9 3a3b fe4c 243c a769 fe3c
00000040: 7d22 e73e b926 fa3d 9273 8f3c 7a7d 543d
00000050: 6e95 be3e 7863 a13d ad76 013e 9a7a ff3b
00000060: b392 dc3e 3d0f 713c 8681 7b3e 63a4 913e
00000070: ee4f 8c3c cfbc da3d 015b 363b 0f8a 983e
00000080: eb58 713e 3481 f43a ad43 113f d667 3b3e
00000090: 2d78 533d 8e9e e43e f6ac bf3e 3709 963e
000000a0: 2435 1a3e 4ed1 cf3c 86c7 243f 9df1 0c3e
000000b0: 5a10 543e a272 703c 9d2d 093e 2a81 bb3e
000000c0: e1da 983e 1250 d53e f1b0 a73e e27c f93e
000000d0: a7f2 133d 09e2 bb3e 4416 b13e f8de 0b3f
000000e0: f277 1a3f 56ef 943c ca23 1e3e b600 583e
000000f0: ab99 053e 621f 103f b05c d73e 1490 053d
00000100: cfa3 b53d f505 e73e 5406 5c3d 8af7 9c3d
00000110: a25b 3c3c 5851 2f3e c36e f83c 42c8 9f3e
00000120: 6a93 6a3d 905e 0b3f ba72 e43e 4a36 563e
00000130: 91f8 623a 7a7a a83e 2ae5 523e 66a7 6a3a
00000140: 91b6 a73b 7183 953e f601 043c bd1b 883e
00000150: 5b49 e03a 968c 563d 0163 0b3b 1250 7e3a
00000160: b6f3 aa3e fdbf b13d e767 a53d 6721 f03d
00000170: 5111 833b 356d 243d bfe3 f53e f73b 783d
00000180: 6497 e93e bedd f53e b4ca db3d 730e 0d3f
00000190: 9ed9 843e 456f 9c3e 6c48 613e 58e1 9d3e
000001a0: 1723 4b3d b736 c03e e599 7e3c fdd2 993e
000001b0: 2dae 513d 42f8 273d bc67 aa3e ffca d23c
000001c0: ad3f 6a3c eb30 1a3f 37b0 523c b8c8 c43e
000001d0: e746 543a 3c2a 5d3e e11e ef3e 4881 2a3c
000001e0: 11ef 803e 0f6b bd3d a7bf dc3e 40b1 733d
000001f0: 1f1f e73e 0b59 f43e 4a03 a73e 0d1f a03e

title_net.2.running_var f4 [128]
0.046675608 0.041772857 0.021251885 0.051781137 0.07854901 0.008162187 0.050310407 0.0154821295
0.025648566 0.010441646 0.02731044 0.07075517 0.029792812 0.00082792586 0.0024938197 0.0048203827
0.07103547 0.03125131 0.0036179295 0.010177007 0.054634355 0.020382091 0.03205283 0.0018160794
0.03722064 0.0032202564 0.020411033 0.02924087 0.0056082327 0.028274499 0.0007977281 0.048283298
0.033326548 0.000649349 0.08680935 0.025657326 0.011721296 0.03275991 0.062086236 0.043309744
0.037995305 0.006379159 0.06730813 0.03011489 0.039900046 0.004586872 0.028134553 0.069630094
0.04629239 0.07030684 0.047698863 0.064642906 0.010424677 0.046114504 0.044299882 0.08296862
0.08687258 0.0031513842 0.051533956 0.04260988 0.017962897 0.062951736 0.07173628 0.005563369
0.017095774 0.064034715 0.01936666 0.026283227 0.0026743514 0.025772983 0.0075815115 0.042837396
0.017972147 0.07783728 0.07317678 0.037762742 0.000214584 0.059575982 0.04683763 0.0002555405
0.0011332508 0.04288887 0.0012817645 0.032564454 0.0005763801 0.008214726 0.0005939156 0.0003541274
0.024987783 0.013791097 0.013023869 0.025623795 0.0010676364 0.010683531 0.07825851 0.010624456
0.060767055 0.087359704 0.014306969 0.06589434 0.05866121 0.052000545 0.021545937 0.0465563
0.019300237 0.06369417 0.003649705 0.05625422 0.018637346 0.010201712 0.04516463 0.007621346
0.002393908 0.08387478 0.0033107926 0.045972314 0.00028628428 0.04155578 0.06483154 0.0038335656
0.044261303 0.013804786 0.07491807 0.018889502 0.06859279 0.06583551 0.0546259 0.05343974
00000000: ec2e 3f3d 041a 2b3d 6f18 ae3c 7518 543d
00000010: 4ede a03d b2ba 053c 4912 4e3d c2a8 7d3c
00000020: f11c d23c 7013 2b3c 25ba df3c 16e8 903d
00000030: 0e10 f43c 2a09 593a 5a6f 233b 4df4 9d3b
00000040: 0b7b 913d 6001 003d c91a 6d3b 76bd 263c
00000050: 46c8 5f3d 58f8 a63c d449 033d 8309 ee3a
00000060: ab74 183d f00a 533b 0a35 a73c 8d8a ef3c
00000070: 44c5 b73b ec9f e73c a01e 513a b5c4 453d
00000080: 6b81 083d 1339 2a3a 1ac9 b13d 502f d23c
00000090: ae0a 403c 412f 063d 234e 7e3d 8f65 313d
000000a0: f7a0 1b3d 4408 d13b d8d8 893d 80b3 f63c
000000b0: 3b6e 233d 794d 963b 6f7a e63c 399a 8e3d
000000c0: 179d 3d3d 08fd 8f3d e25f 433d 8063 843d
000000d0: 44cc 2a3c 90e2 3c3d cb73 353d 74eb a93d
000000e0: 40ea b13d 7487 4e3b 4515 533d b387 2e3d
000000f0: ed26 933c d7ec 803d 79ea 923d ec4c b63b
00000100: 700c 8c3c a224 833d d4a6 9e3c ec4f d73c
00000110: 2c44 2f3b dd21 d33c 546e f83b 4476 2f3d
00000120: 533a 933c 2769 9f3d b5dd 953d 1bad 1a3d
00000130: f401 6139 f205 743d d1d8 3f3d 11fa 8539
00000140: 9689 943a 3dac 2f3d e100 a83a 4e62 053d
00000150: 3718 173a 0f97 063c 00b1 1b3a 2daa b939
00000160: 2eb3 cc3c 0ef4 613c 1162 553c fee8 d13c
00000170: efef 8b3a fa09 2f3c ff45 a03d 3312 2e3c
00000180: e0e6 783d a5e9 b23d c767 6a3c 9df3 863d
00000190: bd46 703d 86fe 543d 1b81 b03c d2b1 3e3d
000001a0: 881b 9e3c 1772 823d e42f 6f3b d36a 663d
000001b0: 59ad 983c 1525 273c 8cfe 383d 7cbc f93b
000001c0: 1de3 1c3b 8ac6 ab3d e2f9 583b 774d 3c3d
000001d0: 6d18 9639 6536 2a3d 66c6 843d 8f3c 7b3b
000001e0: 574b 353d 782d 623c a56e 993d 28be 9a3c
000001f0: 607a 8c3d c5d4 863d 68bf 5f3d a1e3 5a3d
